share/tensorflow/mobilenet_v1_0.25_192_quant/model.tflite (tflite, 496912 bytes, 28 tensors)

MobilenetV1/Logits/Conv2d_1c_1x1/weights_quant/FakeQuantWithMinMaxVars u1 [1001, 1, 1, 256] scale=0.0064174826 zero_point=81
000000 4f 4f 4c 4f 4e 50 4f 4f 4e 50 4e 4f 4f 4f 4e 4f
       -0.012834965 -0.012834965 -0.03208741 -0.012834965 -0.019252447 -0.0064174826 -0.012834965 -0.012834965 -0.019252447 -0.0064174826 -0.019252447 -0.012834965 -0.012834965 -0.012834965 -0.019252447 -0.012834965
000010 4e 4e 4e 4f 4f 4e 4f 4f 4f 50 4f 4f 4f 4f 50 4f
       -0.019252447 -0.019252447 -0.019252447 -0.012834965 -0.012834965 -0.019252447 -0.012834965 -0.012834965 -0.012834965 -0.0064174826 -0.012834965 -0.012834965 -0.012834965 -0.012834965 -0.0064174826 -0.012834965
000020 4f 4f 4d 4f 4e 50 4f 4f 4f 4f 4e 4f 4f 4f 4f 4e
       -0.012834965 -0.012834965 -0.02566993 -0.012834965 -0.019252447 -0.0064174826 -0.012834965 -0.012834965 -0.012834965 -0.012834965 -0.019252447 -0.012834965 -0.012834965 -0.012834965 -0.012834965 -0.019252447
000030 4f 4f 4f 4f 4f 4f 4e 4f 4f 4f 4e 4f 4e 4f 4f 4f
       -0.012834965 -0.012834965 -0.012834965 -0.012834965 -0.012834965 -0.012834965 -0.019252447 -0.012834965 -0.012834965 -0.012834965 -0.019252447 -0.012834965 -0.019252447 -0.012834965 -0.012834965 -0.012834965
000040 4f 4f 50 4e 4f 4f 4e 50 50 4f 4f 4d 4f 4f 4f 4f
       -0.012834965 -0.012834965 -0.0064174826 -0.019252447 -0.012834965 -0.012834965 -0.019252447 -0.0064174826 -0.0064174826 -0.012834965 -0.012834965 -0.02566993 -0.012834965 -0.012834965 -0.012834965 -0.012834965
000050 4f 4e 4e 4f 4f 4e 4e 4f 4f 4f 4f 4f 4f 4e 4f 4f
       -0.012834965 -0.019252447 -0.019252447 -0.012834965 -0.012834965 -0.019252447 -0.019252447 -0.012834965 -0.012834965 -0.012834965 -0.012834965 -0.012834965 -0.012834965 -0.019252447 -0.012834965 -0.012834965
000060 4f 4e 4f 4d 50 4f 4f 4e 4f 4f 4e 4f 4e 4f 4e 4f
       -0.012834965 -0.019252447 -0.012834965 -0.02566993 -0.0064174826 -0.012834965 -0.012834965 -0.019252447 -0.012834965 -0.012834965 -0.019252447 -0.012834965 -0.019252447 -0.012834965 -0.019252447 -0.012834965
000070 50 50 4e 4f 4f 4f 50 4f 4d 4e 4f 4f 4f 4d 4f 4f
       -0.0064174826 -0.0064174826 -0.019252447 -0.012834965 -0.012834965 -0.012834965 -0.0064174826 -0.012834965 -0.02566993 -0.019252447 -0.012834965 -0.012834965 -0.012834965 -0.02566993 -0.012834965 -0.012834965
000080 4d 4f 4e 50 4f 4f 4f 4f 4f 50 4f 4f 4e 4f 50 50
       -0.02566993 -0.012834965 -0.019252447 -0.0064174826 -0.012834965 -0.012834965 -0.012834965 -0.012834965 -0.012834965 -0.0064174826 -0.012834965 -0.012834965 -0.019252447 -0.012834965 -0.0064174826 -0.0064174826
000090 4e 4f 4f 4e 4e 4f 50 4d 4f 4f 4f 4f 4f 4e 4f 4f
       -0.019252447 -0.012834965 -0.012834965 -0.019252447 -0.019252447 -0.012834965 -0.0064174826 -0.02566993 -0.012834965 -0.012834965 -0.012834965 -0.012834965 -0.012834965 -0.019252447 -0.012834965 -0.012834965
0000a0 4f 50 4f 4e 4f 4f 4f 4f 4e 4f 4e 4e 4f 4e 4e 4f
       -0.012834965 -0.0064174826 -0.012834965 -0.019252447 -0.012834965 -0.012834965 -0.012834965 -0.012834965 -0.019252447 -0.012834965 -0.019252447 -0.019252447 -0.012834965 -0.019252447 -0.019252447 -0.012834965
0000b0 4d 4e 4f 4f 4f 4e 4f 4f 4f 4f 4e 4f 4e 4f 4f 4f
       -0.02566993 -0.019252447 -0.012834965 -0.012834965 -0.012834965 -0.019252447 -0.012834965 -0.012834965 -0.012834965 -0.012834965 -0.019252447 -0.012834965 -0.019252447 -0.012834965 -0.012834965 -0.012834965
0000c0 4f 4f 4f 4f 4f 4f 4d 4f 4f 4f 4f 50 50 50 4f 4f
       -0.012834965 -0.012834965 -0.012834965 -0.012834965 -0.012834965 -0.012834965 -0.02566993 -0.012834965 -0.012834965 -0.012834965 -0.012834965 -0.0064174826 -0.0064174826 -0.0064174826 -0.012834965 -0.012834965
0000d0 4d 4f 4e 4e 4f 4f 4f 4f 4f 50 4f 50 4f 4f 4f 4d
       -0.02566993 -0.012834965 -0.019252447 -0.019252447 -0.012834965 -0.012834965 -0.012834965 -0.012834965 -0.012834965 -0.0064174826 -0.012834965 -0.0064174826 -0.012834965 -0.012834965 -0.012834965 -0.02566993
0000e0 4f 4f 4f 50 4f 4f 4f 4f 4e 4f 4f 4e 4f 4d 4d 4e
       -0.012834965 -0.012834965 -0.012834965 -0.0064174826 -0.012834965 -0.012834965 -0.012834965 -0.012834965 -0.019252447 -0.012834965 -0.012834965 -0.019252447 -0.012834965 -0.02566993 -0.02566993 -0.019252447
0000f0 4f 4f 4c 4e 4f 4f 4e 4f 4f 50 50 4d 4f 4f 4f 4e
       -0.012834965 -0.012834965 -0.03208741 -0.019252447 -0.012834965 -0.012834965 -0.019252447 -0.012834965 -0.012834965 -0.0064174826 -0.0064174826 -0.02566993 -0.012834965 -0.012834965 -0.012834965 -0.019252447

MobilenetV1/MobilenetV1/Conv2d_0/weights_quant/FakeQuantWithMinMaxVars u1 [8, 3, 3, 3] scale=0.0038962204 zero_point=123
000000 7e 7b 7e 7e 7b 7e 7d 7b 7d 80 7c 7f 81 7e 7f 7e
       0.011688661 0.0 0.011688661 0.011688661 0.0 0.011688661 0.0077924407 0.0 0.0077924407 0.019481102 0.0038962204 0.015584881 0.023377322 0.011688661 0.015584881 0.011688661
000010 7b 7e 80 7d 81 82 7e 81 81 7d 80 7c 7d 7f 7b 7b
       0.0 0.011688661 0.019481102 0.0077924407 0.023377322 0.027273543 0.011688661 0.023377322 0.023377322 0.0077924407 0.019481102 0.0038962204 0.0077924407 0.015584881 0.0 0.0
000020 7c 7a 7a 7a 7a 7b 7d 7b 7c 7c 7c 7c 7b 7a 7b 7d
       0.0038962204 -0.0038962204 -0.0038962204 -0.0038962204 -0.0038962204 0.0 0.0077924407 0.0 0.0038962204 0.0038962204 0.0038962204 0.0038962204 0.0 -0.0038962204 0.0 0.0077924407
000030 7b 7c 7c 7d 7d 7c 94 2a b4 a7 1f ab 92 43 9c b1
       0.0 0.0038962204 0.0038962204 0.0077924407 0.0077924407 0.0038962204 0.09740551 -0.31559384 0.22208457 0.1714337 -0.35845226 0.18701857 0.089613065 -0.21818835 0.12857527 0.2103959
000040 0e b2 ca 00 a7 a8 1f a9 9e 32 a2 a6 21 ab 87 3a
       -0.424688 0.21429212 0.3078014 -0.4792351 0.1714337 0.17532991 -0.35845226 0.17922613 0.13636771 -0.2844241 0.1519526 0.16753748 -0.35065982 0.18701857 0.046754643 -0.25325432
000050 b0 f4 45 39 d8 23 76 c0 7d 35 ff 3b 3b c6 00 a6
       0.20649968 0.47144267 -0.2103959 -0.25715053 0.3623485 -0.3428674 -0.019481102 0.2688392 0.0077924407 -0.27273542 0.51430106 -0.2493581 -0.2493581 0.29221654 -0.4792351 0.16753748
000060 ac 74 52 d0 73 29 c9 5b 50 90 a3 37 c9 d1 ab 97
       0.1909148 -0.027273543 -0.15974504 0.33117872 -0.031169763 -0.31949008 0.3039052 -0.12467905 -0.16753748 0.08182063 0.15584882 -0.26494297 0.3039052 0.33507496 0.18701857 0.10909417
000070 a1 7d 97 a3 72 8f 9c 7b 6c 7a 5a 77 86 58 82 97
       0.14805637 0.0077924407 0.10909417 0.15584882 -0.035065982 0.07792441 0.12857527 0.0 -0.058443304 -0.0038962204 -0.12857527 -0.015584881 0.042858426 -0.13636771 0.027273543 0.10909417
000080 75 6b 80 5f 77 89 5e 58 3f 6b 54 31 6b 73 74 75
       -0.023377322 -0.062339526 0.019481102 -0.10909417 -0.015584881 0.054547086 -0.11299039 -0.13636771 -0.23377322 -0.062339526 -0.1519526 -0.2883203 -0.062339526 -0.031169763 -0.027273543 -0.023377322
000090 4a 32 6a 48 24 6b 6f 75 75 6f 73 78 6a 71 7a 81
       -0.1909148 -0.2844241 -0.06623574 -0.19870724 -0.33897117 -0.062339526 -0.046754643 -0.023377322 -0.023377322 -0.046754643 -0.031169763 -0.011688661 -0.06623574 -0.038962204 -0.0038962204 0.023377322
0000a0 87 7d 7b 7c 7d 7b 7c 7c 7b 7b 7c 7b 7c 7c 7b 7c
       0.046754643 0.0077924407 0.0 0.0038962204 0.0077924407 0.0 0.0038962204 0.0038962204 0.0 0.0 0.0038962204 0.0 0.0038962204 0.0038962204 0.0 0.0038962204
0000b0 7c 7b 7b 7c 7b 7c 7c 7b 7c 7c 7b 7b 7b 83 82 7f
       0.0038962204 0.0 0.0 0.0038962204 0.0 0.0038962204 0.0038962204 0.0 0.0038962204 0.0038962204 0.0 0.0 0.0 0.031169763 0.027273543 0.015584881
0000c0 85 84 7f 84 83 7f 83 84 81 85 85 80 83 83 80 81
       0.038962204 0.035065982 0.015584881 0.035065982 0.031169763 0.015584881 0.031169763 0.035065982 0.023377322 0.038962204 0.038962204 0.019481102 0.031169763 0.031169763 0.019481102 0.023377322
0000d0 82 7f 81 81 7e 84 84 80
       0.027273543 0.015584881 0.023377322 0.023377322 0.011688661 0.035065982 0.035065982 0.019481102

MobilenetV1/MobilenetV1/Conv2d_10_depthwise/weights_quant/FakeQuantWithMinMaxVars u1 [1, 3, 3, 128] scale=0.020542331 zero_point=150
000000 9c a6 a7 a1 a5 bd 97 9b 97 a0 97 9a 98 98 96 9b
       0.123253986 0.3286773 0.34921962 0.22596565 0.30813497 0.8011509 0.020542331 0.102711655 0.020542331 0.20542331 0.020542331 0.082169324 0.041084662 0.041084662 0.0 0.102711655
000010 8e 94 91 a2 96 97 9d 98 96 93 95 95 9c ad 93 ab
       -0.16433865 -0.041084662 -0.102711655 0.24650797 0.0 0.020542331 0.14379632 0.041084662 0.0 -0.061626993 -0.020542331 -0.020542331 0.123253986 0.47247362 -0.061626993 0.43138894
000020 98 9a 91 9c 88 8b 97 94 98 9c 9c 90 96 90 a5 b2
       0.041084662 0.082169324 -0.102711655 0.123253986 -0.28759265 -0.22596565 0.020542331 -0.041084662 0.041084662 0.123253986 0.123253986 -0.123253986 0.0 -0.123253986 0.30813497 0.5751853
000030 95 94 99 97 97 91 a0 96 a1 85 92 92 94 a9 a1 99
       -0.020542331 -0.041084662 0.061626993 0.020542331 0.020542331 -0.102711655 0.20542331 0.0 0.22596565 -0.34921962 -0.082169324 -0.082169324 -0.041084662 0.3903043 0.22596565 0.061626993
000040 93 98 8b 96 a8 91 a7 93 93 a0 a3 95 a8 90 90 9a
       -0.061626993 0.041084662 -0.22596565 0.0 0.36976194 -0.102711655 0.34921962 -0.061626993 -0.061626993 0.20542331 0.2670503 -0.020542331 0.36976194 -0.123253986 -0.123253986 0.082169324
000050 93 8c 98 8c 99 97 99 90 93 8b 9b 93 94 9a 8f 92
       -0.061626993 -0.20542331 0.041084662 -0.20542331 0.061626993 0.020542331 0.061626993 -0.123253986 -0.061626993 -0.22596565 0.102711655 -0.061626993 -0.041084662 0.082169324 -0.14379632 -0.082169324
000060 9a 98 8a 9a 8c 8c 93 95 9a 9c 9a 94 90 a0 8f 96
       0.082169324 0.041084662 -0.24650797 0.082169324 -0.20542331 -0.20542331 -0.061626993 -0.020542331 0.082169324 0.123253986 0.082169324 -0.041084662 -0.123253986 0.20542331 -0.14379632 0.0
000070 a7 97 91 92 94 95 8e 97 92 94 92 98 94 91 8c 96
       0.34921962 0.020542331 -0.102711655 -0.082169324 -0.041084662 -0.020542331 -0.16433865 0.020542331 -0.082169324 -0.041084662 -0.082169324 0.041084662 -0.041084662 -0.102711655 -0.20542331 0.0
000080 9b a6 9d 97 c1 cc 90 a4 a3 9c 98 92 9b 9f 94 9a
       0.102711655 0.3286773 0.14379632 0.020542331 0.8833202 1.1092858 -0.123253986 0.28759265 0.2670503 0.123253986 0.041084662 -0.082169324 0.102711655 0.18488097 -0.041084662 0.082169324
000090 8f c0 8e 9e 96 9e a7 9d a1 8a 96 96 93 a4 85 aa
       -0.14379632 0.8627779 -0.16433865 0.16433865 0.0 0.16433865 0.34921962 0.14379632 0.22596565 -0.24650797 0.0 0.0 -0.061626993 0.28759265 -0.34921962 0.41084662
0000a0 80 8d 8d 96 9d 89 90 a5 a1 9d a4 82 96 8d 93 9b
       -0.4519313 -0.18488097 -0.18488097 0.0 0.14379632 -0.2670503 -0.123253986 0.30813497 0.22596565 0.14379632 0.28759265 -0.41084662 0.0 -0.18488097 -0.061626993 0.102711655
0000b0 8d 96 9d a0 94 91 a7 94 b1 90 8b 9f 8a a6 a2 7b
       -0.18488097 0.0 0.14379632 0.20542331 -0.041084662 -0.102711655 0.34921962 -0.041084662 0.5546429 -0.123253986 -0.22596565 0.18488097 -0.24650797 0.3286773 0.24650797 -0.5546429
0000c0 8f 8e 74 aa bc 8d a5 97 95 98 bc 8e af 83 99 9b
       -0.14379632 -0.16433865 -0.69843924 0.41084662 0.7806086 -0.18488097 0.30813497 0.020542331 -0.020542331 0.041084662 0.7806086 -0.16433865 0.51355827 -0.3903043 0.061626993 0.102711655
0000d0 90 8c 91 84 87 9e a7 67 8d 90 8a 93 8c 9b 78 87
       -0.123253986 -0.20542331 -0.102711655 -0.36976194 -0.30813497 0.16433865 0.34921962 -0.96548957 -0.18488097 -0.123253986 -0.24650797 -0.061626993 -0.20542331 0.102711655 -0.61626995 -0.30813497
0000e0 9b 98 95 a0 8e 8c 7f 95 a4 bd a0 9b a4 af 8c 92
       0.102711655 0.041084662 -0.020542331 0.20542331 -0.16433865 -0.20542331 -0.47247362 -0.020542331 0.28759265 0.8011509 0.20542331 0.102711655 0.28759265 0.51355827 -0.20542331 -0.082169324
0000f0 9e 87 8c 94 8e 8d 8e 9f 8f 83 84 95 82 91 7a 8e
       0.16433865 -0.30813497 -0.20542331 -0.041084662 -0.16433865 -0.18488097 -0.16433865 0.18488097 -0.14379632 -0.3903043 -0.36976194 -0.020542331 -0.41084662 -0.102711655 -0.5751853 -0.16433865

MobilenetV1/MobilenetV1/Conv2d_10_pointwise/weights_quant/FakeQuantWithMinMaxVars u1 [128, 1, 1, 128] scale=0.01077618 zero_point=128
000000 81 58 82 82 75 7e 82 83 85 81 8d 77 7a 7d 89 84
       0.01077618 -0.4310472 0.02155236 0.02155236 -0.11853798 -0.02155236 0.02155236 0.03232854 0.0538809 0.01077618 0.14009033 -0.096985616 -0.06465708 -0.03232854 0.096985616 0.04310472
000010 7d 8b 8a 7b 7d 7b 82 7d 82 8a 83 83 8c 84 74 89
       -0.03232854 0.11853798 0.1077618 -0.0538809 -0.03232854 -0.0538809 0.02155236 -0.03232854 0.02155236 0.1077618 0.03232854 0.03232854 0.12931415 0.04310472 -0.12931415 0.096985616
000020 7a 80 9b 7d 82 93 7f 84 80 7f 7e 7f 79 84 81 83
       -0.06465708 0.0 0.29095685 -0.03232854 0.02155236 0.20474742 -0.01077618 0.04310472 0.0 -0.01077618 -0.02155236 -0.01077618 -0.07543326 0.04310472 0.01077618 0.03232854
000030 82 8b 7a 7a 84 87 79 7b 8f 88 87 76 85 79 7b 76
       0.02155236 0.11853798 -0.06465708 -0.06465708 0.04310472 0.07543326 -0.07543326 -0.0538809 0.1616427 0.08620944 0.07543326 -0.1077618 0.0538809 -0.07543326 -0.0538809 -0.1077618
000040 80 8a 7f 99 7b 79 b0 7a 82 83 81 7c 7a 78 80 77
       0.0 0.1077618 -0.01077618 0.2694045 -0.0538809 -0.07543326 0.5172566 -0.06465708 0.02155236 0.03232854 0.01077618 -0.04310472 -0.06465708 -0.08620944 0.0 -0.096985616
000050 8a 82 7d 84 90 7a 83 76 7f 89 75 91 75 7d 84 6f
       0.1077618 0.02155236 -0.03232854 0.04310472 0.17241888 -0.06465708 0.03232854 -0.1077618 -0.01077618 0.096985616 -0.11853798 0.18319505 -0.11853798 -0.03232854 0.04310472 -0.18319505
000060 81 82 95 87 85 6a 9a 85 87 80 7b 80 78 6d 81 8b
       0.01077618 0.02155236 0.22629978 0.07543326 0.0538809 -0.23707595 0.28018066 0.0538809 0.07543326 0.0 -0.0538809 0.0 -0.08620944 -0.20474742 0.01077618 0.11853798
000070 ab 86 6f 79 2d 85 87 7f 7f 89 74 83 7f 8b 80 85
       0.46337575 0.06465708 -0.18319505 -0.07543326 -0.89442295 0.0538809 0.07543326 -0.01077618 -0.01077618 0.096985616 -0.12931415 0.03232854 -0.01077618 0.11853798 0.0 0.0538809
000080 85 68 7b 83 81 7d 7c 84 80 89 80 74 6e 7f 8d 79
       0.0538809 -0.2586283 -0.0538809 0.03232854 0.01077618 -0.03232854 -0.04310472 0.04310472 0.0 0.096985616 0.0 -0.12931415 -0.19397123 -0.01077618 0.14009033 -0.07543326
000090 87 87 78 77 82 8f 81 78 73 77 76 78 83 8b 80 82
       0.07543326 0.07543326 -0.08620944 -0.096985616 0.02155236 0.1616427 0.01077618 -0.08620944 -0.14009033 -0.096985616 -0.1077618 -0.08620944 0.03232854 0.11853798 0.0 0.02155236
0000a0 6a 79 7a 73 7c 90 8d 75 89 87 89 91 80 7d 72 84
       -0.23707595 -0.07543326 -0.06465708 -0.14009033 -0.04310472 0.17241888 0.14009033 -0.11853798 0.096985616 0.07543326 0.096985616 0.18319505 0.0 -0.03232854 -0.15086652 0.04310472
0000b0 7c 75 84 77 8b 99 85 75 6f 83 7b 81 8d 79 79 6e
       -0.04310472 -0.11853798 0.04310472 -0.096985616 0.11853798 0.2694045 0.0538809 -0.11853798 -0.18319505 0.03232854 -0.0538809 0.01077618 0.14009033 -0.07543326 -0.07543326 -0.19397123
0000c0 83 71 92 88 8d 7c 66 84 7b 7e 88 6d 83 78 99 8c
       0.03232854 -0.1616427 0.19397123 0.08620944 0.14009033 -0.04310472 -0.28018066 0.04310472 -0.0538809 -0.02155236 0.08620944 -0.20474742 0.03232854 -0.08620944 0.2694045 0.12931415
0000d0 6f 77 8d 80 73 81 89 59 82 69 70 75 84 92 96 78
       -0.18319505 -0.096985616 0.14009033 0.0 -0.14009033 0.01077618 0.096985616 -0.420271 0.02155236 -0.24785213 -0.17241888 -0.11853798 0.04310472 0.19397123 0.23707595 -0.08620944
0000e0 80 79 7f 9e 7c 81 6d 78 83 8f 76 6b 88 7b a2 7f
       0.0 -0.07543326 -0.01077618 0.3232854 -0.04310472 0.01077618 -0.20474742 -0.08620944 0.03232854 0.1616427 -0.1077618 -0.22629978 0.08620944 -0.0538809 0.3663901 -0.01077618
0000f0 75 a4 88 91 75 8a 80 86 80 6c 83 78 94 93 80 8a
       -0.11853798 0.38794246 0.08620944 0.18319505 -0.11853798 0.1077618 0.0 0.06465708 0.0 -0.2155236 0.03232854 -0.08620944 0.2155236 0.20474742 0.0 0.1077618

MobilenetV1/MobilenetV1/Conv2d_11_depthwise/weights_quant/FakeQuantWithMinMaxVars u1 [1, 3, 3, 128] scale=0.019942645 zero_point=150
000000 98 a7 98 9b 99 92 9d 97 96 a1 9a 98 9f 98 95 a6
       0.03988529 0.33902496 0.03988529 0.09971322 0.059827935 -0.07977058 0.13959852 0.019942645 0.0 0.2193691 0.07977058 0.03988529 0.1794838 0.03988529 -0.019942645 0.31908232
000010 a0 90 87 97 9b 86 a0 9e 8f a1 96 9a 98 8d a0 86
       0.19942644 -0.11965587 -0.29913968 0.019942645 0.09971322 -0.31908232 0.19942644 0.15954116 -0.13959852 0.2193691 0.0 0.07977058 0.03988529 -0.1794838 0.19942644 -0.31908232
000020 99 9d 8a 9c 8c 9a 94 9d 9f 8d 90 97 8c 94 9f 97
       0.059827935 0.13959852 -0.23931174 0.11965587 -0.19942644 0.07977058 -0.03988529 0.13959852 0.1794838 -0.1794838 -0.11965587 0.019942645 -0.19942644 -0.03988529 0.1794838 0.019942645
000030 87 9d 78 97 8f 8c 9e 9d 93 95 af a7 97 92 94 91
       -0.29913968 0.13959852 -0.59827936 0.019942645 -0.13959852 -0.19942644 0.15954116 0.13959852 -0.059827935 -0.019942645 0.49856612 0.33902496 0.019942645 -0.07977058 -0.03988529 -0.09971322
000040 87 99 99 9d a5 a2 8b 98 a2 91 9f 93 9c 9f 8e a3
       -0.29913968 0.059827935 0.059827935 0.13959852 0.29913968 0.23931174 -0.2193691 0.03988529 0.23931174 -0.09971322 0.1794838 -0.059827935 0.11965587 0.1794838 -0.15954116 0.2592544
000050 b4 80 93 86 90 8d a7 95 ac 8a 91 9e 86 9c 8b a2
       0.59827936 -0.4387382 -0.059827935 -0.31908232 -0.11965587 -0.1794838 0.33902496 -0.019942645 0.4387382 -0.23931174 -0.09971322 0.15954116 -0.31908232 0.11965587 -0.2193691 0.23931174
000060 99 a8 93 a2 93 8c 92 93 9e 8c 8d a3 97 8c 89 8d
       0.059827935 0.3589676 -0.059827935 0.23931174 -0.059827935 -0.19942644 -0.07977058 -0.059827935 0.15954116 -0.19942644 -0.1794838 0.2592544 0.019942645 -0.19942644 -0.2592544 -0.1794838
000070 b4 a0 a1 93 8c 9d 92 91 97 98 6c 92 91 92 86 9e
       0.59827936 0.19942644 0.2193691 -0.059827935 -0.19942644 0.13959852 -0.07977058 -0.09971322 0.019942645 0.03988529 -0.8375911 -0.07977058 -0.09971322 -0.07977058 -0.31908232 0.15954116
000080 8d a2 80 a2 8a 8f a2 9c 86 ad 9b 9f 98 a5 a0 b5
       -0.1794838 0.23931174 -0.4387382 0.23931174 -0.23931174 -0.13959852 0.23931174 0.11965587 -0.31908232 0.45868084 0.09971322 0.1794838 0.03988529 0.29913968 0.19942644 0.618222
000090 96 7a 87 94 a2 70 a6 a1 8d b5 97 b5 9e 91 ad 8a
       0.0 -0.5583941 -0.29913968 -0.03988529 0.23931174 -0.7578205 0.31908232 0.2193691 -0.1794838 0.618222 0.019942645 0.618222 0.15954116 -0.09971322 0.45868084 -0.23931174
0000a0 b3 ab 8b 89 8d a6 83 a3 b4 8c a6 9e 91 a3 a8 a2
       0.5783367 0.41879556 -0.2193691 -0.2592544 -0.1794838 0.31908232 -0.37891024 0.2592544 0.59827936 -0.19942644 0.31908232 0.15954116 -0.09971322 0.2592544 0.3589676 0.23931174
0000b0 a5 af 94 a1 90 8a 82 a9 86 86 b7 bb b6 a3 83 82
       0.29913968 0.49856612 -0.03988529 0.2193691 -0.11965587 -0.23931174 -0.39885288 0.37891024 -0.31908232 -0.31908232 0.6581073 0.73787785 0.63816464 0.2592544 -0.37891024 -0.39885288
0000c0 8c a1 9e a4 b2 a8 86 a8 a7 bd 9f 93 ac b1 89 a1
       -0.19942644 0.2193691 0.15954116 0.27919704 0.5583941 0.3589676 -0.31908232 0.3589676 0.33902496 0.7777631 0.1794838 -0.059827935 0.4387382 0.53845143 -0.2592544 0.2193691
0000d0 b5 8f 8a 85 8e 8c b5 c6 93 8c 8e a1 6f a5 91 a2
       0.618222 -0.13959852 -0.23931174 -0.33902496 -0.15954116 -0.19942644 0.618222 0.95724696 -0.059827935 -0.19942644 -0.15954116 0.2193691 -0.7777631 0.29913968 -0.09971322 0.23931174
0000e0 a3 b5 82 a5 8c bc 8d 7f a9 8d 8a b3 a8 8b 52 8b
       0.2592544 0.618222 -0.39885288 0.29913968 -0.19942644 0.7578205 -0.1794838 -0.45868084 0.37891024 -0.1794838 -0.23931174 0.5783367 0.3589676 -0.2193691 -1.3560998 -0.2193691
0000f0 b0 8b b1 aa 81 a7 87 8c a4 97 9f 8a 7a a6 80 b2
       0.5185088 -0.2193691 0.53845143 0.39885288 -0.41879556 0.33902496 -0.29913968 -0.19942644 0.27919704 0.019942645 0.1794838 -0.23931174 -0.5583941 0.31908232 -0.4387382 0.5583941

MobilenetV1/MobilenetV1/Conv2d_11_pointwise/weights_quant/FakeQuantWithMinMaxVars u1 [128, 1, 1, 128] scale=0.010095479 zero_point=119
000000 6e 5a 71 8a 6f 87 82 92 6e 68 76 71 8c 8f 65 84
       -0.09085931 -0.2927689 -0.060572874 0.1918141 -0.08076383 0.16152766 0.11105027 0.27257794 -0.09085931 -0.15143219 -0.010095479 -0.060572874 0.21200506 0.2422915 -0.18171862 0.13124123
000010 8a 6f 7b 8b 72 78 77 61 6d 58 6c 8f 6f 71 7c 8a
       0.1918141 -0.08076383 0.040381916 0.20190957 -0.050477393 0.010095479 0.0 -0.22210054 -0.100954786 -0.31295985 -0.11105027 0.2422915 -0.08076383 -0.060572874 0.050477393 0.1918141
000020 82 82 90 7d 87 6d 8b 7d 7c 74 62 92 83 78 81 81
       0.11105027 0.11105027 0.252387 0.060572874 0.16152766 -0.100954786 0.20190957 0.060572874 0.050477393 -0.030286437 -0.21200506 0.27257794 0.12114575 0.010095479 0.100954786 0.100954786
000030 83 84 6f 8a 79 87 7a 9b 7a 65 71 85 62 5d 5f 66
       0.12114575 0.13124123 -0.08076383 0.1918141 0.020190958 0.16152766 0.030286437 0.36343724 0.030286437 -0.18171862 -0.060572874 0.14133671 -0.21200506 -0.26248246 -0.2422915 -0.17162314
000040 62 71 7e 78 84 7d 78 72 6f 6c 6f 83 70 83 6a 76
       -0.21200506 -0.060572874 0.070668355 0.010095479 0.13124123 0.060572874 0.010095479 -0.050477393 -0.08076383 -0.11105027 -0.08076383 0.12114575 -0.070668355 0.12114575 -0.13124123 -0.010095479
000050 84 85 63 82 64 7f 83 73 70 5b 76 6f 7b 8d 78 6b
       0.13124123 0.14133671 -0.20190957 0.11105027 -0.1918141 0.08076383 0.12114575 -0.040381916 -0.070668355 -0.28267342 -0.010095479 -0.08076383 0.040381916 0.22210054 0.010095479 -0.12114575
000060 77 78 7c 7a 91 85 4f 65 6c 6a 73 5e 82 65 80 62
       0.0 0.010095479 0.050477393 0.030286437 0.26248246 0.14133671 -0.40381914 -0.18171862 -0.11105027 -0.13124123 -0.040381916 -0.252387 0.11105027 -0.18171862 0.09085931 -0.21200506
000070 7f 79 86 5a 74 75 97 77 66 7a 8a 88 73 69 8d 88
       0.08076383 0.020190958 0.15143219 -0.2927689 -0.030286437 -0.020190958 0.32305533 0.0 -0.17162314 0.030286437 0.1918141 0.17162314 -0.040381916 -0.14133671 0.22210054 0.17162314
000080 79 81 7e 60 78 87 79 74 83 7e 78 6e 7c 88 78 71
       0.020190958 0.100954786 0.070668355 -0.23219602 0.010095479 0.16152766 0.020190958 -0.030286437 0.12114575 0.070668355 0.010095479 -0.09085931 0.050477393 0.17162314 0.010095479 -0.060572874
000090 6c 66 75 84 70 78 77 6f 7b 7d 79 77 6a 6a 87 76
       -0.11105027 -0.17162314 -0.020190958 0.13124123 -0.070668355 0.010095479 0.0 -0.08076383 0.040381916 0.060572874 0.020190958 0.0 -0.13124123 -0.13124123 0.16152766 -0.010095479
0000a0 6c 78 6c 7d 78 7c 78 70 7c 73 74 7a 76 7b 78 79
       -0.11105027 0.010095479 -0.11105027 0.060572874 0.010095479 0.050477393 0.010095479 -0.070668355 0.050477393 -0.040381916 -0.030286437 0.030286437 -0.010095479 0.040381916 0.010095479 0.020190958
0000b0 74 72 7d 78 7a 7a 76 7d 72 75 69 6f 74 73 78 79
       -0.030286437 -0.050477393 0.060572874 0.010095479 0.030286437 0.030286437 -0.010095479 0.060572874 -0.050477393 -0.020190958 -0.14133671 -0.08076383 -0.030286437 -0.040381916 0.010095479 0.020190958
0000c0 76 71 78 79 72 77 7a 7a 77 6d 6c 76 72 76 82 71
       -0.010095479 -0.060572874 0.010095479 0.020190958 -0.050477393 0.0 0.030286437 0.030286437 0.0 -0.100954786 -0.11105027 -0.010095479 -0.050477393 -0.010095479 0.11105027 -0.060572874
0000d0 74 75 75 78 7e 7b 7d 7e 78 73 71 7a 7a 89 81 7b
       -0.030286437 -0.020190958 -0.020190958 0.010095479 0.070668355 0.040381916 0.060572874 0.070668355 0.010095479 -0.040381916 -0.060572874 0.030286437 0.030286437 0.18171862 0.100954786 0.040381916
0000e0 74 73 78 86 84 79 7c 76 81 7e 79 74 71 7c 74 86
       -0.030286437 -0.040381916 0.010095479 0.15143219 0.13124123 0.020190958 0.050477393 -0.010095479 0.100954786 0.070668355 0.020190958 -0.030286437 -0.060572874 0.050477393 -0.030286437 0.15143219
0000f0 72 7f 75 82 77 7a 72 81 71 75 73 77 7a 82 7e 79
       -0.050477393 0.08076383 -0.020190958 0.11105027 0.0 0.030286437 -0.050477393 0.100954786 -0.060572874 -0.020190958 -0.040381916 0.0 0.030286437 0.11105027 0.070668355 0.020190958

MobilenetV1/MobilenetV1/Conv2d_12_depthwise/weights_quant/FakeQuantWithMinMaxVars u1 [1, 3, 3, 128] scale=0.0071216295 zero_point=99
000000 4f 3c 80 4b 30 4e 8f 86 40 49 8a 8c 81 0e 52 87
       -0.14243259 -0.27774355 0.20652726 -0.1709191 -0.3632031 -0.14955422 0.3133517 0.24925703 -0.24925703 -0.18516237 0.27774355 0.29198682 0.21364889 -0.6053385 -0.1210677 0.25637865
000010 72 8e 43 87 85 97 36 49 41 35 e0 4b 85 88 9d 86
       0.10682444 0.30623007 -0.22789215 0.25637865 0.2421354 0.37032473 -0.32047334 -0.18516237 -0.2421354 -0.32759497 0.8902037 -0.1709191 0.2421354 0.2635003 0.41305453 0.24925703
000020 57 76 4c 82 39 8f 98 40 34 8c 82 2d 8d 89 87 3c
       -0.08545955 0.13531096 -0.16379748 0.22077052 -0.29910845 0.3133517 0.37744635 -0.24925703 -0.3347166 0.29198682 0.22077052 -0.384568 0.29910845 0.27062193 0.25637865 -0.27774355
000030 94 51 88 8b 2c 38 7b 46 80 8e 3e 17 2e 4f 83 52
       0.34895983 -0.12818933 0.2635003 0.28486517 -0.39168963 -0.30623007 0.1709191 -0.20652726 0.20652726 0.30623007 -0.2635003 -0.54124385 -0.37744635 -0.14243259 0.22789215 -0.1210677
000040 7e 4c 8c 8c 7f 53 4b 49 4e 2d 4d 36 1c 80 95 44
       0.192284 -0.16379748 0.29198682 0.29198682 0.19940563 -0.11394607 -0.1709191 -0.18516237 -0.14955422 -0.384568 -0.15667585 -0.32047334 -0.5056357 0.20652726 0.3560815 -0.22077052
000050 85 92 8a 0f 8b 8a 44 3d 98 81 a8 7e 48 8c 88 24
       0.2421354 0.3347166 0.27774355 -0.5982169 0.28486517 0.27774355 -0.22077052 -0.27062193 0.37744635 0.21364889 0.49139243 0.192284 -0.192284 0.29198682 0.2635003 -0.44866267
000060 50 51 7c 2d 82 3e 35 48 3d 4e 80 47 9e 52 7b 86
       -0.13531096 -0.12818933 0.17804074 -0.384568 0.22077052 -0.2635003 -0.32759497 -0.192284 -0.27062193 -0.14955422 0.20652726 -0.19940563 0.42017615 -0.1210677 0.1709191 0.24925703
000070 2b 7b 82 39 92 4e 60 47 54 89 49 3d 77 8a 3c 39
       -0.39881125 0.1709191 0.22077052 -0.29910845 0.3347166 -0.14955422 -0.021364888 -0.19940563 -0.10682444 0.27062193 -0.18516237 -0.27062193 0.14243259 0.27774355 -0.27774355 -0.29910845
000080 4a 34 88 47 26 4a 98 8f 39 43 92 97 89 00 50 8f
       -0.17804074 -0.3347166 0.2635003 -0.19940563 -0.4344194 -0.17804074 0.37744635 0.3133517 -0.29910845 -0.22789215 0.3347166 0.37032473 0.27062193 -0.70504135 -0.13531096 0.3133517
000090 74 97 3e 8f 8d 9f 36 46 38 2f ff 47 8d 91 ac 8b
       0.1210677 0.37032473 -0.2635003 0.3133517 0.29910845 0.42729777 -0.32047334 -0.20652726 -0.30623007 -0.37032473 1.1109742 -0.19940563 0.29910845 0.32759497 0.519879 0.28486517
0000a0 53 7d 47 8a 2f 9a a1 39 27 91 8a 2a 96 62 91 37
       -0.11394607 0.18516237 -0.19940563 0.27774355 -0.37032473 0.39168963 0.44154105 -0.29910845 -0.42729777 0.32759497 0.27774355 -0.40593287 0.3632031 -0.0071216295 0.32759497 -0.3133517
0000b0 9f 4c 8f 93 2a 2f 80 3f 86 97 3a 11 28 48 8c 4e
       0.42729777 -0.16379748 0.3133517 0.3418382 -0.40593287 -0.37032473 0.20652726 -0.25637865 0.24925703 0.37032473 -0.29198682 -0.58397365 -0.42017615 -0.192284 0.29198682 -0.14955422
0000c0 86 47 95 97 89 50 44 42 4a 20 47 30 10 89 9e 3c
       0.24925703 -0.19940563 0.3560815 0.37032473 0.27062193 -0.13531096 -0.22077052 -0.23501377 -0.17804074 -0.4771492 -0.19940563 -0.3632031 -0.59109527 0.27062193 0.42017615 -0.27774355
0000d0 8d 9d 93 08 95 94 3d 36 a3 88 b4 87 41 95 90 1a
       0.29910845 0.41305453 0.3418382 -0.6480683 0.3560815 0.34895983 -0.27062193 -0.32047334 0.4557843 0.2635003 0.57685196 0.25637865 -0.2421354 0.3560815 0.32047334 -0.519879
0000e0 4b 4c 7d 23 8b 36 38 42 37 48 88 44 ac 4f 83 8c
       -0.1709191 -0.16379748 0.18516237 -0.4557843 0.28486517 -0.32047334 -0.30623007 -0.23501377 -0.3133517 -0.192284 0.2635003 -0.22077052 0.519879 -0.14243259 0.22789215 0.29198682
0000f0 23 82 88 32 a2 49 5e 43 51 94 41 38 87 92 31 30
       -0.4557843 0.22077052 0.2635003 -0.34895983 0.44866267 -0.18516237 -0.035608146 -0.22789215 -0.12818933 0.34895983 -0.2421354 -0.30623007 0.25637865 0.3347166 -0.3560815 -0.3632031

MobilenetV1/MobilenetV1/Conv2d_12_pointwise/weights_quant/FakeQuantWithMinMaxVars u1 [256, 1, 1, 128] scale=0.01741546 zero_point=149
000000 94 95 98 a6 8e ae a0 91 94 a5 a1 9a 86 97 8d a3
       -0.01741546 0.0 0.05224638 0.29606283 -0.12190822 0.4353865 0.19157006 -0.06966184 -0.01741546 0.27864736 0.20898552 0.087077305 -0.2612319 0.03483092 -0.13932368 0.24381644
000010 93 95 98 8a 95 87 8d 99 a1 89 8d 86 9c 8d 8e 9c
       -0.03483092 0.0 0.05224638 -0.19157006 0.0 -0.24381644 -0.13932368 0.06966184 0.20898552 -0.20898552 -0.13932368 -0.2612319 0.12190822 -0.13932368 -0.12190822 0.12190822
000020 97 90 93 95 94 8b 91 9b 9c 92 9b 95 98 9b 9f 9b
       0.03483092 -0.087077305 -0.03483092 0.0 -0.01741546 -0.17415461 -0.06966184 0.10449276 0.12190822 -0.05224638 0.10449276 0.0 0.05224638 0.10449276 0.17415461 0.10449276
000030 96 90 93 98 90 98 96 93 89 9a 9a 97 8c 94 a6 94
       0.01741546 -0.087077305 -0.03483092 0.05224638 -0.087077305 0.05224638 0.01741546 -0.03483092 -0.20898552 0.087077305 0.087077305 0.03483092 -0.15673915 -0.01741546 0.29606283 -0.01741546
000040 9b 90 a6 91 97 9e 8c 9a 96 a0 a0 81 97 8e 8e 95
       0.10449276 -0.087077305 0.29606283 -0.06966184 0.03483092 0.15673915 -0.15673915 0.087077305 0.01741546 0.19157006 0.19157006 -0.34830922 0.03483092 -0.12190822 -0.12190822 0.0
000050 9a 92 9b 83 91 a0 94 90 a6 8b 86 a0 9f 95 a3 a4
       0.087077305 -0.05224638 0.10449276 -0.3134783 -0.06966184 0.19157006 -0.01741546 -0.087077305 0.29606283 -0.17415461 -0.2612319 0.19157006 0.17415461 0.0 0.24381644 0.2612319
000060 92 89 88 94 9a a2 8c 86 91 8e 86 9b 90 aa 92 87
       -0.05224638 -0.20898552 -0.22640099 -0.01741546 0.087077305 0.22640099 -0.15673915 -0.2612319 -0.06966184 -0.12190822 -0.2612319 0.10449276 -0.087077305 0.36572465 -0.05224638 -0.24381644
000070 93 87 8f 9b 8f 89 84 92 8d 92 97 92 93 a6 8b 86
       -0.03483092 -0.24381644 -0.10449276 0.10449276 -0.10449276 -0.20898552 -0.29606283 -0.05224638 -0.13932368 -0.05224638 0.03483092 -0.05224638 -0.03483092 0.29606283 -0.17415461 -0.2612319
000080 91 97 8d 98 8e 98 8a 87 98 8c 99 a1 8f 8d 83 9d
       -0.06966184 0.03483092 -0.13932368 0.05224638 -0.12190822 0.05224638 -0.19157006 -0.24381644 0.05224638 -0.15673915 0.06966184 0.20898552 -0.10449276 -0.13932368 -0.3134783 0.13932368
000090 94 98 91 91 8c 97 8a a2 8c 8e 93 86 97 8a 88 9a
       -0.01741546 0.05224638 -0.06966184 -0.06966184 -0.15673915 0.03483092 -0.19157006 0.22640099 -0.15673915 -0.12190822 -0.03483092 -0.2612319 0.03483092 -0.19157006 -0.22640099 0.087077305
0000a0 93 9b a1 9d 82 8e 8e 94 9a 8f 9c 97 9b 9d 8d 9b
       -0.03483092 0.10449276 0.20898552 0.13932368 -0.33089375 -0.12190822 -0.12190822 -0.01741546 0.087077305 -0.10449276 0.12190822 0.03483092 0.10449276 0.13932368 -0.13932368 0.10449276
0000b0 8e 91 7f a1 8f 9e 89 92 95 92 9a 9b 87 9e 96 92
       -0.12190822 -0.06966184 -0.38314012 0.20898552 -0.10449276 0.15673915 -0.20898552 -0.05224638 0.0 -0.05224638 0.087077305 0.10449276 -0.24381644 0.15673915 0.01741546 -0.05224638
0000c0 8b 93 a5 97 93 90 92 99 6c 91 9b 89 99 94 96 8d
       -0.17415461 -0.03483092 0.27864736 0.03483092 -0.03483092 -0.087077305 -0.05224638 0.06966184 -0.71403384 -0.06966184 0.10449276 -0.20898552 0.06966184 -0.01741546 0.01741546 -0.13932368
0000d0 8e 8e 99 92 95 99 8f a1 9f 93 8c 96 9b 80 91 98
       -0.12190822 -0.12190822 0.06966184 -0.05224638 0.0 0.06966184 -0.10449276 0.20898552 0.17415461 -0.03483092 -0.15673915 0.01741546 0.10449276 -0.36572465 -0.06966184 0.05224638
0000e0 98 98 9e 91 90 9d 8e 90 8a 94 96 8e 9c 99 8c 8e
       0.05224638 0.05224638 0.15673915 -0.06966184 -0.087077305 0.13932368 -0.12190822 -0.087077305 -0.19157006 -0.01741546 0.01741546 -0.12190822 0.12190822 0.06966184 -0.15673915 -0.12190822
0000f0 98 ac 8d 9e 95 95 87 93 9d 90 97 8c 94 b0 8b 89
       0.05224638 0.40055558 -0.13932368 0.15673915 0.0 0.0 -0.24381644 -0.03483092 0.13932368 -0.087077305 0.03483092 -0.15673915 -0.01741546 0.47021744 -0.17415461 -0.20898552

MobilenetV1/MobilenetV1/Conv2d_13_depthwise/weights_quant/FakeQuantWithMinMaxVars u1 [1, 3, 3, 256] scale=0.031569198 zero_point=190
000000 cd d7 9c c6 c5 cc b6 cd e8 cc cd cc d3 cd b8 d3
       0.47353798 0.7892299 -1.0733527 0.25255358 0.22098438 0.44196877 -0.25255358 0.47353798 1.3259063 0.44196877 0.47353798 0.44196877 0.66295314 0.47353798 -0.18941519 0.66295314
000010 c6 b6 af b4 cd ce c8 cd b0 69 d3 b5 cf ca b8 cc
       0.25255358 -0.25255358 -0.47353798 -0.31569198 0.47353798 0.50510716 0.31569198 0.47353798 -0.44196877 -2.6833818 0.66295314 -0.28412277 0.53667635 0.37883037 -0.18941519 0.44196877
000020 b3 d0 c8 aa ac b0 d4 b7 00 ca cd cc cc ce ce b0
       -0.3472612 0.56824553 0.31569198 -0.63138396 -0.56824553 -0.44196877 0.6945224 -0.22098438 -5.9981475 0.37883037 0.47353798 0.44196877 0.44196877 0.50510716 0.50510716 -0.44196877
000030 e1 b6 b3 ca b7 ce bf cb c7 b0 d2 b5 ae ae b2 de
       1.1049219 -0.25255358 -0.3472612 0.37883037 -0.22098438 0.50510716 0.031569198 0.41039956 0.28412277 -0.44196877 0.63138396 -0.28412277 -0.50510716 -0.50510716 -0.37883037 1.0102143
000040 d6 b7 b3 d1 b4 b3 d6 c7 ca af de 98 b1 cc b4 cf
       0.75766075 -0.22098438 -0.3472612 0.5998148 -0.31569198 -0.3472612 0.75766075 0.28412277 0.37883037 -0.47353798 1.0102143 -1.1996295 -0.41039956 0.44196877 -0.31569198 0.53667635
000050 d7 b8 cb b7 b2 c6 c5 ad d1 c4 d1 b3 cd c3 ca cb
       0.7892299 -0.18941519 0.41039956 -0.22098438 -0.37883037 0.25255358 0.22098438 -0.53667635 0.5998148 0.18941519 0.5998148 -0.3472612 0.47353798 0.15784599 0.37883037 0.41039956
000060 b7 ca e6 d5 b3 af b4 af b8 c9 b6 cb ad ce c8 cc
       -0.22098438 0.37883037 1.2627679 0.72609156 -0.3472612 -0.47353798 -0.31569198 -0.47353798 -0.18941519 0.3472612 -0.25255358 0.41039956 -0.53667635 0.50510716 0.31569198 0.44196877
000070 cb b4 c7 cf cb cb ce 70 d4 ce c7 ca e2 b4 a7 b3
       0.41039956 -0.31569198 0.28412277 0.53667635 0.41039956 0.41039956 0.50510716 -2.4623973 0.6945224 0.50510716 0.28412277 0.37883037 1.1364911 -0.31569198 -0.72609156 -0.3472612
000080 ed c6 e1 b7 a8 cd cb b4 b2 cd cf c4 ad c7 c6 c9
       1.4837523 0.25255358 1.1049219 -0.22098438 -0.6945224 0.47353798 0.41039956 -0.31569198 -0.37883037 0.47353798 0.53667635 0.18941519 -0.53667635 0.28412277 0.25255358 0.3472612
000090 cf e7 b8 c8 ab b3 b1 b6 b3 b5 d5 ab b3 b4 cd b5
       0.53667635 1.2943372 -0.18941519 0.31569198 -0.5998148 -0.3472612 -0.41039956 -0.25255358 -0.3472612 -0.28412277 0.72609156 -0.5998148 -0.3472612 -0.31569198 0.47353798 -0.28412277
0000a0 cb ba c5 cd ce b1 d4 af ce ce c8 ad cb 06 cd c5
       0.41039956 -0.12627679 0.22098438 0.47353798 0.50510716 -0.41039956 0.6945224 -0.47353798 0.50510716 0.50510716 0.31569198 -0.53667635 0.41039956 -5.8087325 0.47353798 0.22098438
0000b0 b8 cc cc b8 a9 b6 d9 b9 eb ce a7 b6 b4 b3 b6 9f
       -0.18941519 0.44196877 0.44196877 -0.18941519 -0.66295314 -0.25255358 0.85236835 -0.15784599 1.4206139 0.50510716 -0.72609156 -0.25255358 -0.31569198 -0.3472612 -0.25255358 -0.97864515
0000c0 a6 ce b5 b2 ca b4 c5 ce ac b1 b8 b5 b0 cd c8 c3
       -0.75766075 0.50510716 -0.28412277 -0.37883037 0.37883037 -0.31569198 0.22098438 0.50510716 -0.56824553 -0.41039956 -0.18941519 -0.28412277 -0.44196877 0.47353798 0.31569198 0.15784599
0000d0 b3 d0 c8 b7 b8 c8 cd b8 cb ad cf cc b6 cc b4 87
       -0.3472612 0.56824553 0.31569198 -0.22098438 -0.18941519 0.31569198 0.47353798 -0.18941519 0.41039956 -0.53667635 0.53667635 0.44196877 -0.25255358 0.44196877 -0.31569198 -1.7363058
0000e0 b4 cf cc b6 b1 d1 d3 bf c1 b1 b3 d8 b8 b3 b1 b0
       -0.31569198 0.53667635 0.44196877 -0.25255358 -0.41039956 0.5998148 0.66295314 0.031569198 0.09470759 -0.41039956 -0.3472612 0.8207991 -0.18941519 -0.3472612 -0.41039956 -0.44196877
0000f0 cc ab a1 c9 b3 c8 cd c9 c7 b6 a6 c8 ae dc c8 e4
       0.44196877 -0.5998148 -0.9155067 0.3472612 -0.3472612 0.31569198 0.47353798 0.3472612 0.28412277 -0.25255358 -0.75766075 0.31569198 -0.50510716 0.94707596 0.31569198 1.1996295

MobilenetV1/MobilenetV1/Conv2d_13_pointwise/weights_quant/FakeQuantWithMinMaxVars u1 [256, 1, 1, 256] scale=0.03200233 zero_point=151
000000 9c 8e 83 9b a0 76 7e af 8c 90 7a 8b 9b 92 99 8f
       0.16001165 -0.28802097 -0.6400466 0.12800932 0.28802097 -1.0560769 -0.80005825 0.7680559 -0.35202563 -0.22401631 -0.92806756 -0.38402796 0.12800932 -0.16001165 0.06400466 -0.25601864
000010 8e a2 9e 82 85 8d 8e a4 92 86 99 9a 94 8c a0 99
       -0.28802097 0.35202563 0.22401631 -0.6720489 -0.57604194 -0.3200233 -0.28802097 0.4160303 -0.16001165 -0.5440396 0.06400466 0.09600699 -0.09600699 -0.35202563 0.28802097 0.06400466
000020 ae 7a 87 9a a1 99 9f 98 91 ad 9f a3 79 ad 9b 71
       0.7360536 -0.92806756 -0.5120373 0.09600699 0.3200233 0.06400466 0.25601864 0.03200233 -0.19201398 0.70405126 0.25601864 0.38402796 -0.9600699 0.70405126 0.12800932 -1.2160885
000030 8a a0 95 b9 7f 97 8d 81 86 9b a0 a0 8d 92 7a 9b
       -0.4160303 0.28802097 -0.06400466 1.0880792 -0.7680559 0.0 -0.3200233 -0.70405126 -0.5440396 0.12800932 0.28802097 0.28802097 -0.3200233 -0.16001165 -0.92806756 0.12800932
000040 94 9b 9e 7d 8e 70 9c 94 a1 93 a0 94 a0 99 87 89
       -0.09600699 0.12800932 0.22401631 -0.8320606 -0.28802097 -1.2480909 0.16001165 -0.09600699 0.3200233 -0.12800932 0.28802097 -0.09600699 0.28802097 0.06400466 -0.5120373 -0.44803262
000050 95 91 a1 a7 a1 91 aa 8f 93 95 9f 9d 92 8c a2 91
       -0.06400466 -0.19201398 0.3200233 0.5120373 0.3200233 -0.19201398 0.60804427 -0.25601864 -0.12800932 -0.06400466 0.25601864 0.19201398 -0.16001165 -0.35202563 0.35202563 -0.19201398
000060 8a c2 98 88 9e 94 a5 86 a1 7f a2 c3 9b 91 88 be
       -0.4160303 1.3761002 0.03200233 -0.48003495 0.22401631 -0.09600699 0.44803262 -0.5440396 0.3200233 -0.7680559 0.35202563 1.4081025 0.12800932 -0.19201398 -0.48003495 1.2480909
000070 ae 8b a3 95 93 a6 af a9 b7 8b 9b bb a8 9d 99 94
       0.7360536 -0.38402796 0.38402796 -0.06400466 -0.12800932 0.48003495 0.7680559 0.57604194 1.0240746 -0.38402796 0.12800932 1.1520839 0.5440396 0.19201398 0.06400466 -0.09600699
000080 8e 86 93 a2 99 96 a0 a7 9e 8c 88 9b 98 95 8b 8c
       -0.28802097 -0.5440396 -0.12800932 0.35202563 0.06400466 -0.03200233 0.28802097 0.5120373 0.22401631 -0.35202563 -0.48003495 0.12800932 0.03200233 -0.06400466 -0.38402796 -0.35202563
000090 6a 8c a3 94 99 8a 87 90 81 ac 90 99 92 a7 7e a1
       -1.4401048 -0.35202563 0.38402796 -0.09600699 0.06400466 -0.4160303 -0.5120373 -0.22401631 -0.70405126 0.6720489 -0.22401631 0.06400466 -0.16001165 0.5120373 -0.80005825 0.3200233
0000a0 94 aa 9a 93 9f 9e 9d 98 7a 89 85 7c ad a5 91 97
       -0.09600699 0.60804427 0.09600699 -0.12800932 0.25601864 0.22401631 0.19201398 0.03200233 -0.92806756 -0.44803262 -0.57604194 -0.8640629 0.70405126 0.44803262 -0.19201398 0.0
0000b0 a2 8d 91 8c 8a 93 9d 89 a8 a7 9b 99 89 74 90 a0
       0.35202563 -0.3200233 -0.19201398 -0.35202563 -0.4160303 -0.12800932 0.19201398 -0.44803262 0.5440396 0.5120373 0.12800932 0.06400466 -0.44803262 -1.1200815 -0.22401631 0.28802097
0000c0 88 8a 98 a4 96 9f b4 82 a3 a6 9d a7 99 ae 99 7b
       -0.48003495 -0.4160303 0.03200233 0.4160303 -0.03200233 0.25601864 0.92806756 -0.6720489 0.38402796 0.48003495 0.19201398 0.5120373 0.06400466 0.7360536 0.06400466 -0.89606524
0000d0 87 94 a1 9b 88 97 ae a5 92 8e 93 9f 95 94 a8 9b
       -0.5120373 -0.09600699 0.3200233 0.12800932 -0.48003495 0.0 0.7360536 0.44803262 -0.16001165 -0.28802097 -0.12800932 0.25601864 -0.06400466 -0.09600699 0.5440396 0.12800932
0000e0 7b a9 98 8e 85 83 99 7a 82 8c ac 96 96 7f 92 94
       -0.89606524 0.57604194 0.03200233 -0.28802097 -0.57604194 -0.6400466 0.06400466 -0.92806756 -0.6720489 -0.35202563 0.6720489 -0.03200233 -0.03200233 -0.7680559 -0.16001165 -0.09600699
0000f0 a4 88 a9 8c b9 93 9a a4 97 89 85 95 9a 9f 81 85
       0.4160303 -0.48003495 0.57604194 -0.35202563 1.0880792 -0.12800932 0.09600699 0.4160303 0.0 -0.44803262 -0.57604194 -0.06400466 0.09600699 0.25601864 -0.70405126 -0.57604194

MobilenetV1/MobilenetV1/Conv2d_1_depthwise/weights_quant/FakeQuantWithMinMaxVars u1 [1, 3, 3, 8] scale=0.069884926 zero_point=192
000000 21 df c9 bc c0 bf d0 c1 e1 ba c6 bb bf c2 d5 ba
       -11.111703 2.1664326 0.6289643 -0.2795397 0.0 -0.069884926 1.1181588 0.069884926 2.3062027 -0.41930956 0.41930956 -0.34942463 -0.069884926 0.13976985 1.4675834 -0.41930956
000010 3a eb be c1 c0 c0 bd ba 00 c2 c6 bc be c2 cb bd
       -9.36458 3.0050519 -0.13976985 0.069884926 0.0 0.0 -0.20965478 -0.41930956 -13.417906 0.13976985 0.41930956 -0.2795397 -0.13976985 0.13976985 0.7687342 -0.20965478
000020 1c 94 c6 bb bc a5 ca bd 20 ae bc c1 bd c6 bf bd
       -11.461128 -3.0749369 0.41930956 -0.34942463 -0.2795397 -1.886893 0.69884926 -0.20965478 -11.181588 -1.2579286 -0.2795397 0.069884926 -0.20965478 0.41930956 -0.069884926 -0.20965478
000030 70 ff be c1 bf bf c5 bf 4e e1 bd c1 bb c5 da bd
       -5.590794 4.4027505 -0.13976985 0.069884926 -0.069884926 -0.069884926 0.34942463 -0.069884926 -7.9668818 2.3062027 -0.20965478 0.069884926 -0.34942463 0.34942463 1.817008 -0.20965478
000040 6f ba c2 bf bd be c1 bc
       -5.660679 -0.41930956 0.13976985 -0.069884926 -0.20965478 -0.13976985 0.069884926 -0.2795397

MobilenetV1/MobilenetV1/Conv2d_1_pointwise/weights_quant/FakeQuantWithMinMaxVars u1 [16, 1, 1, 8] scale=0.028534003 zero_point=110
000000 6e 6e c4 72 6d 6f 6e 6e 6e 6e 6f 6e 6e 6e 6e 6e
       0.0 0.0 2.4539242 0.11413601 -0.028534003 0.028534003 0.0 0.0 0.0 0.0 0.028534003 0.0 0.0 0.0 0.0 0.0
000010 6e 6e 6f 6e 6e 4c 6e 6e 6e 6e 6e 6c 6f 4f 6e 6e
       0.0 0.0 0.028534003 0.0 0.0 -0.9701561 0.0 0.0 0.0 0.0 0.0 -0.057068005 0.028534003 -0.8845541 0.0 0.0
000020 6e 6e 7c 81 6c 96 6e 6e 6e 6e 6d 6e 6e 86 6e 6e
       0.0 0.0 0.39947605 0.542146 -0.057068005 1.14136 0.0 0.0 0.0 0.0 -0.028534003 0.0 0.0 0.68481606 0.0 0.0
000030 6e 6e 20 83 6e 6e 6e 6e 6e 6e 74 71 6d 8c 6e 6e
       0.0 0.0 -2.2256522 0.5992141 0.0 0.0 0.0 0.0 0.0 0.0 0.17120402 0.08560201 -0.028534003 0.8560201 0.0 0.0
000040 6e 6e 6e 6b 6e 53 6e 6e 6e 6e 70 65 6e c2 6e 6e
       0.0 0.0 0.0 -0.08560201 0.0 -0.77041805 0.0 0.0 0.0 0.0 0.057068005 -0.25680602 0.0 2.3968563 0.0 0.0
000050 6e 6e ff a8 7d 0c 6e 6e 6e 6e 6f 6f 6d 8a 6e 6e
       0.0 0.0 4.13743 1.6549722 0.42801005 -2.7963324 0.0 0.0 0.0 0.0 0.028534003 0.028534003 -0.028534003 0.7989521 0.0 0.0
000060 6e 6e 8d c9 6e 6c 6e 6e 6e 6e 77 66 75 00 6e 6e
       0.0 0.0 0.8845541 2.5965943 0.0 -0.057068005 0.0 0.0 0.0 0.0 0.25680602 -0.22827202 0.19973803 -3.1387403 0.0 0.0
000070 6e 6e 78 8f 6e 6e 6e 6e 6e 6e 6d 6d 6f 4f 6e 6e
       0.0 0.0 0.28534 0.9416221 0.0 0.0 0.0 0.0 0.0 0.0 -0.028534003 -0.028534003 0.028534003 -0.8845541 0.0 0.0

MobilenetV1/MobilenetV1/Conv2d_2_depthwise/weights_quant/FakeQuantWithMinMaxVars u1 [1, 3, 3, 16] scale=0.062979735 zero_point=198
000000 ca 57 d5 d2 c4 be c3 c6 ab cc c7 cb ca c5 be be
       0.25191894 -6.990751 0.944696 0.75575686 -0.12595947 -0.5038379 -0.18893921 0.0 -1.7004528 0.37787843 0.062979735 0.31489867 0.25191894 -0.062979735 -0.5038379 -0.5038379
000010 c0 25 b2 c7 c7 ba c8 c4 99 c0 c6 ad bf c6 db b8
       -0.37787843 -10.139737 -1.2595947 0.062979735 0.062979735 -0.75575686 0.12595947 -0.12595947 -2.834088 -0.37787843 0.0 -1.5744934 -0.44085816 0.0 1.3225745 -0.8817163
000020 c2 00 cb ba c8 c1 c7 c6 b3 c0 c6 d9 c0 c7 cd bf
       -0.25191894 -12.469988 0.31489867 -0.75575686 0.12595947 -0.31489867 0.062979735 0.0 -1.196615 -0.37787843 0.0 1.196615 -0.37787843 0.062979735 0.44085816 -0.44085816
000030 c2 d0 e3 d7 ca e8 c9 c4 e0 c3 c5 cc bd c7 d3 b7
       -0.25191894 0.62979734 1.8264123 1.0706555 0.25191894 2.141311 0.18893921 -0.12595947 1.6374731 -0.18893921 -0.062979735 0.37787843 -0.56681764 0.062979735 0.81873655 -0.944696
000040 ca a9 a4 c7 bd ff c5 c1 ef cc c7 9c d6 c9 a1 ae
       0.25191894 -1.8264123 -2.141311 0.062979735 -0.56681764 3.589845 -0.062979735 -0.31489867 2.582169 0.37787843 0.062979735 -2.645149 1.0076758 0.18893921 -2.3302503 -1.5115137
000050 cc 08 cc b3 bf dd c3 c5 d7 cd c8 ea ce c9 b7 bc
       0.37787843 -11.966149 0.37787843 -1.196615 -0.44085816 1.4485339 -0.18893921 -0.062979735 1.0706555 0.44085816 0.12595947 2.2672706 0.5038379 0.18893921 -0.944696 -0.62979734
000060 c0 f3 d0 ce c6 ac c7 c7 c8 c3 c6 c9 bd c8 d8 db
       -0.37787843 2.834088 0.62979734 0.5038379 0.0 -1.6374731 0.062979735 0.062979735 0.12595947 -0.18893921 0.0 0.18893921 -0.56681764 0.12595947 1.1336353 1.3225745
000070 cc bd b9 c7 c4 98 c2 c4 c9 ce c7 b6 d3 cb b0 ed
       0.37787843 -0.56681764 -0.81873655 0.062979735 -0.12595947 -2.8970678 -0.25191894 -0.12595947 0.18893921 0.5038379 0.062979735 -1.0076758 0.81873655 0.31489867 -1.3855542 2.4562097
000080 d0 49 c9 be c7 b3 be c5 c7 cb c7 d3 c8 cb ca d7
       0.62979734 -7.872467 0.18893921 -0.5038379 0.062979735 -1.196615 -0.5038379 -0.062979735 0.062979735 0.31489867 0.062979735 0.81873655 0.12595947 0.31489867 0.25191894 1.0706555

MobilenetV1/MobilenetV1/Conv2d_2_pointwise/weights_quant/FakeQuantWithMinMaxVars u1 [32, 1, 1, 16] scale=0.016335292 zero_point=145
000000 90 91 b0 65 92 90 90 97 91 91 93 44 90 93 8f 8e
       -0.016335292 0.0 0.506394 -0.71875286 0.016335292 -0.016335292 -0.016335292 0.09801175 0.0 0.0 0.032670584 -1.2578175 -0.016335292 0.032670584 -0.032670584 -0.049005874
000010 94 91 d4 ff 97 92 95 a4 98 9b 96 ac 90 9b 90 97
       0.049005874 0.0 1.0944645 1.7968822 0.09801175 0.016335292 0.06534117 0.31037053 0.11434704 0.16335292 0.08167646 0.44105288 -0.016335292 0.16335292 -0.016335292 0.09801175
000020 90 91 8b 9a 90 59 92 93 cd 92 90 85 91 8f 91 6e
       -0.016335292 0.0 -0.09801175 0.14701763 -0.016335292 -0.9147763 0.016335292 0.032670584 0.9801175 0.016335292 -0.016335292 -0.1960235 0.0 -0.032670584 0.0 -0.5717352
000030 c7 91 92 92 86 92 a6 8f 91 92 9e 92 8c 8f 9d 90
       0.88210577 0.0 0.016335292 0.016335292 -0.17968822 0.016335292 0.34304112 -0.032670584 0.0 0.016335292 0.21235879 0.016335292 -0.08167646 -0.032670584 0.1960235 -0.016335292
000040 8c 91 91 92 94 90 a1 92 90 92 8f 90 74 93 cb 92
       -0.08167646 0.0 0.0 0.016335292 0.049005874 -0.016335292 0.26136467 0.016335292 -0.016335292 0.016335292 -0.032670584 -0.016335292 -0.47372347 0.032670584 0.94744694 0.016335292
000050 8d 91 99 86 a4 96 87 45 93 b9 a5 9e 8f a5 94 88
       -0.06534117 0.0 0.13068233 -0.17968822 0.31037053 0.08167646 -0.16335292 -1.2414821 0.032670584 0.6534117 0.32670584 0.21235879 -0.032670584 0.32670584 0.049005874 -0.14701763
000060 91 91 66 86 90 91 92 82 92 91 98 c3 92 94 8f 91
       0.0 0.0 -0.70241755 -0.17968822 -0.016335292 0.0 0.016335292 -0.24502937 0.016335292 0.0 0.11434704 0.8167646 0.016335292 0.049005874 -0.032670584 0.0
000070 ba 91 92 92 86 8f d4 8c 90 96 aa 91 90 93 93 92
       0.66974694 0.0 0.016335292 0.016335292 -0.17968822 -0.032670584 1.0944645 -0.08167646 -0.016335292 0.08167646 0.4083823 0.0 -0.016335292 0.032670584 0.032670584 0.016335292
000080 90 91 9b 86 b0 98 97 d6 94 8c aa 98 8f a6 88 88
       -0.016335292 0.0 0.16335292 -0.17968822 0.506394 0.11434704 0.09801175 1.1271352 0.049005874 -0.08167646 0.4083823 0.11434704 -0.032670584 0.34304112 -0.14701763 -0.14701763
000090 89 91 91 8f 9e 92 a3 94 93 94 82 91 81 88 d5 92
       -0.13068233 0.0 0.0 -0.032670584 0.21235879 0.016335292 0.29403526 0.049005874 0.032670584 0.049005874 -0.24502937 0.0 -0.26136467 -0.14701763 1.1107998 0.016335292
0000a0 90 91 89 90 95 60 8f 8f a2 90 93 8b 92 93 8f 69
       -0.016335292 0.0 -0.13068233 -0.016335292 0.06534117 -0.8004293 -0.032670584 -0.032670584 0.27769995 -0.016335292 0.032670584 -0.09801175 0.016335292 0.032670584 -0.032670584 -0.6534117
0000b0 8e 91 89 a5 99 bb 96 90 af 99 98 8c 8e a0 8f bd
       -0.049005874 0.0 -0.13068233 0.32670584 0.13068233 0.68608224 0.08167646 -0.016335292 0.49005875 0.13068233 0.11434704 -0.08167646 -0.049005874 0.24502937 -0.032670584 0.71875286
0000c0 90 91 58 66 93 8f 90 90 90 91 92 a5 8f 93 90 90
       -0.016335292 0.0 -0.93111163 -0.70241755 0.032670584 -0.032670584 -0.016335292 -0.016335292 -0.016335292 0.0 0.016335292 0.32670584 -0.032670584 0.032670584 -0.016335292 -0.016335292
0000d0 90 91 90 8d 8e 60 91 93 aa 92 93 91 91 92 8f 73
       -0.016335292 0.0 -0.016335292 -0.06534117 -0.049005874 -0.8004293 0.0 0.032670584 0.4083823 0.016335292 0.032670584 0.0 0.0 0.016335292 -0.032670584 -0.49005875
0000e0 8f 91 a0 6c a0 9c 96 93 85 8e 99 42 96 86 90 95
       -0.032670584 0.0 0.24502937 -0.6044058 0.24502937 0.17968822 0.08167646 0.032670584 -0.1960235 -0.049005874 0.13068233 -1.290488 0.08167646 -0.17968822 -0.016335292 0.06534117
0000f0 90 91 12 39 9d 8f 8d 8e 8b 90 9a b6 8f 92 90 94
       -0.016335292 0.0 -2.074582 -1.4375057 0.1960235 -0.032670584 -0.06534117 -0.049005874 -0.09801175 -0.016335292 0.14701763 0.6044058 -0.032670584 0.016335292 -0.016335292 0.049005874
