share/tensorflow/mobilenet_v1_0.25_160_quant/model.tflite (tflite, 496912 bytes, 28 tensors)

MobilenetV1/Logits/Conv2d_1c_1x1/weights_quant/FakeQuantWithMinMaxVars u1 [1001, 1, 1, 256] scale=0.0061262404 zero_point=85
000000 54 51 53 53 52 52 53 52 52 50 53 54 4f 53 53 53
       -0.0061262404 -0.024504961 -0.012252481 -0.012252481 -0.018378722 -0.018378722 -0.012252481 -0.018378722 -0.018378722 -0.030631201 -0.012252481 -0.0061262404 -0.036757443 -0.012252481 -0.012252481 -0.012252481
000010 53 52 54 54 53 53 52 52 50 53 53 50 50 51 54 54
       -0.012252481 -0.018378722 -0.0061262404 -0.0061262404 -0.012252481 -0.012252481 -0.018378722 -0.018378722 -0.030631201 -0.012252481 -0.012252481 -0.030631201 -0.030631201 -0.024504961 -0.0061262404 -0.0061262404
000020 53 53 53 52 53 53 52 53 53 53 54 52 52 53 54 54
       -0.012252481 -0.012252481 -0.012252481 -0.018378722 -0.012252481 -0.012252481 -0.018378722 -0.012252481 -0.012252481 -0.012252481 -0.0061262404 -0.018378722 -0.018378722 -0.012252481 -0.0061262404 -0.0061262404
000030 52 53 53 52 53 53 53 53 53 53 53 52 52 53 54 51
       -0.018378722 -0.012252481 -0.012252481 -0.018378722 -0.012252481 -0.012252481 -0.012252481 -0.012252481 -0.012252481 -0.012252481 -0.012252481 -0.018378722 -0.018378722 -0.012252481 -0.0061262404 -0.024504961
000040 53 53 53 53 51 52 52 53 53 52 50 53 53 52 53 53
       -0.012252481 -0.012252481 -0.012252481 -0.012252481 -0.024504961 -0.018378722 -0.018378722 -0.012252481 -0.012252481 -0.018378722 -0.030631201 -0.012252481 -0.012252481 -0.018378722 -0.012252481 -0.012252481
000050 53 53 52 53 53 53 53 53 53 52 53 53 53 52 53 53
       -0.012252481 -0.012252481 -0.018378722 -0.012252481 -0.012252481 -0.012252481 -0.012252481 -0.012252481 -0.012252481 -0.018378722 -0.012252481 -0.012252481 -0.012252481 -0.018378722 -0.012252481 -0.012252481
000060 53 53 53 53 53 52 53 53 52 53 53 53 51 53 53 51
       -0.012252481 -0.012252481 -0.012252481 -0.012252481 -0.012252481 -0.018378722 -0.012252481 -0.012252481 -0.018378722 -0.012252481 -0.012252481 -0.012252481 -0.024504961 -0.012252481 -0.012252481 -0.024504961
000070 53 52 53 53 53 53 53 52 53 53 53 51 53 53 53 50
       -0.012252481 -0.018378722 -0.012252481 -0.012252481 -0.012252481 -0.012252481 -0.012252481 -0.018378722 -0.012252481 -0.012252481 -0.012252481 -0.024504961 -0.012252481 -0.012252481 -0.012252481 -0.030631201
000080 54 53 53 54 53 52 53 51 53 52 53 53 53 52 53 52
       -0.0061262404 -0.012252481 -0.012252481 -0.0061262404 -0.012252481 -0.018378722 -0.012252481 -0.024504961 -0.012252481 -0.018378722 -0.012252481 -0.012252481 -0.012252481 -0.018378722 -0.012252481 -0.018378722
000090 52 53 53 53 52 53 53 53 53 53 53 53 54 53 53 53
       -0.018378722 -0.012252481 -0.012252481 -0.012252481 -0.018378722 -0.012252481 -0.012252481 -0.012252481 -0.012252481 -0.012252481 -0.012252481 -0.012252481 -0.0061262404 -0.012252481 -0.012252481 -0.012252481
0000a0 53 52 51 53 53 52 53 53 53 53 53 52 53 53 53 53
       -0.012252481 -0.018378722 -0.024504961 -0.012252481 -0.012252481 -0.018378722 -0.012252481 -0.012252481 -0.012252481 -0.012252481 -0.012252481 -0.018378722 -0.012252481 -0.012252481 -0.012252481 -0.012252481
0000b0 53 53 53 53 52 52 53 53 53 52 53 52 52 53 53 53
       -0.012252481 -0.012252481 -0.012252481 -0.012252481 -0.018378722 -0.018378722 -0.012252481 -0.012252481 -0.012252481 -0.018378722 -0.012252481 -0.018378722 -0.018378722 -0.012252481 -0.012252481 -0.012252481
0000c0 52 53 52 53 53 52 53 53 53 53 52 53 52 53 53 53
       -0.018378722 -0.012252481 -0.018378722 -0.012252481 -0.012252481 -0.018378722 -0.012252481 -0.012252481 -0.012252481 -0.012252481 -0.018378722 -0.012252481 -0.018378722 -0.012252481 -0.012252481 -0.012252481
0000d0 53 53 53 52 50 53 53 53 53 53 53 52 53 53 53 53
       -0.012252481 -0.012252481 -0.012252481 -0.018378722 -0.030631201 -0.012252481 -0.012252481 -0.012252481 -0.012252481 -0.012252481 -0.012252481 -0.018378722 -0.012252481 -0.012252481 -0.012252481 -0.012252481
0000e0 54 53 52 53 53 52 53 54 53 54 53 53 54 53 53 53
       -0.0061262404 -0.012252481 -0.018378722 -0.012252481 -0.012252481 -0.018378722 -0.012252481 -0.0061262404 -0.012252481 -0.0061262404 -0.012252481 -0.012252481 -0.0061262404 -0.012252481 -0.012252481 -0.012252481
0000f0 54 53 53 52 54 53 52 53 52 52 52 53 53 53 53 53
       -0.0061262404 -0.012252481 -0.012252481 -0.018378722 -0.0061262404 -0.012252481 -0.018378722 -0.012252481 -0.018378722 -0.018378722 -0.018378722 -0.012252481 -0.012252481 -0.012252481 -0.012252481 -0.012252481

MobilenetV1/MobilenetV1/Conv2d_0/weights_quant/FakeQuantWithMinMaxVars u1 [8, 3, 3, 3] scale=0.0068644513 zero_point=100
000000 6e 74 6b 6d 72 6b 5f 5e 65 78 81 6c 75 81 6c 62
       0.068644516 0.10983122 0.04805116 0.06178006 0.09610232 0.04805116 -0.034322258 -0.04118671 0.0068644513 0.13728903 0.19906908 0.05491561 0.11669567 0.19906908 0.05491561 -0.013728903
000010 5b 65 72 74 6a 6f 72 68 61 5e 63 64 64 65 64 64
       -0.06178006 0.0068644513 0.09610232 0.10983122 0.04118671 0.07550897 0.09610232 0.027457805 -0.020593354 -0.04118671 -0.0068644513 0.0 0.0 0.0068644513 0.0 0.0
000020 65 64 64 65 63 64 65 64 64 65 64 64 65 64 64 65
       0.0068644513 0.0 0.0 0.0068644513 -0.0068644513 0.0 0.0068644513 0.0 0.0 0.0068644513 0.0 0.0 0.0068644513 0.0 0.0 0.0068644513
000030 63 64 65 63 63 64 75 33 82 80 16 96 78 33 83 81
       -0.0068644513 0.0 0.0068644513 -0.0068644513 -0.0068644513 0.0 0.11669567 -0.33635813 0.20593354 0.19220464 -0.5354272 0.34322256 0.13728903 -0.33635813 0.21279798 0.19906908
000040 29 84 8f 00 9f 80 1e 8f 6b 41 82 7c 25 8c 74 3d
       -0.40500262 0.21966244 0.2951714 -0.6864451 0.40500262 0.19220464 -0.4805116 0.2951714 0.04805116 -0.2402558 0.20593354 0.16474684 -0.43246043 0.27457806 0.10983122 -0.2677136
000050 78 64 65 65 63 64 65 64 65 65 65 66 66 64 65 66
       0.13728903 0.0 0.0068644513 0.0068644513 -0.0068644513 0.0 0.0068644513 0.0 0.0068644513 0.0068644513 0.0068644513 0.013728903 0.013728903 0.0 0.0068644513 0.013728903
000060 64 65 66 65 66 66 64 65 66 65 66 66 4b 37 57 3f
       0.0 0.0068644513 0.013728903 0.0068644513 0.013728903 0.013728903 0.0 0.0068644513 0.013728903 0.0068644513 0.013728903 0.013728903 -0.17161128 -0.3089003 -0.08923787 -0.2539847
000070 1f 5a 59 4e 5b 9b c4 7c a2 d7 7a 85 9c 75 44 31
       -0.47364715 -0.068644516 -0.07550897 -0.15101793 -0.06178006 0.37754482 0.65898734 0.16474684 0.42559597 0.7894119 0.15101793 0.2265269 0.38440928 0.11669567 -0.21966244 -0.35008702
000080 58 3f 1e 58 52 49 5c 3d 33 5a 99 b7 79 47 42 63
       -0.08237342 -0.2539847 -0.4805116 -0.08237342 -0.12356012 -0.18534018 -0.05491561 -0.2677136 -0.33635813 -0.068644516 0.36381593 0.5697495 0.14415348 -0.19906908 -0.23339134 -0.0068644513
000090 29 00 4c ba ff 8a 3f 19 61 3d 30 55 97 b3 74 47
       -0.40500262 -0.6864451 -0.16474684 0.5903428 1.06399 0.26084915 -0.2539847 -0.51483387 -0.020593354 -0.2677136 -0.35695148 -0.10296677 0.35008702 0.54229164 0.10983122 -0.19906908
0000a0 3f 63 65 66 67 67 67 67 65 65 64 66 66 67 66 66
       -0.2539847 -0.0068644513 0.0068644513 0.013728903 0.020593354 0.020593354 0.020593354 0.020593354 0.0068644513 0.0068644513 0.0 0.013728903 0.013728903 0.020593354 0.013728903 0.013728903
0000b0 67 66 66 67 67 67 68 67 67 68 68 68 68 97 54 40
       0.020593354 0.013728903 0.013728903 0.020593354 0.020593354 0.020593354 0.027457805 0.020593354 0.020593354 0.027457805 0.027457805 0.027457805 0.027457805 0.35008702 -0.10983122 -0.24712025
0000c0 a1 4f 3a 6c 4c 74 8e 2f 6f a6 4f 37 82 6b 3f 89
       0.41873154 -0.14415348 -0.28830695 0.05491561 -0.16474684 0.10983122 0.28830695 -0.36381593 0.07550897 0.4530538 -0.14415348 -0.3089003 0.20593354 0.04805116 -0.2539847 0.2539847
0000d0 66 3e 80 4b 61 68 49 7c
       0.013728903 -0.26084915 0.19220464 -0.17161128 -0.020593354 0.027457805 -0.18534018 0.16474684

MobilenetV1/MobilenetV1/Conv2d_10_depthwise/weights_quant/FakeQuantWithMinMaxVars u1 [1, 3, 3, 128] scale=0.018218584 zero_point=135
000000 8b 98 8c 81 95 83 8a 7f 82 80 88 83 8a 81 7c 89
       0.07287434 0.30971593 0.09109292 -0.109311506 0.2550602 -0.07287434 0.054655753 -0.14574867 -0.09109292 -0.1275301 0.018218584 -0.07287434 0.054655753 -0.109311506 -0.20040444 0.03643717
000010 86 86 89 93 86 84 84 87 84 86 83 86 8c 7c 91 95
       -0.018218584 -0.018218584 0.03643717 0.21862301 -0.018218584 -0.054655753 -0.054655753 0.0 -0.054655753 -0.018218584 -0.07287434 -0.018218584 0.09109292 -0.20040444 0.18218584 0.2550602
000020 88 8a 8b 83 85 8b 86 82 8b 8a 92 87 84 7f 83 91
       0.018218584 0.054655753 0.07287434 -0.07287434 -0.03643717 0.07287434 -0.018218584 -0.09109292 0.07287434 0.054655753 0.20040444 0.0 -0.054655753 -0.14574867 -0.07287434 0.18218584
000030 89 89 84 9c 90 72 75 85 7f 94 8c 86 88 8d 83 9c
       0.03643717 0.03643717 -0.054655753 0.38259026 0.16396725 -0.38259026 -0.3279345 -0.03643717 -0.14574867 0.23684159 0.09109292 -0.018218584 0.018218584 0.109311506 -0.07287434 0.38259026
000040 82 95 90 9f 87 8d 73 85 91 8e 86 85 85 82 86 8b
       -0.09109292 0.2550602 0.16396725 0.43724602 0.0 0.109311506 -0.3643717 -0.03643717 0.18218584 0.1275301 -0.018218584 -0.03643717 -0.03643717 -0.09109292 -0.018218584 0.07287434
000050 98 89 85 92 86 85 84 7b 85 82 8a 87 86 73 87 82
       0.30971593 0.03643717 -0.03643717 0.20040444 -0.018218584 -0.03643717 -0.054655753 -0.21862301 -0.03643717 -0.09109292 0.054655753 0.0 -0.018218584 -0.3643717 0.0 -0.09109292
000060 81 85 89 86 86 84 81 83 8e 88 87 8a 8e 8a 88 83
       -0.109311506 -0.03643717 0.03643717 -0.018218584 -0.018218584 -0.054655753 -0.109311506 -0.07287434 0.1275301 0.018218584 0.0 0.054655753 0.1275301 0.054655753 0.018218584 -0.07287434
000070 79 8c 7e 85 88 88 7d 7e 83 8d 88 86 8d 7f 8a 86
       -0.2550602 0.09109292 -0.16396725 -0.03643717 0.018218584 0.018218584 -0.18218584 -0.16396725 -0.07287434 0.109311506 0.018218584 -0.018218584 0.109311506 -0.14574867 0.054655753 -0.018218584
000080 82 ce 67 82 81 91 60 76 7d 7a 95 7d 91 7f 82 82
       -0.09109292 1.2935195 -0.5829947 -0.09109292 -0.109311506 0.18218584 -0.7105248 -0.30971593 -0.18218584 -0.23684159 0.2550602 -0.18218584 0.18218584 -0.14574867 -0.09109292 -0.09109292
000090 7c 7c 94 bc 7d 82 83 76 7a 63 81 7e 8f 80 bd 8f
       -0.20040444 -0.20040444 0.23684159 0.965585 -0.18218584 -0.09109292 -0.07287434 -0.30971593 -0.23684159 -0.655869 -0.109311506 -0.16396725 0.14574867 -0.1275301 0.9838036 0.14574867
0000a0 82 86 90 7d 85 83 90 76 8b 99 ad 81 75 76 80 94
       -0.09109292 -0.018218584 0.16396725 -0.18218584 -0.03643717 -0.07287434 0.16396725 -0.30971593 0.07287434 0.3279345 0.6923062 -0.109311506 -0.3279345 -0.30971593 -0.1275301 0.23684159
0000b0 8f 88 81 c4 ad 72 89 8a 80 96 99 d1 74 9a a6 87
       0.14574867 0.018218584 -0.109311506 1.1113336 0.6923062 -0.38259026 0.03643717 0.054655753 -0.1275301 0.27327877 0.3279345 1.3481753 -0.3461531 0.3461531 0.5647761 0.0
0000c0 8d bf 8f d0 8d 7f 70 88 8f 9e 75 7e 81 76 94 8c
       0.109311506 1.0202408 0.14574867 1.3299567 0.109311506 -0.14574867 -0.41902745 0.018218584 0.14574867 0.41902745 -0.3279345 -0.16396725 -0.109311506 -0.30971593 0.23684159 0.09109292
0000d0 87 93 7e 92 83 78 85 70 87 5b 90 88 b1 6b 7e 8e
       0.0 0.21862301 -0.16396725 0.20040444 -0.07287434 -0.27327877 -0.03643717 -0.41902745 0.0 -0.80161774 0.16396725 0.018218584 0.7651805 -0.5101204 -0.16396725 0.1275301
0000e0 77 81 87 92 91 82 c8 77 a6 8c 90 9d 94 8d 92 7c
       -0.29149735 -0.109311506 0.0 0.20040444 0.18218584 -0.09109292 1.184208 -0.29149735 0.5647761 0.09109292 0.16396725 0.40080887 0.23684159 0.109311506 0.20040444 -0.20040444
0000f0 81 91 7a 72 8b 88 6f 7e 7e 8f 7f 84 85 80 86 8b
       -0.109311506 0.18218584 -0.23684159 -0.38259026 0.07287434 0.018218584 -0.43724602 -0.16396725 -0.16396725 0.14574867 -0.14574867 -0.054655753 -0.03643717 -0.1275301 -0.018218584 0.07287434

MobilenetV1/MobilenetV1/Conv2d_10_pointwise/weights_quant/FakeQuantWithMinMaxVars u1 [128, 1, 1, 128] scale=0.013053565 zero_point=112
000000 73 6e 6c 69 6d 77 73 6a 6e 6e 72 6d 70 7c 74 6d
       0.039160695 -0.02610713 -0.05221426 -0.091374956 -0.039160695 0.091374956 0.039160695 -0.07832139 -0.02610713 -0.02610713 0.02610713 -0.039160695 0.0 0.15664278 0.05221426 -0.039160695
000010 70 75 69 73 69 6f 72 65 6f 76 70 6f 71 6b 75 7b
       0.0 0.06526782 -0.091374956 0.039160695 -0.091374956 -0.013053565 0.02610713 -0.14358921 -0.013053565 0.07832139 0.0 -0.013053565 0.013053565 -0.06526782 0.06526782 0.14358921
000020 6f 72 6e 6a 71 70 72 69 70 6c 75 6f 73 6a 71 70
       -0.013053565 0.02610713 -0.02610713 -0.07832139 0.013053565 0.0 0.02610713 -0.091374956 0.0 -0.05221426 0.06526782 -0.013053565 0.039160695 -0.07832139 0.013053565 0.0
000030 6a 6e 72 78 70 6d 73 6a 6d 73 70 68 70 6e 6a 79
       -0.07832139 -0.02610713 0.02610713 0.10442852 0.0 -0.039160695 0.039160695 -0.07832139 -0.039160695 0.039160695 0.0 -0.10442852 0.0 -0.02610713 -0.07832139 0.11748209
000040 70 6c 79 69 73 6e 6b 6c 6b 74 70 72 74 70 6f 72
       0.0 -0.05221426 0.11748209 -0.091374956 0.039160695 -0.02610713 -0.06526782 -0.05221426 -0.06526782 0.05221426 0.0 0.02610713 0.05221426 0.0 -0.013053565 0.02610713
000050 70 70 71 7f 6a 65 71 6f 6c 6f 7a 6f 6f 70 77 6c
       0.0 0.0 0.013053565 0.19580348 -0.07832139 -0.14358921 0.013053565 -0.013053565 -0.05221426 -0.013053565 0.13053565 -0.013053565 -0.013053565 0.0 0.091374956 -0.05221426
000060 66 71 74 76 73 62 71 6b 74 6f 6d 71 74 79 6f 70
       -0.13053565 0.013053565 0.05221426 0.07832139 0.039160695 -0.18274991 0.013053565 -0.06526782 0.05221426 -0.013053565 -0.039160695 0.013053565 0.05221426 0.11748209 -0.013053565 0.0
000070 71 6e 6f 6f 70 7a 75 73 6f 75 6f 6e 70 6d 6f 64
       0.013053565 -0.02610713 -0.013053565 -0.013053565 0.0 0.13053565 0.06526782 0.039160695 -0.013053565 0.06526782 -0.013053565 -0.02610713 0.0 -0.039160695 -0.013053565 -0.15664278
000080 7c 76 79 6e 64 76 70 6f 6f 82 6c 75 58 6e 7a 6c
       0.15664278 0.07832139 0.11748209 -0.02610713 -0.15664278 0.07832139 0.0 -0.013053565 -0.013053565 0.23496418 -0.05221426 0.06526782 -0.31328556 -0.02610713 0.13053565 -0.05221426
000090 64 67 6b 7a 7f 59 6a 68 62 6d 75 67 7b 74 60 73
       -0.15664278 -0.11748209 -0.06526782 0.13053565 0.19580348 -0.300232 -0.07832139 -0.10442852 -0.18274991 -0.039160695 0.06526782 -0.11748209 0.14358921 0.05221426 -0.20885704 0.039160695
0000a0 76 79 5f 75 64 6c 81 8f 7f 92 6a 80 7f 7f 74 68
       0.07832139 0.11748209 -0.22191061 0.06526782 -0.15664278 -0.05221426 0.22191061 0.40466052 0.19580348 0.44382122 -0.07832139 0.20885704 0.19580348 0.19580348 0.05221426 -0.10442852
0000b0 75 5e 87 5e 7d 7c 77 6c 6d 74 77 8c 6f 60 7a 78
       0.06526782 -0.23496418 0.300232 -0.23496418 0.16969635 0.15664278 0.091374956 -0.05221426 -0.039160695 0.05221426 0.091374956 0.36549982 -0.013053565 -0.20885704 0.13053565 0.10442852
0000c0 62 6a 4c 88 6c 5e 72 6e 5b 8a 6b 70 6d 74 70 7b
       -0.18274991 -0.07832139 -0.46992835 0.31328556 -0.05221426 -0.23496418 0.02610713 -0.02610713 -0.27412486 0.3393927 -0.06526782 0.0 -0.039160695 0.05221426 0.0 0.14358921
0000d0 8b 7c 59 77 6b 76 5d 66 6a 8e 7f 64 7c 6f 6a 60
       0.35244626 0.15664278 -0.300232 0.091374956 -0.06526782 0.07832139 -0.24801774 -0.13053565 -0.07832139 0.39160696 0.19580348 -0.15664278 0.15664278 -0.013053565 -0.07832139 -0.20885704
0000e0 8c 73 6e 75 68 60 6c 7a 6e 67 6f 62 6e 87 67 71
       0.36549982 0.039160695 -0.02610713 0.06526782 -0.10442852 -0.20885704 -0.05221426 0.13053565 -0.02610713 -0.11748209 -0.013053565 -0.18274991 -0.02610713 0.300232 -0.11748209 0.013053565
0000f0 6c 69 6b 71 72 6c 79 76 62 69 5a 72 6c 5e 63 67
       -0.05221426 -0.091374956 -0.06526782 0.013053565 0.02610713 -0.05221426 0.11748209 0.07832139 -0.18274991 -0.091374956 -0.28717843 0.02610713 -0.05221426 -0.23496418 -0.16969635 -0.11748209

MobilenetV1/MobilenetV1/Conv2d_11_depthwise/weights_quant/FakeQuantWithMinMaxVars u1 [1, 3, 3, 128] scale=0.024018029 zero_point=180
000000 9c aa b0 b5 b9 c2 b6 b6 b1 b0 b3 ae b1 af b0 b1
       -0.5764327 -0.24018028 -0.096072115 0.024018029 0.12009014 0.3362524 0.048036058 0.048036058 -0.07205409 -0.096072115 -0.024018029 -0.14410818 -0.07205409 -0.12009014 -0.096072115 -0.07205409
000010 b3 af b0 bc bb b5 b0 a9 b4 ab b2 b1 b4 b3 b4 c4
       -0.024018029 -0.12009014 -0.096072115 0.19214423 0.1681262 0.024018029 -0.096072115 -0.2641983 0.0 -0.21616226 -0.048036058 -0.07205409 0.0 -0.024018029 0.0 0.38428846
000020 b9 b7 b4 b5 b5 bf b8 b7 ae b7 aa ac b0 b9 b2 b7
       0.12009014 0.07205409 0.0 0.024018029 0.024018029 0.2641983 0.096072115 0.07205409 -0.14410818 0.07205409 -0.24018028 -0.19214423 -0.096072115 0.12009014 -0.048036058 0.07205409
000030 c3 b6 ba bf ae b1 bb b5 b4 c0 b5 ae ba b3 ab b7
       0.36027044 0.048036058 0.14410818 0.2641983 -0.14410818 -0.07205409 0.1681262 0.024018029 0.0 0.28821635 0.024018029 -0.14410818 0.14410818 -0.024018029 -0.21616226 0.07205409
000040 b0 b5 ba b8 b5 c3 df af b3 b5 b5 b0 ae a9 b3 ba
       -0.096072115 0.024018029 0.14410818 0.096072115 0.024018029 0.36027044 1.0327753 -0.12009014 -0.024018029 0.024018029 0.024018029 -0.096072115 -0.14410818 -0.2641983 -0.024018029 0.14410818
000050 b9 af b6 be c2 b2 af a7 bb bc ad b4 b8 b1 b5 b2
       0.12009014 -0.12009014 0.048036058 0.24018028 0.3362524 -0.048036058 -0.12009014 -0.31223437 0.1681262 0.19214423 -0.1681262 0.0 0.096072115 -0.07205409 0.024018029 -0.048036058
000060 ba b9 b1 af b4 ba b4 b0 b3 c0 b3 dd b5 b9 b7 cf
       0.14410818 0.12009014 -0.07205409 -0.12009014 0.0 0.14410818 0.0 -0.096072115 -0.024018029 0.28821635 -0.024018029 0.9847392 0.024018029 0.12009014 0.07205409 0.6484868
000070 ba a9 b9 b3 b6 b7 ae be bf b9 b2 b5 b8 af b7 ac
       0.14410818 -0.2641983 0.12009014 -0.024018029 0.048036058 0.07205409 -0.14410818 0.24018028 0.2641983 0.12009014 -0.048036058 0.024018029 0.096072115 -0.12009014 0.07205409 -0.19214423
000080 b8 bc aa ab c6 c7 c4 b5 c1 ca b0 ad be a8 a6 ad
       0.096072115 0.19214423 -0.24018028 -0.21616226 0.43232453 0.45634255 0.38428846 0.024018029 0.31223437 0.5283966 -0.096072115 -0.1681262 0.24018028 -0.28821635 -0.3362524 -0.1681262
000090 c2 ac a8 d3 bf c4 c5 c8 bf a3 a4 b1 ba ad ae b3
       0.3362524 -0.19214423 -0.28821635 0.7445589 0.2641983 0.38428846 0.40830648 0.48036057 0.2641983 -0.40830648 -0.38428846 -0.07205409 0.14410818 -0.1681262 -0.14410818 -0.024018029
0000a0 ab ab ba bf bd d0 bc 97 ad af a9 b7 b9 c4 ac c9
       -0.21616226 -0.21616226 0.14410818 0.2641983 0.21616226 0.6725048 0.19214423 -0.69652283 -0.1681262 -0.12009014 -0.2641983 0.07205409 0.12009014 0.38428846 -0.19214423 0.5043786
0000b0 b4 c1 be ce ad ad a7 c0 ad c3 ad ae ca bc b9 c1
       0.0 0.31223437 0.24018028 0.62446874 -0.1681262 -0.1681262 -0.31223437 0.28821635 -0.1681262 0.36027044 -0.1681262 -0.14410818 0.5283966 0.19214423 0.12009014 0.31223437
0000c0 ac c2 a4 c5 bc b6 b3 a9 ac d5 b9 af a9 9b aa c3
       -0.19214423 0.3362524 -0.38428846 0.40830648 0.19214423 0.048036058 -0.024018029 -0.2641983 -0.19214423 0.79259497 0.12009014 -0.12009014 -0.2641983 -0.6004507 -0.24018028 0.36027044
0000d0 bd af bf bd e1 af ad 93 b5 b3 a7 c2 b8 ab be ae
       0.21616226 -0.12009014 0.2641983 0.21616226 1.0808113 -0.12009014 -0.1681262 -0.79259497 0.024018029 -0.024018029 -0.31223437 0.3362524 0.096072115 -0.21616226 0.24018028 -0.14410818
0000e0 bf bc ae ae ac bc c3 ac 91 bd ad ec bd 9e c4 d7
       0.2641983 0.19214423 -0.14410818 -0.14410818 -0.19214423 0.19214423 0.36027044 -0.19214423 -0.840631 0.21616226 -0.1681262 1.3450096 0.21616226 -0.5283966 0.38428846 0.840631
0000f0 a5 af b5 ae bb bf b0 c4 c0 c4 c0 b8 ac a3 c1 ab
       -0.36027044 -0.12009014 0.024018029 -0.14410818 0.1681262 0.2641983 -0.096072115 0.38428846 0.28821635 0.38428846 0.28821635 0.096072115 -0.19214423 -0.40830648 0.31223437 -0.21616226

MobilenetV1/MobilenetV1/Conv2d_11_pointwise/weights_quant/FakeQuantWithMinMaxVars u1 [128, 1, 1, 128] scale=0.007379772 zero_point=123
000000 72 73 88 84 7b 7e 8c 6f 7d 7b 6b 83 7a 7c 7f 88
       -0.06641795 -0.059038177 0.095937036 0.06641795 0.0 0.022139316 0.12545612 -0.088557266 0.014759544 0.0 -0.118076354 0.059038177 -0.007379772 0.007379772 0.029519089 0.095937036
000010 88 7b 7a 76 8b 7d 7f 77 77 78 89 7c 89 7a 70 7d
       0.095937036 0.0 -0.007379772 -0.03689886 0.118076354 0.014759544 0.029519089 -0.029519089 -0.029519089 -0.022139316 0.10331681 0.007379772 0.10331681 -0.007379772 -0.081177495 0.014759544
000020 77 8a 7c 7c 68 83 7f 6e 8c 7b 86 74 6f 77 7d 72
       -0.029519089 0.110696584 0.007379772 0.007379772 -0.14021567 0.059038177 0.029519089 -0.095937036 0.12545612 0.0 0.081177495 -0.051658407 -0.088557266 -0.029519089 0.014759544 -0.06641795
000030 7f 7e 7a 76 89 87 76 88 77 7d 69 71 78 8a 82 75
       0.029519089 0.022139316 -0.007379772 -0.03689886 0.10331681 0.088557266 -0.03689886 0.095937036 -0.029519089 0.014759544 -0.1328359 -0.07379772 -0.022139316 0.110696584 0.051658407 -0.044278633
000040 83 84 5c 74 6c 7c 7f 7b 81 76 86 7e 81 7e 78 6c
       0.059038177 0.06641795 -0.22877294 -0.051658407 -0.110696584 0.007379772 0.029519089 0.0 0.044278633 -0.03689886 0.081177495 0.022139316 0.044278633 0.022139316 -0.022139316 -0.110696584
000050 7f 7f 88 7b 75 7f 76 77 76 78 82 73 7d 78 7c 77
       0.029519089 0.029519089 0.095937036 0.0 -0.044278633 0.029519089 -0.03689886 -0.029519089 -0.03689886 -0.022139316 0.051658407 -0.059038177 0.014759544 -0.022139316 0.007379772 -0.029519089
000060 63 8c 89 73 72 73 67 7e 81 6c 7b 83 78 89 6f 7a
       -0.17711453 0.12545612 0.10331681 -0.059038177 -0.06641795 -0.059038177 -0.14759544 0.022139316 0.044278633 -0.110696584 0.0 0.059038177 -0.022139316 0.10331681 -0.088557266 -0.007379772
000070 81 86 81 75 84 7b 81 7a 7b 8b 7b 80 7c 75 7a 77
       0.044278633 0.081177495 0.044278633 -0.044278633 0.06641795 0.0 0.044278633 -0.007379772 0.0 0.118076354 0.0 0.03689886 0.007379772 -0.044278633 -0.007379772 -0.029519089
000080 78 8d 65 a8 8a 6c 95 9c 81 89 91 8d 58 6b b5 7e
       -0.022139316 0.1328359 -0.16235499 0.33208975 0.110696584 -0.110696584 0.19187407 0.24353248 0.044278633 0.10331681 0.16235499 0.1328359 -0.25829202 -0.118076354 0.4280268 0.022139316
000090 77 74 6e 82 a2 70 90 7e 73 89 91 6a 7a a6 74 36
       -0.029519089 -0.051658407 -0.095937036 0.051658407 0.2878111 -0.081177495 0.15497522 0.022139316 -0.059038177 0.10331681 0.16235499 -0.12545612 -0.007379772 0.3173302 -0.051658407 -0.50920427
0000a0 7e 91 60 6d 6c 55 78 68 6b 56 7f 7f 63 89 7d 82
       0.022139316 0.16235499 -0.19925384 -0.10331681 -0.110696584 -0.28043133 -0.022139316 -0.14021567 -0.118076354 -0.27305156 0.029519089 0.029519089 -0.17711453 0.10331681 0.014759544 0.051658407
0000b0 75 8e 59 8a 73 89 66 82 45 7c 67 73 54 77 7f 98
       -0.044278633 0.14021567 -0.25091225 0.110696584 -0.059038177 0.10331681 -0.15497522 0.051658407 -0.39850768 0.007379772 -0.14759544 -0.059038177 -0.2878111 -0.029519089 0.029519089 0.2140134
0000c0 8b 7e 6a 7c 89 78 86 5b 72 89 7f 6b 75 95 87 7f
       0.118076354 0.022139316 -0.12545612 0.007379772 0.10331681 -0.022139316 0.081177495 -0.23615271 -0.06641795 0.10331681 0.029519089 -0.118076354 -0.044278633 0.19187407 0.088557266 0.029519089
0000d0 7d 89 7f 79 7c 7b 8a 67 80 6a 6d 78 78 6a 7c 6b
       0.014759544 0.10331681 0.029519089 -0.014759544 0.007379772 0.0 0.110696584 -0.14759544 0.03689886 -0.12545612 -0.10331681 -0.022139316 -0.022139316 -0.12545612 0.007379772 -0.118076354
0000e0 a4 58 76 99 78 6f 88 79 7e 8b 56 70 79 73 72 77
       0.30257067 -0.25829202 -0.03689886 0.22139317 -0.022139316 -0.088557266 0.095937036 -0.014759544 0.022139316 0.118076354 -0.27305156 -0.081177495 -0.014759544 -0.059038177 -0.06641795 -0.029519089
0000f0 83 72 80 68 6a 87 6d 84 ad 70 78 79 65 75 81 7e
       0.059038177 -0.06641795 0.03689886 -0.14021567 -0.12545612 0.088557266 -0.10331681 0.06641795 0.3689886 -0.081177495 -0.022139316 -0.014759544 -0.16235499 -0.044278633 0.044278633 0.022139316

MobilenetV1/MobilenetV1/Conv2d_12_depthwise/weights_quant/FakeQuantWithMinMaxVars u1 [1, 3, 3, 128] scale=0.0311262 zero_point=64
000000 37 3b 36 4d 47 4c 3c 47 3a 35 45 4a 38 3a 47 3c
       -0.28013578 -0.15563099 -0.31126198 0.4046406 0.2178834 0.37351438 -0.1245048 0.2178834 -0.18675719 -0.34238818 0.15563099 0.31126198 -0.2490096 -0.18675719 0.2178834 -0.1245048
000010 46 37 3c 39 4d 48 4a 4c 4b 3c 3f 47 3b 37 4b 46
       0.18675719 -0.28013578 -0.1245048 -0.2178834 0.4046406 0.2490096 0.31126198 0.37351438 0.34238818 -0.1245048 -0.0311262 0.2178834 -0.15563099 -0.28013578 0.34238818 0.18675719
000020 47 3b 49 39 46 32 16 39 37 3b 46 4b 3a 37 48 37
       0.2178834 -0.15563099 0.28013578 -0.2178834 0.18675719 -0.4357668 -1.3073003 -0.2178834 -0.28013578 -0.15563099 0.18675719 0.34238818 -0.18675719 -0.28013578 0.2490096 -0.28013578
000030 4a 37 47 49 49 33 49 37 47 48 37 4a 48 37 38 39
       0.31126198 -0.28013578 0.2178834 0.28013578 0.28013578 -0.4046406 0.28013578 -0.28013578 0.2178834 0.2490096 -0.28013578 0.31126198 0.2490096 -0.28013578 -0.2490096 -0.2178834
000040 36 4c 49 47 37 4a 4a 4a 3b 4a 45 49 47 4a 48 4b
       -0.31126198 0.37351438 0.28013578 0.2178834 -0.28013578 0.31126198 0.31126198 0.31126198 -0.15563099 0.31126198 0.15563099 0.28013578 0.2178834 0.31126198 0.2490096 0.34238818
000050 3b 47 49 48 37 3a 49 3d 35 4a 3b 37 49 48 48 49
       -0.15563099 0.2178834 0.28013578 0.2490096 -0.28013578 -0.18675719 0.28013578 -0.093378596 -0.34238818 0.31126198 -0.15563099 -0.28013578 0.28013578 0.2490096 0.2490096 0.28013578
000060 47 48 3b 47 33 1f 4b 4b 4d 3a 3c 38 36 8e 44 47
       0.2178834 0.2490096 -0.15563099 0.2178834 -0.4046406 -1.0271646 0.34238818 0.34238818 0.4046406 -0.18675719 -0.1245048 -0.2490096 -0.31126198 2.4278436 0.1245048 0.2178834
000070 46 4d 3a 3c 34 4c 39 3b 4b 39 4a 47 48 37 3a 47
       0.18675719 0.4046406 -0.18675719 -0.1245048 -0.37351438 0.37351438 -0.2178834 -0.15563099 0.34238818 -0.2178834 0.31126198 0.2178834 0.2490096 -0.28013578 -0.18675719 0.2178834
000080 34 3a 38 4f 49 4e 3b 49 38 34 47 4d 36 39 48 3b
       -0.37351438 -0.18675719 -0.2490096 0.466893 0.28013578 0.4357668 -0.15563099 0.28013578 -0.2490096 -0.37351438 0.2178834 0.4046406 -0.31126198 -0.2178834 0.2490096 -0.15563099
000090 47 35 3b 37 50 4b 4d 50 4e 3a 3f 49 3a 35 4d 48
       0.2178834 -0.34238818 -0.15563099 -0.28013578 0.4980192 0.34238818 0.4046406 0.4980192 0.4357668 -0.18675719 -0.0311262 0.28013578 -0.18675719 -0.34238818 0.4046406 0.2490096
0000a0 49 3a 4c 37 48 2e 4e 57 34 39 48 4e 39 34 4a 36
       0.28013578 -0.18675719 0.37351438 -0.28013578 0.2490096 -0.56027156 0.4357668 0.71590257 -0.37351438 -0.2178834 0.2490096 0.4357668 -0.2178834 -0.37351438 0.31126198 -0.31126198
0000b0 4c 35 48 46 4b 31 4c 35 49 49 35 4c 4a 35 36 37
       0.37351438 -0.34238818 0.2490096 0.18675719 0.34238818 -0.466893 0.37351438 -0.34238818 0.28013578 0.28013578 -0.34238818 0.37351438 0.31126198 -0.34238818 -0.31126198 -0.28013578
0000c0 34 4e 4b 48 35 4e 4d 4d 3a 4c 47 4b 49 4b 4a 4e
       -0.37351438 0.4357668 0.34238818 0.2490096 -0.34238818 0.4357668 0.4046406 0.4046406 -0.18675719 0.37351438 0.2178834 0.34238818 0.28013578 0.34238818 0.31126198 0.4357668
0000d0 39 49 4b 4a 37 38 4b 3b 33 4c 3a 35 4c 4b 4c 4c
       -0.2178834 0.28013578 0.34238818 0.31126198 -0.28013578 -0.2490096 0.34238818 -0.15563099 -0.4046406 0.37351438 -0.18675719 -0.34238818 0.37351438 0.34238818 0.37351438 0.37351438
0000e0 49 4a 3a 48 31 22 4c 4d 51 39 3a 36 35 8f 46 49
       0.28013578 0.31126198 -0.18675719 0.2490096 -0.466893 -0.933786 0.37351438 0.4046406 0.52914536 -0.2178834 -0.18675719 -0.31126198 -0.34238818 2.4589698 0.18675719 0.28013578
0000f0 48 4e 3a 3b 32 4f 37 3a 4d 38 4c 49 4a 35 39 4a
       0.2490096 0.4357668 -0.18675719 -0.15563099 -0.4357668 0.466893 -0.28013578 -0.18675719 0.4046406 -0.2490096 0.37351438 0.28013578 0.31126198 -0.34238818 -0.2178834 0.31126198

MobilenetV1/MobilenetV1/Conv2d_12_pointwise/weights_quant/FakeQuantWithMinMaxVars u1 [256, 1, 1, 128] scale=0.011431301 zero_point=87
000000 5f 5b 47 4f 40 5c 55 56 58 5a 4b 61 58 5f 4a 5a
       0.09145041 0.045725204 -0.18290082 -0.09145041 -0.26291993 0.057156503 -0.022862602 -0.011431301 0.011431301 0.034293905 -0.13717562 0.11431301 0.011431301 0.09145041 -0.14860691 0.034293905
000010 56 5c 4f 67 5d 4b 4f 55 51 4e 50 62 51 5b 51 55
       -0.011431301 0.057156503 -0.09145041 0.18290082 0.06858781 -0.13717562 -0.09145041 -0.022862602 -0.06858781 -0.10288171 -0.08001911 0.12574431 -0.06858781 0.045725204 -0.06858781 -0.022862602
000020 57 61 5d 4a 6b 4b 58 69 55 4e 62 6b 5f 53 51 5a
       0.0 0.11431301 0.06858781 -0.14860691 0.22862601 -0.13717562 0.011431301 0.20576341 -0.022862602 -0.10288171 0.12574431 0.22862601 0.09145041 -0.045725204 -0.06858781 0.034293905
000030 58 56 52 66 56 51 5e 59 51 46 3e 64 4e 5c 55 52
       0.011431301 -0.011431301 -0.057156503 0.17146951 -0.011431301 -0.06858781 0.08001911 0.022862602 -0.06858781 -0.19433212 -0.28578252 0.14860691 -0.10288171 0.057156503 -0.022862602 -0.057156503
000040 51 50 4d 68 45 5f 66 73 49 5f 4d 59 45 5a 5f 57
       -0.06858781 -0.08001911 -0.11431301 0.19433212 -0.20576341 0.09145041 0.17146951 0.32007644 -0.16003822 0.09145041 -0.11431301 0.022862602 -0.20576341 0.034293905 0.09145041 0.0
000050 4f 64 5b 4a 48 5a 3f 46 46 54 50 4b 4b 6b 56 4b
       -0.09145041 0.14860691 0.045725204 -0.14860691 -0.17146951 0.034293905 -0.27435124 -0.19433212 -0.19433212 -0.034293905 -0.08001911 -0.13717562 -0.13717562 0.22862601 -0.011431301 -0.13717562
000060 4c 4e 62 51 55 69 62 58 64 58 43 5f 55 51 4d 58
       -0.12574431 -0.10288171 0.12574431 -0.06858781 -0.022862602 0.20576341 0.12574431 0.011431301 0.14860691 0.011431301 -0.22862601 0.09145041 -0.022862602 -0.06858781 -0.11431301 0.011431301
000070 55 4f 4c 56 43 56 43 4b 67 6c 57 60 62 58 59 46
       -0.022862602 -0.09145041 -0.12574431 -0.011431301 -0.22862601 -0.011431301 -0.22862601 -0.13717562 0.18290082 0.24005732 0.0 0.10288171 0.12574431 0.011431301 0.022862602 -0.19433212
000080 5d 53 5d 4f 5a 5f 4c 76 4b 52 6e 5c 63 55 4f 37
       0.06858781 -0.045725204 0.06858781 -0.09145041 0.034293905 0.09145041 -0.12574431 0.35437033 -0.13717562 -0.057156503 0.26291993 0.057156503 0.13717562 -0.022862602 -0.09145041 -0.36580163
000090 53 51 61 68 51 71 5a 66 52 4a 5e 63 54 63 50 3e
       -0.045725204 -0.06858781 0.11431301 0.19433212 -0.06858781 0.29721382 0.034293905 0.17146951 -0.057156503 -0.14860691 0.08001911 0.13717562 -0.034293905 0.13717562 -0.08001911 -0.28578252
0000a0 52 5b 52 5e 58 4b 53 5f 4e 4d 66 61 4b 62 54 60
       -0.057156503 0.045725204 -0.057156503 0.08001911 0.011431301 -0.13717562 -0.045725204 0.09145041 -0.10288171 -0.11431301 0.17146951 0.11431301 -0.13717562 0.12574431 -0.034293905 0.10288171
0000b0 5a 4b 48 5d 56 6e 64 61 53 4c 4e 55 4b 45 4f 46
       0.034293905 -0.13717562 -0.17146951 0.06858781 -0.011431301 0.26291993 0.14860691 0.11431301 -0.045725204 -0.12574431 -0.10288171 -0.022862602 -0.13717562 -0.20576341 -0.09145041 -0.19433212
0000c0 41 49 6d 49 62 64 4b 45 4e 6d 77 63 45 58 5f 68
       -0.25148863 -0.16003822 0.25148863 -0.16003822 0.12574431 0.14860691 -0.13717562 -0.20576341 -0.10288171 0.25148863 0.36580163 0.13717562 -0.20576341 0.011431301 0.09145041 0.19433212
0000d0 6a 64 50 56 4c 49 4b 4d 3f 42 48 5f 6d 3e 66 58
       0.21719472 0.14860691 -0.08001911 -0.011431301 -0.12574431 -0.16003822 -0.13717562 -0.11431301 -0.27435124 -0.24005732 -0.17146951 0.09145041 0.25148863 -0.28578252 0.17146951 0.011431301
0000e0 4f 3e 50 6a 49 62 61 52 6b 5f 32 4f 5d 54 64 70
       -0.09145041 -0.28578252 -0.08001911 0.21719472 -0.16003822 0.12574431 0.11431301 -0.057156503 0.22862601 0.09145041 -0.42295814 -0.09145041 0.06858781 -0.034293905 0.14860691 0.28578252
0000f0 4b 50 63 49 61 63 49 48 6a 59 36 74 52 58 65 29
       -0.13717562 -0.08001911 0.13717562 -0.16003822 0.11431301 0.13717562 -0.16003822 -0.17146951 0.21719472 0.022862602 -0.37723294 0.33150774 -0.057156503 0.011431301 0.16003822 -0.52583987

MobilenetV1/MobilenetV1/Conv2d_13_depthwise/weights_quant/FakeQuantWithMinMaxVars u1 [1, 3, 3, 256] scale=0.031177022 zero_point=177
000000 c5 ab a5 a4 d5 53 9b ab b7 bc a6 a8 a0 bb ab a8
       0.6235404 -0.18706213 -0.37412426 -0.40530127 1.1223727 -2.93064 -0.6858945 -0.18706213 0.18706213 0.34294724 -0.34294724 -0.2805932 -0.5300094 0.3117702 -0.18706213 -0.2805932
000010 af a5 a4 be bb 69 bd a0 ac c7 bd bd a9 a3 aa ba
       -0.062354043 -0.37412426 -0.40530127 0.40530127 0.3117702 -2.2447455 0.37412426 -0.5300094 -0.1558851 0.6858945 0.37412426 0.37412426 -0.24941617 -0.43647832 -0.21823916 0.2805932
000020 d0 c3 a6 bd be ab a6 bd c5 aa d1 ab a3 c5 c1 da
       0.96648765 0.5611864 -0.34294724 0.37412426 0.40530127 -0.18706213 -0.34294724 0.37412426 0.6235404 -0.21823916 0.9976647 -0.18706213 -0.43647832 0.6235404 0.49883235 1.2782578
000030 ab 89 9e 9e a6 bb bb db c8 ab bb a6 35 aa a5 bf
       -0.18706213 -1.2470808 -0.5923634 -0.5923634 -0.34294724 0.3117702 0.3117702 1.3094349 0.7170715 -0.18706213 0.3117702 -0.34294724 -3.8659506 -0.21823916 -0.37412426 0.43647832
000040 a9 8a be bf ab a9 c1 b8 a4 99 bc 9f a1 a8 d8 d5
       -0.24941617 -1.2159039 0.40530127 0.43647832 -0.18706213 -0.24941617 0.49883235 0.21823916 -0.40530127 -0.7482485 0.34294724 -0.5611864 -0.49883235 -0.2805932 1.2159039 1.1223727
000050 bb ae b8 bf bf ca bf a6 a6 ba be 8a 85 a9 ab bb
       0.3117702 -0.093531065 0.21823916 0.43647832 0.43647832 0.77942556 0.43647832 -0.34294724 -0.34294724 0.2805932 0.40530127 -1.2159039 -1.371789 -0.24941617 -0.18706213 0.3117702
000060 de dc ab a8 bc a6 83 df d6 c4 a1 ab b1 c0 c2 db
       1.402966 1.3406119 -0.18706213 -0.2805932 0.34294724 -0.34294724 -1.434143 1.434143 1.1535498 0.5923634 -0.49883235 -0.18706213 0.0 0.46765533 0.5300094 1.3094349
000070 a5 aa ca 34 e3 a4 a4 bf 6f a7 c2 a9 c0 a6 ab bb
       -0.37412426 -0.21823916 0.77942556 -3.8971276 1.5588511 -0.40530127 -0.40530127 0.43647832 -2.0576835 -0.3117702 0.5300094 -0.24941617 0.46765533 -0.34294724 -0.18706213 0.3117702
000080 aa bc b4 b7 ad a8 a5 a9 c3 a4 c2 c7 a3 d4 a8 a9
       -0.21823916 0.34294724 0.093531065 0.18706213 -0.124708086 -0.2805932 -0.37412426 -0.24941617 0.5611864 -0.40530127 0.5300094 0.6858945 -0.43647832 1.0911957 -0.2805932 -0.24941617
000090 c4 b7 bf bc cc a8 a4 a8 a5 c3 a4 b8 ca a5 c8 94
       0.5923634 0.18706213 0.43647832 0.34294724 0.8417796 -0.2805932 -0.40530127 -0.2805932 -0.37412426 0.5611864 -0.40530127 0.21823916 0.77942556 -0.37412426 0.7170715 -0.9041336
0000a0 c1 be c1 c0 c7 b0 a1 b9 b5 a5 a8 9b c1 a6 c5 cd
       0.49883235 0.40530127 0.49883235 0.46765533 0.6858945 -0.031177022 -0.49883235 0.24941617 0.124708086 -0.37412426 -0.2805932 -0.6858945 0.49883235 -0.34294724 0.6235404 0.87295663
0000b0 b5 a8 c9 a7 ab c2 dd b8 a0 a6 a3 bc 9b aa c2 a5
       0.124708086 -0.2805932 0.7482485 -0.3117702 -0.18706213 0.5300094 1.371789 0.21823916 -0.5300094 -0.34294724 -0.43647832 0.34294724 -0.6858945 -0.21823916 0.5300094 -0.37412426
0000c0 bb a1 c1 97 d5 bd bb bd a6 c7 a7 aa a7 99 d0 bd
       0.3117702 -0.49883235 0.49883235 -0.81060255 1.1223727 0.37412426 0.3117702 0.37412426 -0.34294724 0.6858945 -0.3117702 -0.21823916 -0.3117702 -0.7482485 0.96648765 0.37412426
0000d0 be a9 c3 be ab bc a6 a4 a5 a0 9c b9 be be ac ba
       0.40530127 -0.24941617 0.5611864 0.40530127 -0.18706213 0.34294724 -0.34294724 -0.40530127 -0.37412426 -0.5300094 -0.65471745 0.24941617 0.40530127 0.40530127 -0.1558851 0.2805932
0000e0 a7 ba ac b7 b3 a2 bc aa ac ba db d0 b7 bb ab a4
       -0.3117702 0.2805932 -0.1558851 0.18706213 0.062354043 -0.46765533 0.34294724 -0.21823916 -0.1558851 0.2805932 1.3094349 0.96648765 0.18706213 0.3117702 -0.18706213 -0.40530127
0000f0 aa be c2 1c ae da a0 bf ab aa ac cb 91 bd a9 c4
       -0.21823916 0.40530127 0.5300094 -4.645376 -0.093531065 1.2782578 -0.5300094 0.43647832 -0.18706213 -0.21823916 -0.1558851 0.81060255 -0.9976647 0.37412426 -0.24941617 0.5923634

MobilenetV1/MobilenetV1/Conv2d_13_pointwise/weights_quant/FakeQuantWithMinMaxVars u1 [256, 1, 1, 256] scale=0.031739205 zero_point=153
000000 a3 a8 9e 9e 96 95 93 94 9c 98 94 95 9d 93 a2 97
       0.31739205 0.47608808 0.15869603 0.15869603 -0.095217615 -0.12695682 -0.19043523 -0.15869603 0.095217615 -0.031739205 -0.15869603 -0.12695682 0.12695682 -0.19043523 0.28565285 -0.06347841
000010 96 86 8f 68 b3 9e 9f 92 ad b5 a7 a0 7b 98 ab 96
       -0.095217615 -0.60304487 -0.31739205 -1.5552211 0.82521933 0.15869603 0.19043523 -0.22217444 0.6347841 0.88869774 0.44434887 0.22217444 -0.95217615 -0.031739205 0.5713057 -0.095217615
000020 94 9f a0 a2 97 97 a2 84 9c a2 92 92 a1 83 93 93
       -0.15869603 0.19043523 0.22217444 0.28565285 -0.06347841 -0.06347841 0.28565285 -0.66652334 0.095217615 0.28565285 -0.22217444 -0.22217444 0.25391364 -0.6982625 -0.19043523 -0.19043523
000030 8c 9c 96 a0 8b 83 8e 8c 7f a3 9f 9d 96 8a 8d 8b
       -0.41260967 0.095217615 -0.095217615 0.22217444 -0.44434887 -0.6982625 -0.34913126 -0.41260967 -0.82521933 0.31739205 0.19043523 0.12695682 -0.095217615 -0.47608808 -0.38087046 -0.44434887
000040 92 a3 ae a0 97 9f 8c 97 94 99 93 89 77 78 90 a6
       -0.22217444 0.31739205 0.66652334 0.22217444 -0.06347841 0.19043523 -0.41260967 -0.06347841 -0.15869603 0.0 -0.19043523 -0.5078273 -1.079133 -1.0473938 -0.28565285 0.41260967
000050 a5 95 7a aa 98 83 98 aa 89 a5 8e 94 93 79 81 8a
       0.38087046 -0.12695682 -0.9839153 0.5395665 -0.031739205 -0.6982625 -0.031739205 0.5395665 -0.5078273 0.38087046 -0.34913126 -0.15869603 -0.19043523 -1.0156546 -0.7617409 -0.47608808
000060 a1 99 8b 99 ac 99 8e 93 9b 95 96 a1 ab 8c 8c a0
       0.25391364 0.0 -0.44434887 0.0 0.60304487 0.0 -0.34913126 -0.19043523 0.06347841 -0.12695682 -0.095217615 0.25391364 0.5713057 -0.41260967 -0.41260967 0.22217444
000070 b3 b1 99 8f 91 a7 95 aa 8e a7 93 97 96 95 a8 aa
       0.82521933 0.7617409 0.0 -0.31739205 -0.25391364 0.44434887 -0.12695682 0.5395665 -0.34913126 0.44434887 -0.19043523 -0.06347841 -0.095217615 -0.12695682 0.47608808 0.5395665
000080 90 8c 8a a5 87 92 9b 94 a0 a3 9a af 85 a2 a9 95
       -0.28565285 -0.41260967 -0.47608808 0.38087046 -0.5713057 -0.22217444 0.06347841 -0.15869603 0.22217444 0.31739205 0.031739205 0.6982625 -0.6347841 0.28565285 0.5078273 -0.12695682
000090 7b a1 8d 8f 70 86 8c 9c aa 91 85 96 92 a9 8d 93
       -0.95217615 0.25391364 -0.38087046 -0.31739205 -1.3013074 -0.60304487 -0.41260967 0.095217615 0.5395665 -0.25391364 -0.6347841 -0.095217615 -0.22217444 0.5078273 -0.38087046 -0.19043523
0000a0 96 9c 9c 8b a3 88 9e bd 8e 93 96 8a 9e 8c 94 8b
       -0.095217615 0.095217615 0.095217615 -0.44434887 0.31739205 -0.5395665 0.15869603 1.1426114 -0.34913126 -0.19043523 -0.095217615 -0.47608808 0.15869603 -0.41260967 -0.15869603 -0.44434887
0000b0 95 a5 99 a2 a0 a7 ba 8c a2 9e 98 92 92 84 8e 8e
       -0.12695682 0.38087046 0.0 0.28565285 0.22217444 0.44434887 1.0473938 -0.41260967 0.28565285 0.15869603 -0.031739205 -0.22217444 -0.22217444 -0.66652334 -0.34913126 -0.34913126
0000c0 ab 9e 9c 96 aa c0 a2 99 94 95 73 ab 9a 9f 9c ba
       0.5713057 0.15869603 0.095217615 -0.095217615 0.5395665 1.237829 0.28565285 0.0 -0.15869603 -0.12695682 -1.2060897 0.5713057 0.031739205 0.19043523 0.095217615 1.0473938
0000d0 a8 93 95 8d a3 9e 8e 78 a5 81 a3 96 88 89 84 95
       0.47608808 -0.19043523 -0.12695682 -0.38087046 0.31739205 0.15869603 -0.34913126 -1.0473938 0.38087046 -0.7617409 0.31739205 -0.095217615 -0.5395665 -0.5078273 -0.66652334 -0.12695682
0000e0 91 96 a0 9b 9a aa 8b a2 9d 83 8d d1 a0 8c 82 98
       -0.25391364 -0.095217615 0.22217444 0.06347841 0.031739205 0.5395665 -0.44434887 0.28565285 0.12695682 -0.6982625 -0.38087046 1.7773955 0.22217444 -0.41260967 -0.7300017 -0.031739205
0000f0 90 8d a2 97 a5 83 9b 8a 93 9c a3 89 a1 9a ad 9e
       -0.28565285 -0.38087046 0.28565285 -0.06347841 0.38087046 -0.6982625 0.06347841 -0.47608808 -0.19043523 0.095217615 0.31739205 -0.5078273 0.25391364 0.031739205 0.6347841 0.15869603

MobilenetV1/MobilenetV1/Conv2d_1_depthwise/weights_quant/FakeQuantWithMinMaxVars u1 [1, 3, 3, 8] scale=0.38585183 zero_point=74
000000 4a 4e 4a 33 4b 4a 2c 4b 49 4d 4a 58 48 49 7e 48
       0.0 1.5434073 0.0 -8.874592 0.38585183 0.0 -11.575555 0.38585183 -0.38585183 1.1575555 0.0 5.4019256 -0.77170366 -0.38585183 20.064295 -0.77170366
000010 4a 4b 4a 38 4b 4a 21 4b 49 49 48 84 4b 46 b1 49
       0.0 0.38585183 0.0 -6.945333 0.38585183 0.0 -15.819925 0.38585183 -0.38585183 -0.38585183 -0.77170366 22.379406 0.38585183 -1.5434073 39.742737 -0.38585183
000020 52 49 49 90 43 50 ff 50 48 4c 4b 50 4c 4b 2b 49
       3.0868146 -0.38585183 -0.38585183 27.009628 -2.7009628 2.315111 69.83918 2.315111 -0.77170366 0.77170366 0.38585183 2.315111 0.77170366 0.38585183 -11.961407 -0.38585183
000030 4a 4a 49 51 48 4a 2a 4a 49 49 4a 57 53 49 99 49
       0.0 0.0 -0.38585183 2.7009628 -0.77170366 0.0 -12.347259 0.0 -0.38585183 -0.38585183 0.0 5.0160737 3.4726665 -0.38585183 30.482294 -0.38585183
000040 4a 4d 4a 21 47 49 00 4a
       0.0 1.1575555 0.0 -15.819925 -1.1575555 -0.38585183 -28.553036 0.0

MobilenetV1/MobilenetV1/Conv2d_1_pointwise/weights_quant/FakeQuantWithMinMaxVars u1 [16, 1, 1, 8] scale=0.010951203 zero_point=179
000000 b4 b3 e5 b3 b3 b4 b3 b2 ab b3 b0 b3 b4 b2 b3 40
       0.010951203 0.0 0.54756016 0.0 0.0 0.010951203 0.0 -0.010951203 -0.08760963 0.0 -0.03285361 0.0 0.010951203 -0.010951203 0.0 -1.2593883
000010 b3 b3 b3 b3 b3 b2 b4 b3 b8 b3 bb b3 b1 b5 b3 39
       0.0 0.0 0.0 0.0 0.0 -0.010951203 0.010951203 0.0 0.054756016 0.0 0.08760963 0.0 -0.021902407 0.021902407 0.0 -1.3360468
000020 b4 b3 b4 b3 b3 b4 b3 e1 ae b3 30 b3 b2 b4 b3 a4
       0.010951203 0.0 0.010951203 0.0 0.0 0.010951203 0.0 0.50375533 -0.054756016 0.0 -1.4346076 0.0 -0.010951203 0.010951203 0.0 -0.16426805
000030 c0 b3 c4 b3 c5 0f b3 c1 59 b3 b1 b3 b0 bf b3 b0
       0.14236565 0.0 0.18617046 0.0 0.19712166 -1.7959974 0.0 0.15331684 -0.9856083 0.0 -0.021902407 0.0 -0.03285361 0.13141444 0.0 -0.03285361
000040 a4 b3 ab b3 b3 d5 b3 ad 00 b3 70 b3 b2 c7 b3 71
       -0.16426805 0.0 -0.08760963 0.0 0.0 0.37234092 0.0 -0.06570722 -1.9602654 0.0 -0.7337306 0.0 -0.010951203 0.21902406 0.0 -0.7227794
000050 ef b3 b8 b3 b3 ac b3 b6 77 b3 af b3 b1 b6 b3 b1
       0.6570722 0.0 0.054756016 0.0 0.0 -0.07665842 0.0 0.03285361 -0.6570722 0.0 -0.043804813 0.0 -0.021902407 0.03285361 0.0 -0.021902407
000060 07 b3 d1 b3 ab c6 b3 ff b2 b3 b3 b3 b3 b3 b3 b3
       -1.8836069 0.0 0.3285361 0.0 -0.08760963 0.20807286 0.0 0.8322914 -0.010951203 0.0 0.0 0.0 0.0 0.0 0.0 0.0
000070 e3 b3 b3 b3 b4 b0 b3 b1 b5 b3 b4 b3 19 b3 b3 b4
       0.5256578 0.0 0.0 0.0 0.010951203 -0.03285361 0.0 -0.021902407 0.021902407 0.0 0.010951203 0.0 -1.6864853 0.0 0.0 0.010951203

MobilenetV1/MobilenetV1/Conv2d_2_depthwise/weights_quant/FakeQuantWithMinMaxVars u1 [1, 3, 3, 16] scale=0.1491498 zero_point=67
000000 45 41 60 46 78 42 41 46 42 42 4a 4d 42 b6 45 45
       0.2982996 -0.2982996 4.3253446 0.44744942 7.9049397 -0.1491498 -0.2982996 0.44744942 -0.1491498 -0.1491498 1.0440487 1.491498 -0.1491498 17.152227 0.2982996 0.2982996
000010 58 41 59 45 00 4a 41 45 3f 41 3f 50 41 91 47 46
       3.132146 -0.2982996 3.2812958 0.2982996 -9.993037 1.0440487 -0.2982996 0.2982996 -0.5965992 -0.2982996 -0.5965992 1.9389474 -0.2982996 11.633685 0.5965992 0.44744942
000020 47 43 47 43 55 46 42 3e 49 42 40 47 42 2f 44 44
       0.5965992 0.0 0.5965992 0.0 2.6846964 0.44744942 -0.1491498 -0.745749 0.89489883 -0.1491498 -0.44744942 0.5965992 -0.1491498 -2.982996 0.1491498 0.1491498
000030 3d 41 e9 45 5a 42 40 3c 40 43 49 38 43 ff 46 46
       -0.89489883 -0.2982996 24.758867 0.2982996 3.4304454 -0.1491498 -0.44744942 -1.0440487 -0.44744942 0.0 0.89489883 -1.6406479 0.0 28.040163 0.44744942 0.44744942
000040 49 41 95 45 29 46 3e 4d 30 42 3e 34 42 fe 45 47
       0.89489883 -0.2982996 12.230284 0.2982996 -3.8778949 0.44744942 -0.745749 1.491498 -2.8338463 -0.1491498 -0.745749 -2.237247 -0.1491498 27.891014 0.2982996 0.5965992
000050 3e 43 8a 43 43 44 42 43 56 42 42 3d 42 5b 44 45
       -0.745749 0.0 10.589636 0.0 0.0 0.1491498 -0.1491498 0.0 2.8338463 -0.1491498 -0.1491498 -0.89489883 -0.1491498 3.5795953 0.1491498 0.2982996
000060 47 43 a8 43 28 44 41 40 45 43 43 44 43 52 43 44
       0.5965992 0.0 15.064131 0.0 -4.027045 0.1491498 -0.2982996 -0.44744942 0.2982996 0.0 0.0 0.1491498 0.0 2.237247 0.0 0.1491498
000070 3e 44 6a 43 71 40 40 44 37 43 42 45 43 62 42 44
       -0.745749 0.1491498 5.8168426 0.0 6.860891 -0.44744942 -0.44744942 0.1491498 -1.7897977 0.0 -0.1491498 0.2982996 0.0 4.623644 -0.1491498 0.1491498
000080 43 43 27 43 2f 42 42 43 4b 43 44 45 43 3c 43 43
       0.0 0.0 -4.1761947 0.0 -2.982996 -0.1491498 -0.1491498 0.0 1.1931984 0.0 0.1491498 0.2982996 0.0 -1.0440487 0.0 0.0

MobilenetV1/MobilenetV1/Conv2d_2_pointwise/weights_quant/FakeQuantWithMinMaxVars u1 [32, 1, 1, 16] scale=0.024937006 zero_point=105
000000 69 6c 69 6c 6a 6b 6a 69 6a 69 66 65 6b 69 8b 69
       0.0 0.07481102 0.0 0.07481102 0.024937006 0.04987401 0.024937006 0.0 0.024937006 0.0 -0.07481102 -0.09974802 0.04987401 0.0 0.8478582 0.0
000010 69 69 69 67 6a 67 47 61 21 65 6f 68 65 69 70 65
       0.0 0.0 0.0 -0.04987401 0.024937006 -0.04987401 -0.8478582 -0.19949605 -1.7954644 -0.09974802 0.14962204 -0.024937006 -0.09974802 0.0 0.17455904 -0.09974802
000020 6a 69 69 6a 6a 69 66 6b 6d 64 6f 90 64 69 72 6e
       0.024937006 0.0 0.0 0.024937006 0.024937006 0.0 -0.07481102 0.04987401 0.09974802 -0.12468503 0.14962204 0.97254324 -0.12468503 0.0 0.22443305 0.12468503
000030 67 66 69 66 6a 66 6a 68 6a 60 70 67 61 69 50 6a
       -0.04987401 -0.07481102 0.0 -0.07481102 0.024937006 -0.07481102 0.024937006 -0.024937006 0.024937006 -0.22443305 0.17455904 -0.04987401 -0.19949605 0.0 -0.6234251 0.024937006
000040 67 6b 69 6c 68 68 69 58 6c 69 c8 65 65 69 69 6c
       -0.04987401 0.04987401 0.0 0.07481102 -0.024937006 -0.024937006 0.0 -0.4239291 0.07481102 0.0 2.3690155 -0.09974802 -0.09974802 0.0 0.0 0.07481102
000050 8e 5b 69 6e 6a 58 6a 69 68 78 6a 69 60 69 67 6a
       0.92266923 -0.34911808 0.0 0.12468503 0.024937006 -0.4239291 0.024937006 0.0 -0.024937006 0.3740551 0.024937006 0.0 -0.22443305 0.0 -0.04987401 0.024937006
000060 69 69 69 67 6a 68 68 6c 6a 67 68 66 67 69 67 88
       0.0 0.0 0.0 -0.04987401 0.024937006 -0.024937006 -0.024937006 0.07481102 0.024937006 -0.04987401 -0.024937006 -0.07481102 -0.04987401 0.0 -0.04987401 0.77304715
000070 69 6b 69 6d 69 6a 68 68 69 70 65 6c 6a 69 8e 69
       0.0 0.04987401 0.0 0.09974802 0.0 0.024937006 -0.024937006 -0.024937006 0.0 0.17455904 -0.09974802 0.07481102 0.024937006 0.0 0.92266923 0.0
000080 68 68 69 69 6a 68 59 5e 78 68 5a 66 68 69 66 68
       -0.024937006 -0.024937006 0.0 0.0 0.024937006 -0.024937006 -0.3989921 -0.27430707 0.3740551 -0.024937006 -0.3740551 -0.07481102 -0.024937006 0.0 -0.07481102 -0.024937006
000090 68 68 69 6a 69 69 6c 73 6a 67 63 2b 66 69 6f 61
       -0.024937006 -0.024937006 0.0 0.024937006 0.0 0.0 0.07481102 0.24937005 0.024937006 -0.04987401 -0.14962204 -1.5460943 -0.07481102 0.0 0.14962204 -0.19949605
0000a0 4c 84 69 57 6a 87 6a 69 6a 67 68 69 6d 69 6a 68
       -0.72317314 0.67329913 0.0 -0.4488661 0.024937006 0.7481102 0.024937006 0.0 0.024937006 -0.04987401 -0.024937006 0.0 0.09974802 0.0 0.024937006 -0.024937006
0000b0 71 96 69 67 6c 5e 67 68 68 6c 68 68 5c 69 66 68
       0.19949605 1.1221652 0.0 -0.04987401 0.07481102 -0.27430707 -0.04987401 -0.024937006 -0.024937006 0.07481102 -0.024937006 -0.024937006 -0.32418108 0.0 -0.07481102 -0.024937006
0000c0 67 83 69 7c 74 66 5c 66 69 00 58 64 1c 69 b4 70
       -0.04987401 0.64836216 0.0 0.4738031 0.27430707 -0.07481102 -0.32418108 -0.07481102 0.0 -2.6183856 -0.4239291 -0.12468503 -1.9201494 0.0 1.8702754 0.17455904
0000d0 a3 77 69 50 61 48 6b 6d 6b 8f 6c 6c 4a 69 6b 68
       1.4463463 0.34911808 0.0 -0.6234251 -0.19949605 -0.8229212 0.04987401 0.09974802 0.04987401 0.9476062 0.07481102 0.07481102 -0.77304715 0.0 0.04987401 -0.024937006
0000e0 69 6c 69 6c 68 69 6b 6b 68 6b 73 6e 68 69 88 6a
       0.0 0.07481102 0.0 0.07481102 -0.024937006 0.0 0.04987401 0.04987401 -0.024937006 0.04987401 0.24937005 0.12468503 -0.024937006 0.0 0.77304715 0.024937006
0000f0 65 68 69 68 67 62 6b 59 66 67 77 ff 69 69 6b 42
       -0.09974802 -0.024937006 0.0 -0.024937006 -0.04987401 -0.17455904 0.04987401 -0.3989921 -0.07481102 -0.04987401 0.34911808 3.7405508 0.0 0.0 0.04987401 -0.97254324
