share/tensorflow/mobilenet_v1_0.25_224_quant/model.tflite (tflite, 496912 bytes, 28 tensors)

MobilenetV1/Logits/Conv2d_1c_1x1/weights_quant/FakeQuantWithMinMaxVars u1 [1001, 1, 1, 256] scale=0.006198185 zero_point=101
00000000: 6363 6163 6362 6363 6360 6264 6263 6263
00000010: 6363 6362 6263 6263 6364 6363 6263 6361
00000020: 6361 6362 6363 6163 6363 6363 6463 6363
00000030: 6463 6362 6361 6363 6363 6264 6362 6363
00000040: 6363 6463 6460 6363 6363 6263 6363 6263
00000050: 6261 6263 6362 6463 6363 6364 6263 6363
00000060: 6262 6263 6463 6463 6363 6261 6362 6363
00000070: 6364 6363 6463 6463 6362 6463 6363 6363
00000080: 6263 6363 6262 6363 6363 6361 6263 6162
00000090: 6263 6263 6363 6363 6362 6162 6463 625f
000000a0: 6363 6263 6264 6363 6363 6363 6363 6464
000000b0: 6263 6263 6363 6163 6164 6363 6363 6363
000000c0: 6362 6363 6363 6364 6363 6263 6263 6363
000000d0: 6363 6162 6263 6363 6262 6263 6362 6462
000000e0: 6363 6363 6362 6463 6462 5f63 6263 6363
000000f0: 6363 6363 6364 6263 6363 6363 6363 6363
-0.01239637 -0.01239637 -0.02479274 -0.01239637 -0.01239637 -0.018594556 -0.01239637 -0.01239637
-0.01239637 -0.030990925 -0.018594556 -0.006198185 -0.018594556 -0.01239637 -0.018594556 -0.01239637
-0.01239637 -0.01239637 -0.01239637 -0.018594556 -0.018594556 -0.01239637 -0.018594556 -0.01239637
-0.01239637 -0.006198185 -0.01239637 -0.01239637 -0.018594556 -0.01239637 -0.01239637 -0.02479274
-0.01239637 -0.02479274 -0.01239637 -0.018594556 -0.01239637 -0.01239637 -0.02479274 -0.01239637
-0.01239637 -0.01239637 -0.01239637 -0.01239637 -0.006198185 -0.01239637 -0.01239637 -0.01239637
-0.006198185 -0.01239637 -0.01239637 -0.018594556 -0.01239637 -0.02479274 -0.01239637 -0.01239637
-0.01239637 -0.01239637 -0.018594556 -0.006198185 -0.01239637 -0.018594556 -0.01239637 -0.01239637
-0.01239637 -0.01239637 -0.006198185 -0.01239637 -0.006198185 -0.030990925 -0.01239637 -0.01239637
-0.01239637 -0.01239637 -0.018594556 -0.01239637 -0.01239637 -0.01239637 -0.018594556 -0.01239637
-0.018594556 -0.02479274 -0.018594556 -0.01239637 -0.01239637 -0.018594556 -0.006198185 -0.01239637
-0.01239637 -0.01239637 -0.01239637 -0.006198185 -0.018594556 -0.01239637 -0.01239637 -0.01239637
-0.018594556 -0.018594556 -0.018594556 -0.01239637 -0.006198185 -0.01239637 -0.006198185 -0.01239637
-0.01239637 -0.01239637 -0.018594556 -0.02479274 -0.01239637 -0.018594556 -0.01239637 -0.01239637
-0.01239637 -0.006198185 -0.01239637 -0.01239637 -0.006198185 -0.01239637 -0.006198185 -0.01239637
-0.01239637 -0.018594556 -0.006198185 -0.01239637 -0.01239637 -0.01239637 -0.01239637 -0.01239637
-0.018594556 -0.01239637 -0.01239637 -0.01239637 -0.018594556 -0.018594556 -0.01239637 -0.01239637
-0.01239637 -0.01239637 -0.01239637 -0.02479274 -0.018594556 -0.01239637 -0.02479274 -0.018594556
-0.018594556 -0.01239637 -0.018594556 -0.01239637 -0.01239637 -0.01239637 -0.01239637 -0.01239637
-0.01239637 -0.018594556 -0.02479274 -0.018594556 -0.006198185 -0.01239637 -0.018594556 -0.03718911
-0.01239637 -0.01239637 -0.018594556 -0.01239637 -0.018594556 -0.006198185 -0.01239637 -0.01239637
-0.01239637 -0.01239637 -0.01239637 -0.01239637 -0.01239637 -0.01239637 -0.006198185 -0.006198185
-0.018594556 -0.01239637 -0.018594556 -0.01239637 -0.01239637 -0.01239637 -0.02479274 -0.01239637
-0.02479274 -0.006198185 -0.01239637 -0.01239637 -0.01239637 -0.01239637 -0.01239637 -0.01239637
-0.01239637 -0.018594556 -0.01239637 -0.01239637 -0.01239637 -0.01239637 -0.01239637 -0.006198185
-0.01239637 -0.01239637 -0.018594556 -0.01239637 -0.018594556 -0.01239637 -0.01239637 -0.01239637
-0.01239637 -0.01239637 -0.02479274 -0.018594556 -0.018594556 -0.01239637 -0.01239637 -0.01239637
-0.018594556 -0.018594556 -0.018594556 -0.01239637 -0.01239637 -0.018594556 -0.006198185 -0.018594556
-0.01239637 -0.01239637 -0.01239637 -0.01239637 -0.01239637 -0.018594556 -0.006198185 -0.01239637
-0.006198185 -0.018594556 -0.03718911 -0.01239637 -0.018594556 -0.01239637 -0.01239637 -0.01239637
-0.01239637 -0.01239637 -0.01239637 -0.01239637 -0.01239637 -0.006198185 -0.018594556 -0.01239637
-0.01239637 -0.01239637 -0.01239637 -0.01239637 -0.01239637 -0.01239637 -0.01239637 -0.01239637

MobilenetV1/MobilenetV1/Conv2d_0/weights_quant/FakeQuantWithMinMaxVars u1 [8, 3, 3, 3] scale=0.014855807 zero_point=152
00000000: 9690 9691 8d94 9a9b 9889 7b91 897d 9298
00000010: 9996 8a83 928e 8a94 9697 9898 9898 9798
00000020: 9898 9898 9999 9999 9999 9898 9998 9898
00000030: 9898 9899 999a 9897 9798 9798 9797 9898
00000040: 9798 9898 9897 9798 9897 9898 9798 9897
00000050: 98a4 a59a a5af 9e9b a49c a3a3 9aa5 ac9d
00000060: 9da2 9b99 9298 9996 9997 9b99 ff8e b165
00000070: 2e7b 004c 78dd bbb4 7c90 9635 8e83 8764
00000080: 8db0 9a99 e98a 8e81 92a6 95a8 9b80 a9a2
00000090: 819d a494 aa98 7fa5 a48a 9f9e 8ea0 9a91
000000a0: 9c99 b18f 7da5 9d92 b699 7aad 8f84 9a9b
000000b0: 9cb8 967b a697 8c9f 9494 ac8d 8d95 ae87
000000c0: 8eae 8b8d ac8e 8bb8 8585 b889 89b5 898c
000000d0: b08b 8bb0 8d90 ac8c
-0.029711613 -0.118846454 -0.029711613 -0.103990644 -0.16341387 -0.059423227 0.029711613 0.04456742
0.0 -0.2228371 -0.4308184 -0.103990644 -0.2228371 -0.40110677 -0.08913484 0.0
0.014855807 -0.029711613 -0.20798129 -0.31197193 -0.08913484 -0.14855807 -0.20798129 -0.059423227
-0.029711613 -0.014855807 0.0 0.0 0.0 0.0 -0.014855807 0.0
0.0 0.0 0.0 0.0 0.014855807 0.014855807 0.014855807 0.014855807
0.014855807 0.014855807 0.0 0.0 0.014855807 0.0 0.0 0.0
0.0 0.0 0.0 0.014855807 0.014855807 0.029711613 0.0 -0.014855807
-0.014855807 0.0 -0.014855807 0.0 -0.014855807 -0.014855807 0.0 0.0
-0.014855807 0.0 0.0 0.0 0.0 -0.014855807 -0.014855807 0.0
0.0 -0.014855807 0.0 0.0 -0.014855807 0.0 0.0 -0.014855807
0.0 0.17826968 0.19312549 0.029711613 0.19312549 0.34168357 0.08913484 0.04456742
0.17826968 0.059423227 0.16341387 0.16341387 0.029711613 0.19312549 0.29711613 0.07427903
0.07427903 0.14855807 0.04456742 0.014855807 -0.08913484 0.0 0.014855807 -0.029711613
0.014855807 -0.014855807 0.04456742 0.014855807 1.5301481 -0.14855807 0.37139517 -0.75764614
-1.5747155 -0.4308184 -2.2580826 -1.1290413 -0.47538581 1.0250506 0.51995325 0.41596258
-0.41596258 -0.118846454 -0.029711613 -1.4707248 -0.14855807 -0.31197193 -0.25254872 -0.77250195
-0.16341387 0.35653937 0.029711613 0.014855807 1.2033204 -0.20798129 -0.14855807 -0.34168357
-0.08913484 0.20798129 -0.04456742 0.23769291 0.04456742 -0.35653937 0.25254872 0.14855807
-0.34168357 0.07427903 0.17826968 -0.059423227 0.26740453 0.0 -0.37139517 0.19312549
0.17826968 -0.20798129 0.103990644 0.08913484 -0.14855807 0.118846454 0.029711613 -0.103990644
0.059423227 0.014855807 0.37139517 -0.13370226 -0.40110677 0.19312549 0.07427903 -0.08913484
0.4456742 0.014855807 -0.4456742 0.31197193 -0.13370226 -0.29711613 0.029711613 0.04456742
0.059423227 0.47538581 -0.029711613 -0.4308184 0.20798129 -0.014855807 -0.17826968 0.103990644
-0.059423227 -0.059423227 0.29711613 -0.16341387 -0.16341387 -0.04456742 0.32682773 -0.25254872
-0.14855807 0.32682773 -0.19312549 -0.16341387 0.29711613 -0.14855807 -0.19312549 0.47538581
-0.28226033 -0.28226033 0.47538581 -0.2228371 -0.2228371 0.4308184 -0.2228371 -0.17826968
0.35653937 -0.19312549 -0.19312549 0.35653937 -0.16341387 -0.118846454 0.29711613 -0.17826968

MobilenetV1/MobilenetV1/Conv2d_10_depthwise/weights_quant/FakeQuantWithMinMaxVars u1 [1, 3, 3, 128] scale=0.019864257 zero_point=165
00000000: a3ab a99c a9a8 bca7 9ea9 9e9b a9a1 9ea7
00000010: b89e b6a0 a59d aca3 a2ae b1a1 b8a1 aaa0
00000020: a4a4 b99f 9fa5 bda0 9dbc bba7 b2a5 b3af
00000030: a2a1 b7b6 a7a3 aa9f ae9d a09b a7bd 9fb5
00000040: b2a5 98a9 b7a9 a8b8 a1a0 acad bca9 a690
00000050: a9b9 a89a 99a1 9ea7 a2a9 9ba5 a5a6 a4a3
00000060: 9b9f a69f ada2 a199 a79e a59e a3cc a3b7
00000070: af9f 9aa2 a1a7 a99d ac98 ab9e a398 a4a9
00000080: a5b9 a49d ad9e 94a7 a098 889c a698 9eab
00000090: ae96 ba8d a29e c7aa a4b6 cd9b 989d a1a3
000000a0: a6ac b49d 99a3 bb9e 9cc8 b580 b2aa b5c6
000000b0: 9e9f baa3 a998 af9a b095 9d9f a85a a1ba
000000c0: b9a2 8eb9 d4b4 a8c2 9bb4 acbf bcb4 a498
000000d0: ad97 aa85 9b95 9ab5 a1a8 97a6 aba5 9ba1
000000e0: 96a0 a990 b0a5 9ea1 ad8f aa93 9fc7 c0b1
000000f0: af8c 8499 a0a3 b49b 99a6 baa0 a893 a4ab
-0.039728515 0.119185545 0.07945703 -0.17877832 0.07945703 0.059592772 0.45687792 0.039728515
-0.1390498 0.07945703 -0.1390498 -0.19864258 0.07945703 -0.07945703 -0.1390498 0.039728515
0.3774209 -0.1390498 0.33769238 -0.09932129 0.0 -0.15891406 0.1390498 -0.039728515
-0.059592772 0.17877832 0.23837109 -0.07945703 0.3774209 -0.07945703 0.09932129 -0.09932129
-0.019864257 -0.019864257 0.39728516 -0.119185545 -0.119185545 0.0 0.47674218 -0.09932129
-0.15891406 0.45687792 0.43701366 0.039728515 0.25823534 0.0 0.2780996 0.19864258
-0.059592772 -0.07945703 0.35755664 0.33769238 0.039728515 -0.039728515 0.09932129 -0.119185545
0.17877832 -0.15891406 -0.09932129 -0.19864258 0.039728515 0.47674218 -0.119185545 0.31782812
0.25823534 0.0 -0.25823534 0.07945703 0.35755664 0.07945703 0.059592772 0.3774209
-0.07945703 -0.09932129 0.1390498 0.15891406 0.45687792 0.07945703 0.019864257 -0.4171494
0.07945703 0.39728516 0.059592772 -0.21850683 -0.23837109 -0.07945703 -0.1390498 0.039728515
-0.059592772 0.07945703 -0.19864258 0.0 0.0 0.019864257 -0.019864257 -0.039728515
-0.19864258 -0.119185545 0.019864257 -0.119185545 0.15891406 -0.059592772 -0.07945703 -0.23837109
0.039728515 -0.1390498 0.0 -0.1390498 -0.039728515 0.77470607 -0.039728515 0.35755664
0.19864258 -0.119185545 -0.21850683 -0.059592772 -0.07945703 0.039728515 0.07945703 -0.15891406
0.1390498 -0.25823534 0.119185545 -0.1390498 -0.039728515 -0.25823534 -0.019864257 0.07945703
0.0 0.39728516 -0.019864257 -0.15891406 0.15891406 -0.1390498 -0.33769238 0.039728515
-0.09932129 -0.25823534 -0.57606345 -0.17877832 0.019864257 -0.25823534 -0.1390498 0.119185545
0.17877832 -0.29796386 0.4171494 -0.47674218 -0.059592772 -0.1390498 0.67538476 0.09932129
-0.019864257 0.33769238 0.7945703 -0.19864258 -0.25823534 -0.15891406 -0.07945703 -0.039728515
0.019864257 0.1390498 0.29796386 -0.15891406 -0.23837109 -0.039728515 0.43701366 -0.1390498
-0.17877832 0.695249 0.31782812 -0.73497754 0.25823534 0.09932129 0.31782812 0.6555205
-0.1390498 -0.119185545 0.4171494 -0.039728515 0.07945703 -0.25823534 0.19864258 -0.21850683
0.21850683 -0.31782812 -0.15891406 -0.119185545 0.059592772 -1.4898193 -0.07945703 0.4171494
0.39728516 -0.059592772 -0.45687792 0.39728516 0.9336201 0.29796386 0.059592772 0.57606345
-0.19864258 0.29796386 0.1390498 0.5164707 0.45687792 0.29796386 -0.019864257 -0.25823534
0.15891406 -0.2780996 0.09932129 -0.63565624 -0.19864258 -0.31782812 -0.21850683 0.31782812
-0.07945703 0.059592772 -0.2780996 0.019864257 0.119185545 0.0 -0.19864258 -0.07945703
-0.29796386 -0.09932129 0.07945703 -0.4171494 0.21850683 0.0 -0.1390498 -0.07945703
0.15891406 -0.43701366 0.09932129 -0.35755664 -0.119185545 0.67538476 0.53633493 0.23837109
0.19864258 -0.49660644 -0.6555205 -0.23837109 -0.09932129 -0.039728515 0.29796386 -0.19864258
-0.23837109 0.019864257 0.4171494 -0.09932129 0.059592772 -0.35755664 -0.019864257 0.119185545

MobilenetV1/MobilenetV1/Conv2d_10_pointwise/weights_quant/FakeQuantWithMinMaxVars u1 [128, 1, 1, 128] scale=0.008962337 zero_point=159
00000000: a6ae 9d9f 97a3 93a1 aa7a a6a5 ad92 a78f
00000010: 8492 86a1 9fa1 a1a7 8d95 909b b89f a194
00000020: b79a 54a4 97a9 9fa3 79b5 8e90 b79f 9caa
00000030: 95a0 8246 9997 8d9e a195 9fa1 9dbc 9f9b
00000040: aff4 6495 7da2 aa6e 9f83 949d 96a0 99a1
00000050: 9c93 9e88 b09e 8d9f 89a0 9ca0 9fa0 9798
00000060: af9e 9cb1 9aa0 9fb4 a79b 9581 a2bd 8f73
00000070: a28c 8fa9 9aa0 9a98 9ca3 a399 b0ab a09a
00000080: 8899 82c6 a3a4 9ebd a48f a29a a6b1 8592
00000090: 9d9f a399 acb3 a497 879b 9781 a597 ac9f
000000a0: aca6 949d 9ab3 9799 a6be 9a8e 97ad b69e
000000b0: b6a4 c19d ae8d 948f ba96 a8a9 a3b3 b29e
000000c0: aaa0 8eb1 a6b1 9890 a593 9b9a a594 c39c
000000d0: 9d99 ac93 9bbf ac96 bb73 a6a0 c782 c89e
000000e0: 8588 ae9d a581 af99 8b93 9e92 aea6 8c98
000000f0: a691 aa83 9ab3 8d92 967f af92 9c9d 9890
0.06273636 0.13443506 -0.017924674 0.0 -0.071698695 0.035849348 -0.10754804 0.017924674
0.09858571 -0.33160648 0.06273636 0.05377402 0.12547272 -0.11651038 0.071698695 -0.14339739
-0.2419831 -0.11651038 -0.22405842 0.017924674 0.0 0.017924674 0.017924674 0.071698695
-0.16132206 -0.08962337 -0.13443506 -0.035849348 0.22405842 0.0 0.017924674 -0.09858571
0.21509609 -0.044811685 -0.6721753 0.044811685 -0.071698695 0.08962337 0.0 0.035849348
-0.3405688 0.19717142 -0.15235972 -0.13443506 0.21509609 0.0 -0.02688701 0.09858571
-0.08962337 0.008962337 -0.25990778 -0.797648 -0.05377402 -0.071698695 -0.16132206 -0.008962337
0.017924674 -0.08962337 0.0 0.017924674 -0.017924674 0.25990778 0.0 -0.035849348
0.14339739 0.7617986 -0.5287779 -0.08962337 -0.30471945 0.02688701 0.09858571 -0.4391545
0.0 -0.25094545 -0.09858571 -0.017924674 -0.08066103 0.008962337 -0.05377402 0.017924674
-0.02688701 -0.10754804 -0.008962337 -0.20613375 0.15235972 -0.008962337 -0.16132206 0.0
-0.19717142 0.008962337 -0.02688701 0.008962337 0.0 0.008962337 -0.071698695 -0.06273636
0.14339739 -0.008962337 -0.02688701 0.16132206 -0.044811685 0.008962337 0.0 0.18820907
0.071698695 -0.035849348 -0.08962337 -0.26887012 0.02688701 0.26887012 -0.14339739 -0.39434284
0.02688701 -0.1702844 -0.14339739 0.08962337 -0.044811685 0.008962337 -0.044811685 -0.06273636
-0.02688701 0.035849348 0.035849348 -0.05377402 0.15235972 0.10754804 0.008962337 -0.044811685
-0.20613375 -0.05377402 -0.25990778 0.34953114 0.035849348 0.044811685 -0.008962337 0.26887012
0.044811685 -0.14339739 0.02688701 -0.044811685 0.06273636 0.16132206 -0.23302075 -0.11651038
-0.017924674 0.0 0.035849348 -0.05377402 0.11651038 0.17924674 0.044811685 -0.071698695
-0.21509609 -0.035849348 -0.071698695 -0.26887012 0.05377402 -0.071698695 0.11651038 0.0
0.11651038 0.06273636 -0.09858571 -0.017924674 -0.044811685 0.17924674 -0.071698695 -0.05377402
0.06273636 0.27783245 -0.044811685 -0.15235972 -0.071698695 0.12547272 0.20613375 -0.008962337
0.20613375 0.044811685 0.30471945 -0.017924674 0.13443506 -0.16132206 -0.09858571 -0.14339739
0.2419831 -0.08066103 0.08066103 0.08962337 0.035849348 0.17924674 0.1702844 -0.008962337
0.09858571 0.008962337 -0.15235972 0.16132206 0.06273636 0.16132206 -0.06273636 -0.13443506
0.05377402 -0.10754804 -0.035849348 -0.044811685 0.05377402 -0.09858571 0.3226441 -0.02688701
-0.017924674 -0.05377402 0.11651038 -0.10754804 -0.035849348 0.28679478 0.11651038 -0.08066103
0.25094545 -0.39434284 0.06273636 0.008962337 0.35849348 -0.25990778 0.3674558 -0.008962337
-0.23302075 -0.20613375 0.13443506 -0.017924674 0.05377402 -0.26887012 0.14339739 -0.05377402
-0.17924674 -0.10754804 -0.008962337 -0.11651038 0.13443506 0.06273636 -0.1702844 -0.06273636
0.06273636 -0.12547272 0.09858571 -0.25094545 -0.044811685 0.17924674 -0.16132206 -0.11651038
-0.08066103 -0.28679478 0.14339739 -0.11651038 -0.02688701 -0.017924674 -0.06273636 -0.13443506

MobilenetV1/MobilenetV1/Conv2d_11_depthwise/weights_quant/FakeQuantWithMinMaxVars u1 [1, 3, 3, 128] scale=0.025311872 zero_point=102
00000000: 7260 7b65 5a78 6c42 6167 7168 5c68 6a60
00000010: 866e 755e 7464 6764 696b 5e5f 676d 6770
00000020: 606f 6762 6c77 7169 5866 6069 5c68 7269
00000030: 6860 5d77 6d58 5f61 7160 5f5d 7560 653e
00000040: 7a52 6364 635b 6460 7c5e 656b 6469 5b6c
00000050: 5e5f 7465 696b 596f 6462 6f61 7564 6c6a
00000060: 6d6f 6274 5d60 655f 7167 6156 6872 5e58
00000070: 6e6e 625f 6868 6f5f 6f6f 6469 707a 6a6a
00000080: 735e 796a 5362 746d 607c 6975 5b4c 7166
00000090: 6974 7b5e 7978 776b 7471 5d60 6e7b 7671
000000a0: 5e6c 6e60 6c86 705c 586a 616b 5f67 7573
000000b0: 735f 5d63 7762 5266 685f 5152 725a 628d
000000c0: 8d5d 6f5f 5759 6860 765f 6c6b 716f 947c
000000d0: 6360 695c 7778 5f77 5e7c 675e 716a 7e6e
000000e0: 7a83 606b 645e 6d5e 6c5a 5f4b 7b77 645e
000000f0: 756f 5c5e 6b62 6c63 7372 6070 6e7d 5b55
0.30374247 -0.15187123 0.53154933 -0.025311872 -0.30374247 0.4556137 0.15187123 -0.9112274
-0.12655936 0.025311872 0.27843058 0.050623745 -0.25311872 0.050623745 0.10124749 -0.15187123
0.8099799 0.20249498 0.37967807 -0.20249498 0.3543662 -0.050623745 0.025311872 -0.050623745
0.07593562 0.12655936 -0.20249498 -0.1771831 0.025311872 0.1771831 0.025311872 0.25311872
-0.15187123 0.22780685 0.025311872 -0.10124749 0.15187123 0.43030185 0.27843058 0.07593562
-0.3543662 0.0 -0.15187123 0.07593562 -0.25311872 0.050623745 0.30374247 0.07593562
0.050623745 -0.15187123 -0.22780685 0.43030185 0.1771831 -0.3543662 -0.1771831 -0.12655936
0.27843058 -0.15187123 -0.1771831 -0.22780685 0.37967807 -0.15187123 -0.025311872 -1.0124749
0.50623745 -0.50623745 -0.07593562 -0.050623745 -0.07593562 -0.27843058 -0.050623745 -0.15187123
0.55686116 -0.20249498 -0.025311872 0.12655936 -0.050623745 0.07593562 -0.27843058 0.15187123
-0.20249498 -0.1771831 0.3543662 -0.025311872 0.07593562 0.12655936 -0.32905436 0.22780685
-0.050623745 -0.10124749 0.22780685 -0.12655936 0.37967807 -0.050623745 0.15187123 0.10124749
0.1771831 0.22780685 -0.10124749 0.3543662 -0.22780685 -0.15187123 -0.025311872 -0.1771831
0.27843058 0.025311872 -0.12655936 -0.40498996 0.050623745 0.30374247 -0.20249498 -0.3543662
0.20249498 0.20249498 -0.10124749 -0.1771831 0.050623745 0.050623745 0.22780685 -0.1771831
0.22780685 0.22780685 -0.050623745 0.07593562 0.25311872 0.50623745 0.10124749 0.10124749
0.32905436 -0.20249498 0.48092556 0.10124749 -0.48092556 -0.10124749 0.3543662 0.1771831
-0.15187123 0.55686116 0.07593562 0.37967807 -0.27843058 -0.6581087 0.27843058 0.0
0.07593562 0.3543662 0.53154933 -0.20249498 0.48092556 0.4556137 0.43030185 0.12655936
0.3543662 0.27843058 -0.22780685 -0.15187123 0.20249498 0.53154933 0.40498996 0.27843058
-0.20249498 0.15187123 0.20249498 -0.15187123 0.15187123 0.8099799 0.25311872 -0.25311872
-0.3543662 0.10124749 -0.12655936 0.12655936 -0.1771831 0.025311872 0.37967807 0.32905436
0.32905436 -0.1771831 -0.22780685 -0.07593562 0.43030185 -0.10124749 -0.50623745 0.0
0.050623745 -0.1771831 -0.53154933 -0.50623745 0.30374247 -0.30374247 -0.10124749 0.987163
0.987163 -0.22780685 0.22780685 -0.1771831 -0.37967807 -0.32905436 0.050623745 -0.15187123
0.40498996 -0.1771831 0.15187123 0.12655936 0.27843058 0.22780685 1.1643461 0.55686116
-0.07593562 -0.15187123 0.07593562 -0.25311872 0.43030185 0.4556137 -0.1771831 0.43030185
-0.20249498 0.55686116 0.025311872 -0.20249498 0.27843058 0.10124749 0.60748494 0.20249498
0.50623745 0.7340443 -0.15187123 0.12655936 -0.050623745 -0.20249498 0.1771831 -0.20249498
0.15187123 -0.30374247 -0.1771831 -0.68342054 0.53154933 0.43030185 -0.050623745 -0.20249498
0.37967807 0.22780685 -0.25311872 -0.20249498 0.12655936 -0.10124749 0.15187123 -0.07593562
0.32905436 0.30374247 -0.15187123 0.25311872 0.20249498 0.58217305 -0.27843058 -0.43030185

MobilenetV1/MobilenetV1/Conv2d_11_pointwise/weights_quant/FakeQuantWithMinMaxVars u1 [128, 1, 1, 128] scale=0.0069158785 zero_point=127
00000000: 6767 7f96 885c 997e 6d91 7793 9375 7bb1
00000010: a389 7f8f 7c98 6d6d 5f74 7a62 7d55 907f
00000020: 9567 8d7b 8baa 7471 8b87 7b7d 9587 878a
00000030: 816d 878a 9fa6 9493 638c 7897 8796 84b5
00000040: 8e70 9d8e 8991 8d97 9d6c 8ca1 8e96 965e
00000050: 887e 6c6e 7b78 528d 8e83 7997 7f79 8f90
00000060: 7f8e 7b82 5088 8371 858e 5e72 8a7c 7c6a
00000070: 8567 8566 6686 6d93 8a88 937c 6479 6e73
00000080: 7a80 8c90 888f 8886 7191 7d67 8077 8a93
00000090: 8358 6b8a 8973 6e6a 9379 8583 6279 9874
000000a0: 929e 8783 a897 7782 8790 8380 8e6c 7a90
000000b0: 8282 4f92 797c 8790 708a 7287 5b7c 459e
000000c0: 8275 8185 8e8d 7b74 8090 7481 a365 7a76
000000d0: 7b7a 7a76 ae77 7d7d 7b81 7480 8b8e 7497
000000e0: 8088 714a 7b85 8596 6475 7782 a496 9092
000000f0: 6280 858a 6b92 8380 8f72 6367 6481 8284
-0.16598108 -0.16598108 0.0 0.1590652 0.062242907 -0.24205574 0.17981285 -0.0069158785
-0.12448581 0.12448581 -0.055327028 0.13831757 0.13831757 -0.069158785 -0.027663514 0.34579393
0.24897163 0.069158785 0.0 0.110654056 -0.020747636 0.17289697 -0.12448581 -0.12448581
-0.22130811 -0.07607466 -0.034579393 -0.20056048 -0.013831757 -0.2904669 0.11756994 0.0
0.15214932 -0.16598108 0.0968223 -0.027663514 0.08299054 0.29738277 -0.07607466 -0.0968223
0.08299054 0.055327028 -0.027663514 -0.013831757 0.15214932 0.055327028 0.055327028 0.07607466
0.013831757 -0.12448581 0.055327028 0.07607466 0.22130811 0.26971927 0.14523345 0.13831757
-0.1936446 0.089906424 -0.04841115 0.16598108 0.055327028 0.1590652 0.034579393 0.37345743
0.103738174 -0.103738174 0.20747635 0.103738174 0.069158785 0.12448581 0.0968223 0.16598108
0.20747635 -0.13140169 0.089906424 0.23513988 0.103738174 0.1590652 0.1590652 -0.228224
0.062242907 -0.0069158785 -0.13140169 -0.11756994 -0.027663514 -0.04841115 -0.31121454 0.0968223
0.103738174 0.027663514 -0.04149527 0.16598108 0.0 -0.04149527 0.110654056 0.11756994
0.0 0.103738174 -0.027663514 0.020747636 -0.3250463 0.062242907 0.027663514 -0.0968223
0.04149527 0.103738174 -0.228224 -0.089906424 0.07607466 -0.020747636 -0.020747636 -0.14523345
0.04149527 -0.16598108 0.04149527 -0.17289697 -0.17289697 0.04841115 -0.12448581 0.13831757
0.07607466 0.062242907 0.13831757 -0.020747636 -0.18672872 -0.04149527 -0.11756994 -0.08299054
-0.034579393 0.0069158785 0.089906424 0.11756994 0.062242907 0.110654056 0.062242907 0.04841115
-0.0968223 0.12448581 -0.013831757 -0.16598108 0.0069158785 -0.055327028 0.07607466 0.13831757
0.027663514 -0.26971927 -0.13831757 0.07607466 0.069158785 -0.08299054 -0.11756994 -0.14523345
0.13831757 -0.04149527 0.04149527 0.027663514 -0.20056048 -0.04149527 0.17289697 -0.07607466
0.13140169 0.21439223 0.055327028 0.027663514 0.283551 0.16598108 -0.055327028 0.020747636
0.055327028 0.11756994 0.027663514 0.0069158785 0.103738174 -0.13140169 -0.034579393 0.11756994
0.020747636 0.020747636 -0.33196217 0.13140169 -0.04149527 -0.020747636 0.055327028 0.11756994
-0.103738174 0.07607466 -0.089906424 0.055327028 -0.24897163 -0.020747636 -0.40112096 0.21439223
0.020747636 -0.069158785 0.013831757 0.04149527 0.103738174 0.0968223 -0.027663514 -0.07607466
0.0069158785 0.11756994 -0.07607466 0.013831757 0.24897163 -0.17981285 -0.034579393 -0.062242907
-0.027663514 -0.034579393 -0.034579393 -0.062242907 0.3250463 -0.055327028 -0.013831757 -0.013831757
-0.027663514 0.013831757 -0.07607466 0.0069158785 0.08299054 0.103738174 -0.07607466 0.16598108
0.0069158785 0.062242907 -0.0968223 -0.36654156 -0.027663514 0.04149527 0.04149527 0.1590652
-0.18672872 -0.069158785 -0.055327028 0.020747636 0.2558875 0.1590652 0.11756994 0.13140169
-0.20056048 0.0069158785 0.04149527 0.07607466 -0.13831757 0.13140169 0.027663514 0.0069158785
0.110654056 -0.089906424 -0.1936446 -0.16598108 -0.18672872 0.013831757 0.020747636 0.034579393

MobilenetV1/MobilenetV1/Conv2d_12_depthwise/weights_quant/FakeQuantWithMinMaxVars u1 [1, 3, 3, 128] scale=0.010907946 zero_point=96
00000000: 7b52 527e 554c 5054 4e70 4a75 5477 5474
00000010: 8b9e 7e7f 5224 7554 517d 5438 7649 7471
00000020: 7875 7e72 5153 4675 5344 4b49 5455 525b
00000030: 4953 7b45 8354 240f 9d4d 5432 3877 464a
00000040: 724d 7e55 6172 5374 5040 2670 8573 7077
00000050: 7474 7974 5554 7f52 4875 4e74 8146 5079
00000060: 6f7e 5475 4b53 7f70 7b53 7f84 764d 7346
00000070: 4f71 894c 7e51 4e71 3f44 787d 7575 3c51
00000080: 834f 4d84 5147 4f53 4975 457b 517d 517a
00000090: 91a5 8786 4e18 7a50 4e83 5030 7c44 7878
000000a0: 7e79 8677 4f50 3e79 4f43 4348 5151 4f57
000000b0: 4650 8341 8b6d 1400 464c 5226 317f 4347
000000c0: 7648 85a9 7078 5079 4c39 2774 8c76 747b
000000d0: 7a79 807b 5250 814f 4179 4e78 8a41 4b80
000000e0: 7285 517b 4851 8275 7f4f 8585 7949 7740
000000f0: 4a76 9149 874d 4c76 3a3b 7d6f 7b7b 344c
0.29451454 -0.15271124 -0.15271124 0.32723838 -0.119987406 -0.21815893 -0.17452714 -0.13089535
-0.19634303 0.17452714 -0.23997481 0.22906686 -0.13089535 0.25088277 -0.13089535 0.21815893
0.46904168 0.67629266 0.32723838 0.33814633 -0.15271124 -0.65447676 0.22906686 -0.13089535
-0.16361919 0.31633043 -0.13089535 -0.43631786 0.23997481 -0.25088277 0.21815893 0.18543509
0.2617907 0.22906686 0.32723838 0.19634303 -0.16361919 -0.1418033 -0.2836066 0.22906686
-0.1418033 -0.30542248 -0.22906686 -0.25088277 -0.13089535 -0.119987406 -0.15271124 -0.054539733
-0.25088277 -0.1418033 0.29451454 -0.29451454 0.38177812 -0.13089535 -0.65447676 -0.8835436
0.6653847 -0.20725098 -0.13089535 -0.50176555 -0.43631786 0.25088277 -0.2836066 -0.23997481
0.19634303 -0.20725098 0.32723838 -0.119987406 0.010907946 0.19634303 -0.1418033 0.21815893
-0.17452714 -0.34905428 -0.63266087 0.17452714 0.40359402 0.20725098 0.17452714 0.25088277
0.21815893 0.21815893 0.27269864 0.21815893 -0.119987406 -0.13089535 0.33814633 -0.15271124
-0.2617907 0.22906686 -0.19634303 0.21815893 0.35996222 -0.2836066 -0.17452714 0.27269864
0.16361919 0.32723838 -0.13089535 0.22906686 -0.22906686 -0.1418033 0.33814633 0.17452714
0.29451454 -0.1418033 0.33814633 0.39268607 0.23997481 -0.20725098 0.20725098 -0.2836066
-0.18543509 0.18543509 0.44722578 -0.21815893 0.32723838 -0.16361919 -0.19634303 0.18543509
-0.35996222 -0.30542248 0.2617907 0.31633043 0.22906686 0.22906686 -0.39268607 -0.16361919
0.38177812 -0.18543509 -0.20725098 0.39268607 -0.16361919 -0.27269864 -0.18543509 -0.1418033
-0.25088277 0.22906686 -0.29451454 0.29451454 -0.16361919 0.31633043 -0.16361919 0.2836066
0.53448933 0.7526483 0.4254099 0.41450197 -0.19634303 -0.78537214 0.2836066 -0.17452714
-0.19634303 0.38177812 -0.17452714 -0.5235814 0.30542248 -0.30542248 0.2617907 0.2617907
0.32723838 0.27269864 0.41450197 0.25088277 -0.18543509 -0.17452714 -0.37087017 0.27269864
-0.18543509 -0.31633043 -0.31633043 -0.2617907 -0.16361919 -0.16361919 -0.18543509 -0.09817152
-0.2836066 -0.17452714 0.38177812 -0.33814633 0.46904168 0.1418033 -0.82900393 -1.0471628
-0.2836066 -0.21815893 -0.15271124 -0.63266087 -0.5126735 0.33814633 -0.31633043 -0.27269864
0.23997481 -0.2617907 0.40359402 0.7962801 0.17452714 0.2617907 -0.17452714 0.27269864
-0.21815893 -0.4254099 -0.6217529 0.21815893 0.47994962 0.23997481 0.21815893 0.29451454
0.2836066 0.27269864 0.34905428 0.29451454 -0.15271124 -0.17452714 0.35996222 -0.18543509
-0.33814633 0.27269864 -0.19634303 0.2617907 0.45813373 -0.33814633 -0.22906686 0.34905428
0.19634303 0.40359402 -0.16361919 0.29451454 -0.2617907 -0.16361919 0.37087017 0.22906686
0.33814633 -0.18543509 0.40359402 0.40359402 0.27269864 -0.25088277 0.25088277 -0.34905428
-0.23997481 0.23997481 0.53448933 -0.25088277 0.4254099 -0.20725098 -0.21815893 0.23997481
-0.41450197 -0.40359402 0.31633043 0.16361919 0.29451454 0.29451454 -0.47994962 -0.21815893

MobilenetV1/MobilenetV1/Conv2d_12_pointwise/weights_quant/FakeQuantWithMinMaxVars u1 [256, 1, 1, 128] scale=0.016248941 zero_point=113
00000000: 686e 7074 7c72 605f 7188 7666 647a 7b78
00000010: 7884 7963 8f6d 627b 756d 677d 7768 786c
00000020: 7b72 6657 6b6f 7871 6778 837b 6381 6d75
00000030: 766e 8d75 856d 6b73 7480 687f 7572 6c6a
00000040: 7a8b 686d 6a78 7d7a 7764 7775 6963 7159
00000050: 8671 7282 6376 7570 676b 5769 7b69 816c
00000060: 6673 7270 7c70 726e 5f73 6e71 7380 7873
00000070: 6c72 6c69 725b 6f64 7779 7b72 6d69 7985
00000080: 6e78 7075 7574 6774 6d75 7675 6d71 6f6d
00000090: 6b71 6c71 7473 706f 7276 7479 6f70 676b
000000a0: 7571 7071 7f71 7673 756c 7778 7270 6f68
000000b0: 7c6d 6f6a 7170 6d6e 746c 7d77 696e 6d70
000000c0: 7173 6f74 736d 7468 726c 7071 746e 7470
000000d0: 6e73 716b 6c6c 7477 7676 7576 6d73 7270
000000e0: 7372 756c 726a 7276 776e 7078 7871 6976
000000f0: 756f 7778 6e72 7572 796e 6a7b 7671 6f71
-0.14624047 -0.048746824 -0.016248941 0.048746824 0.17873836 0.016248941 -0.276232 -0.29248095
0.0 0.37372565 0.08124471 -0.17873836 -0.21123624 0.14624047 0.16248941 0.11374259
0.11374259 0.3087299 0.12999153 -0.22748518 0.48746824 -0.064995766 -0.24373412 0.16248941
0.064995766 -0.064995766 -0.16248941 0.1949873 0.09749365 -0.14624047 0.11374259 -0.08124471
0.16248941 0.016248941 -0.17873836 -0.42247248 -0.09749365 -0.032497883 0.11374259 0.0
-0.16248941 0.11374259 0.29248095 0.16248941 -0.22748518 0.25998306 -0.064995766 0.064995766
0.08124471 -0.048746824 0.45497036 0.064995766 0.32497883 -0.064995766 -0.09749365 0.032497883
0.048746824 0.24373412 -0.14624047 0.22748518 0.064995766 0.016248941 -0.08124471 -0.11374259
0.14624047 0.42247248 -0.14624047 -0.064995766 -0.11374259 0.11374259 0.1949873 0.14624047
0.09749365 -0.21123624 0.09749365 0.064995766 -0.12999153 -0.22748518 0.0 -0.3899746
0.34122777 0.0 0.016248941 0.276232 -0.22748518 0.08124471 0.064995766 -0.016248941
-0.16248941 -0.09749365 -0.42247248 -0.12999153 0.16248941 -0.12999153 0.25998306 -0.08124471
-0.17873836 0.032497883 0.016248941 -0.016248941 0.17873836 -0.016248941 0.016248941 -0.048746824
-0.29248095 0.032497883 -0.048746824 0.0 0.032497883 0.24373412 0.11374259 0.032497883
-0.08124471 0.016248941 -0.08124471 -0.12999153 0.016248941 -0.3574767 -0.032497883 -0.21123624
0.09749365 0.12999153 0.16248941 0.016248941 -0.064995766 -0.12999153 0.12999153 0.32497883
-0.048746824 0.11374259 -0.016248941 0.064995766 0.064995766 0.048746824 -0.16248941 0.048746824
-0.064995766 0.064995766 0.08124471 0.064995766 -0.064995766 0.0 -0.032497883 -0.064995766
-0.09749365 0.0 -0.08124471 0.0 0.048746824 0.032497883 -0.016248941 -0.032497883
0.016248941 0.08124471 0.048746824 0.12999153 -0.032497883 -0.016248941 -0.16248941 -0.09749365
0.064995766 0.0 -0.016248941 0.0 0.22748518 0.0 0.08124471 0.032497883
0.064995766 -0.08124471 0.09749365 0.11374259 0.016248941 -0.016248941 -0.032497883 -0.14624047
0.17873836 -0.064995766 -0.032497883 -0.11374259 0.0 -0.016248941 -0.064995766 -0.048746824
0.048746824 -0.08124471 0.1949873 0.09749365 -0.12999153 -0.048746824 -0.064995766 -0.016248941
0.0 0.032497883 -0.032497883 0.048746824 0.032497883 -0.064995766 0.048746824 -0.14624047
0.016248941 -0.08124471 -0.016248941 0.0 0.048746824 -0.048746824 0.048746824 -0.016248941
-0.048746824 0.032497883 0.0 -0.09749365 -0.08124471 -0.08124471 0.048746824 0.09749365
0.08124471 0.08124471 0.064995766 0.08124471 -0.064995766 0.032497883 0.016248941 -0.016248941
0.032497883 0.016248941 0.064995766 -0.08124471 0.016248941 -0.11374259 0.016248941 0.08124471
0.09749365 -0.048746824 -0.016248941 0.11374259 0.11374259 0.0 -0.12999153 0.08124471
0.064995766 -0.032497883 0.09749365 0.11374259 -0.048746824 0.016248941 0.064995766 0.016248941
0.12999153 -0.048746824 -0.11374259 0.16248941 0.08124471 0.0 -0.032497883 0.0

MobilenetV1/MobilenetV1/Conv2d_13_depthwise/weights_quant/FakeQuantWithMinMaxVars u1 [1, 3, 3, 256] scale=0.025923615 zero_point=176
00000000: a8e8 cda5 e799 5ada c0a8 a4bc 87d8 bd99
00000010: a6a4 9fc4 a3a6 98c8 bdc2 a7c6 caa0 c0a6
00000020: 8cab a4a2 bfa5 a7a4 a9bd e3c6 9ff1 92a5
00000030: a3a5 c7ea c6a5 a6a5 a9a7 c1c3 c0a3 c5a1
00000040: a3d3 bba7 c1a3 a4be f7c5 9fa4 c1a6 cd9f
00000050: 9ebe a8b8 ccdf acc3 c1a9 a4c0 c0a7 9cde
00000060: 9cc3 c3b8 c4d9 a0c4 bfa8 c0a8 b8db a7a4
00000070: bfc2 a38e e3c6 bca3 a1a4 3ba4 a7c6 a5b9
00000080: 9a2f a8a6 97df b7c1 be9f c3ca a7bd 88bd
00000090: c8d4 bfc3 caa8 e0c0 b79f a1a9 a497 a4de
000000a0: a6c4 c0b0 b6bd a3c3 ba9d c3a6 a6c2 b9da
000000b0: a5a9 a6b9 a1a6 939f ba9c a5a3 be99 a8bc
000000c0: c0bf bfbf a5a1 b8d2 a8bf a8c9 04bb c6bc
000000d0: a0be bcfb a8bc bcc2 c7c0 c4a2 9ebb d6a4
000000e0: a2be aadf c2b9 b9ba 999e 9aa4 bca6 c6cd
000000f0: b7bf c0c0 9bc1 9ec2 dcb9 9f9c c9c3 8ca3
-0.20738892 1.4517225 0.75178486 -0.28515977 1.4257989 -0.59624314 -2.229431 1.0887918
0.41477785 -0.20738892 -0.31108338 0.31108338 -1.0628682 1.0369446 0.337007 -0.59624314
-0.25923616 -0.31108338 -0.44070145 0.5184723 -0.337007 -0.25923616 -0.62216675 0.62216675
0.337007 0.46662506 -0.23331253 0.57031953 0.674014 -0.41477785 0.41477785 -0.25923616
-0.9332501 -0.12961808 -0.31108338 -0.36293063 0.38885424 -0.28515977 -0.23331253 -0.31108338
-0.18146531 0.337007 1.3221043 0.57031953 -0.44070145 1.685035 -0.7777085 -0.28515977
-0.337007 -0.28515977 0.59624314 1.5035697 0.57031953 -0.28515977 -0.25923616 -0.28515977
-0.18146531 -0.23331253 0.44070145 0.4925487 0.41477785 -0.337007 0.5443959 -0.38885424
-0.337007 0.9073265 0.28515977 -0.23331253 0.44070145 -0.337007 -0.31108338 0.36293063
1.8405766 0.5443959 -0.44070145 -0.31108338 0.44070145 -0.25923616 0.75178486 -0.44070145
-0.46662506 0.36293063 -0.20738892 0.20738892 0.72586125 1.2184099 -0.10369446 0.4925487
0.44070145 -0.18146531 -0.31108338 0.41477785 0.41477785 -0.23331253 -0.5184723 1.1924863
-0.5184723 0.4925487 0.4925487 0.20738892 0.5184723 1.0628682 -0.41477785 0.5184723
0.38885424 -0.20738892 0.41477785 -0.20738892 0.20738892 1.1147155 -0.23331253 -0.31108338
0.38885424 0.46662506 -0.337007 -0.8814029 1.3221043 0.57031953 0.31108338 -0.337007
-0.38885424 -0.31108338 -3.033063 -0.31108338 -0.23331253 0.57031953 -0.28515977 0.23331253
-0.57031953 -3.3441465 -0.20738892 -0.25923616 -0.64809036 1.2184099 0.18146531 0.44070145
0.36293063 -0.44070145 0.4925487 0.674014 -0.23331253 0.337007 -1.0369446 0.337007
0.62216675 0.9332501 0.38885424 0.4925487 0.674014 -0.20738892 1.2443335 0.41477785
0.18146531 -0.44070145 -0.38885424 -0.18146531 -0.31108338 -0.64809036 -0.31108338 1.1924863
-0.25923616 0.5184723 0.41477785 0.0 0.15554169 0.337007 -0.337007 0.4925487
0.25923616 -0.4925487 0.4925487 -0.25923616 -0.25923616 0.46662506 0.23331253 1.0887918
-0.28515977 -0.18146531 -0.25923616 0.23331253 -0.38885424 -0.25923616 -0.75178486 -0.44070145
0.25923616 -0.5184723 -0.28515977 -0.337007 0.36293063 -0.59624314 -0.20738892 0.31108338
0.41477785 0.38885424 0.38885424 0.38885424 -0.28515977 -0.38885424 0.20738892 0.8814029
-0.20738892 0.38885424 -0.20738892 0.64809036 -4.458862 0.28515977 0.57031953 0.31108338
-0.41477785 0.36293063 0.31108338 1.9442712 -0.20738892 0.31108338 0.31108338 0.46662506
0.59624314 0.41477785 0.5184723 -0.36293063 -0.46662506 0.28515977 0.9850974 -0.31108338
-0.36293063 0.36293063 -0.15554169 1.2184099 0.46662506 0.23331253 0.23331253 0.25923616
-0.59624314 -0.46662506 -0.57031953 -0.31108338 0.31108338 -0.25923616 0.57031953 0.75178486
0.18146531 0.38885424 0.41477785 0.41477785 -0.5443959 0.44070145 -0.46662506 0.46662506
1.1406391 0.23331253 -0.44070145 -0.5184723 0.64809036 0.4925487 -0.9332501 -0.337007

MobilenetV1/MobilenetV1/Conv2d_13_pointwise/weights_quant/FakeQuantWithMinMaxVars u1 [256, 1, 1, 256] scale=0.046361845 zero_point=126
00000000: 8f86 7794 7b80 8a7f 8488 7b71 7a81 687c
00000010: 7682 756b 7f82 797b 7386 6f72 7c71 a487
00000020: 8d70 8d79 898b 8862 728d 828b 817a 6e83
00000030: 6588 6b82 8c80 7e7e 828d 757a 7775 8374
00000040: 6e82 7a7d 667c 9478 8977 7380 7381 8473
00000050: 6f8b 8072 827f 7b8a 717d 877c 7a7c 7777
00000060: 7690 9278 7386 7097 7f5e 8985 9469 7285
00000070: 8682 727f 798f 7964 7c85 896e 8e7a 6a73
00000080: 8281 805c 8e72 7075 777f 858e 8b75 9177
00000090: 8484 9874 7985 7a74 9072 8290 768a 767b
000000a0: 8d7c 7472 8068 767c 9473 6b87 6b80 847d
000000b0: 8f7e 817b 7475 8480 6f83 747f 887d 6682
000000c0: 7586 807b 6d6f 8f84 9984 9278 8575 747b
000000d0: 8593 6182 826f 7b82 7d79 9a7c 8190 7f88
000000e0: 8986 8276 7d77 816f 7c70 7468 819b 827a
000000f0: 7b7f 6e71 7e74 5596 9286 7080 7667 7581
0.7881514 0.37089476 -0.32453293 1.0199606 -0.13908553 0.09272369 0.5563421 0.046361845
0.27817106 0.46361846 -0.13908553 -0.602704 -0.18544738 0.13908553 -1.0199606 -0.09272369
-0.37089476 0.18544738 -0.4172566 -0.88087505 0.046361845 0.18544738 -0.23180923 -0.13908553
-0.5099803 0.37089476 -0.69542766 -0.5563421 -0.09272369 -0.602704 1.7617501 0.4172566
0.69542766 -0.64906585 0.69542766 -0.23180923 0.5099803 0.602704 0.46361846 -1.2981317
-0.5563421 0.69542766 0.18544738 0.602704 0.13908553 -0.18544738 -0.7417895 0.23180923
-1.1590462 0.46361846 -0.88087505 0.18544738 0.64906585 0.09272369 0.0 0.0
0.18544738 0.69542766 -0.4172566 -0.18544738 -0.32453293 -0.4172566 0.23180923 -0.46361846
-0.7417895 0.18544738 -0.18544738 -0.046361845 -1.1126842 -0.09272369 1.0199606 -0.27817106
0.5099803 -0.32453293 -0.5099803 0.09272369 -0.5099803 0.13908553 0.27817106 -0.5099803
-0.69542766 0.602704 0.09272369 -0.5563421 0.18544738 0.046361845 -0.13908553 0.5563421
-0.602704 -0.046361845 0.4172566 -0.09272369 -0.18544738 -0.09272369 -0.32453293 -0.32453293
-0.37089476 0.8345132 0.9272369 -0.27817106 -0.5099803 0.37089476 -0.64906585 1.1590462
0.046361845 -1.483579 0.5099803 0.32453293 1.0199606 -0.9735987 -0.5563421 0.32453293
0.37089476 0.18544738 -0.5563421 0.046361845 -0.23180923 0.7881514 -0.23180923 -1.205408
-0.09272369 0.32453293 0.5099803 -0.7417895 0.7417895 -0.18544738 -0.9272369 -0.5099803
0.18544738 0.13908553 0.09272369 -1.5763028 0.7417895 -0.5563421 -0.64906585 -0.4172566
-0.32453293 0.046361845 0.32453293 0.7417895 0.602704 -0.4172566 0.88087505 -0.32453293
0.27817106 0.27817106 1.205408 -0.46361846 -0.23180923 0.32453293 -0.18544738 -0.46361846
0.8345132 -0.5563421 0.18544738 0.8345132 -0.37089476 0.5563421 -0.37089476 -0.13908553
0.69542766 -0.09272369 -0.46361846 -0.5563421 0.09272369 -1.0199606 -0.37089476 -0.09272369
1.0199606 -0.5099803 -0.88087505 0.4172566 -0.88087505 0.09272369 0.27817106 -0.046361845
0.7881514 0.0 0.13908553 -0.13908553 -0.46361846 -0.4172566 0.27817106 0.09272369
-0.69542766 0.23180923 -0.46361846 0.046361845 0.46361846 -0.046361845 -1.1126842 0.18544738
-0.4172566 0.37089476 0.09272369 -0.13908553 -0.7881514 -0.69542766 0.7881514 0.27817106
1.2517698 0.27817106 0.9272369 -0.27817106 0.32453293 -0.4172566 -0.46361846 -0.13908553
0.32453293 0.9735987 -1.3444935 0.18544738 0.18544738 -0.69542766 -0.13908553 0.18544738
-0.046361845 -0.23180923 1.2981317 -0.09272369 0.13908553 0.8345132 0.046361845 0.46361846
0.5099803 0.37089476 0.18544738 -0.37089476 -0.046361845 -0.32453293 0.13908553 -0.69542766
-0.09272369 -0.64906585 -0.46361846 -1.0199606 0.13908553 1.3444935 0.18544738 -0.18544738
-0.13908553 0.046361845 -0.7417895 -0.602704 0.0 -0.46361846 -1.9008356 1.1126842
0.9272369 0.37089476 -0.64906585 0.09272369 -0.37089476 -1.0663224 -0.4172566 0.13908553

MobilenetV1/MobilenetV1/Conv2d_1_depthwise/weights_quant/FakeQuantWithMinMaxVars u1 [1, 3, 3, 8] scale=0.12334833 zero_point=241
00000000: f1ea 00f1 f1f0 f1f2 f1ca 33f2 f0f9 ebeb
00000010: f1f4 71ef f0ee f3f1 f0d5 2def f0f0 f0f0
00000020: e3d4 34f4 f5fc ebec fffc 53f8 f3ef f3f1
00000030: f1df 18f1 eff7 eff1 f4c5 61f2 f4e7 f6f2
00000040: eed6 aaf0 f1f5 eef1
0.0 -0.8634383 -29.726948 0.0 0.0 -0.12334833 0.0 0.12334833
0.0 -4.810585 -23.436184 0.12334833 -0.12334833 0.98678666 -0.74009 -0.74009
0.0 0.370045 -15.788587 -0.24669667 -0.12334833 -0.370045 0.24669667 0.0
-0.12334833 -3.4537532 -24.176273 -0.24669667 -0.12334833 -0.12334833 -0.12334833 -0.12334833
-1.7268766 -3.5771017 -23.312836 0.370045 0.49339333 1.3568317 -0.74009 -0.61674166
1.7268766 1.3568317 -19.489037 0.8634383 0.24669667 -0.24669667 0.24669667 0.0
0.0 -2.22027 -26.766588 0.0 -0.24669667 0.74009 -0.24669667 0.0
0.370045 -5.4273267 -17.76216 0.12334833 0.370045 -1.2334833 0.61674166 0.12334833
-0.370045 -3.330405 -8.757731 -0.12334833 0.0 0.49339333 -0.370045 0.0

MobilenetV1/MobilenetV1/Conv2d_1_pointwise/weights_quant/FakeQuantWithMinMaxVars u1 [16, 1, 1, 8] scale=0.039545976 zero_point=97
00000000: 6161 6161 616a 7561 8561 6168 6b65 5d61
00000010: 5f61 617c 5b66 5f62 6161 617c 5e65 5f62
00000020: 6a61 615b 6e2b a1bc 6161 6162 6152 4863
00000030: 6261 6160 625f 6079 be61 6168 6864 6263
00000040: ff61 6163 6c61 6262 5f61 6163 5e68 5b7d
00000050: 6261 6161 6161 6161 7961 6165 6a69 5b63
00000060: 6161 614d 6460 5f60 0061 6158 525d 605c
00000070: 6161 6161 6161 6161 4461 6160 5a60 6260
0.0 0.0 0.0 0.0 0.0 0.3559138 0.79091954 0.0
1.4236552 0.0 0.0 0.27682182 0.39545977 0.1581839 -0.1581839 0.0
-0.07909195 0.0 0.0 1.0677414 -0.23727585 0.19772989 -0.07909195 0.039545976
0.0 0.0 0.0 1.0677414 -0.11863793 0.1581839 -0.07909195 0.039545976
0.3559138 0.0 0.0 -0.23727585 0.5140977 -2.1354828 2.5309424 3.5986838
0.0 0.0 0.0 0.039545976 0.0 -0.59318966 -0.98864937 0.07909195
0.039545976 0.0 0.0 -0.039545976 0.039545976 -0.07909195 -0.039545976 0.9491034
3.6777756 0.0 0.0 0.27682182 0.27682182 0.11863793 0.039545976 0.07909195
6.2482643 0.0 0.0 0.07909195 0.43500572 0.0 0.039545976 0.039545976
-0.07909195 0.0 0.0 0.07909195 -0.11863793 0.27682182 -0.23727585 1.1072873
0.039545976 0.0 0.0 0.0 0.0 0.0 0.0 0.0
0.9491034 0.0 0.0 0.1581839 0.3559138 0.3163678 -0.23727585 0.07909195
0.0 0.0 0.0 -0.79091954 0.11863793 -0.039545976 -0.07909195 -0.039545976
-3.8359597 0.0 0.0 -0.3559138 -0.59318966 -0.1581839 -0.039545976 -0.19772989
0.0 0.0 0.0 0.0 0.0 0.0 0.0 0.0
-1.1468333 0.0 0.0 -0.039545976 -0.27682182 -0.039545976 0.039545976 -0.039545976

MobilenetV1/MobilenetV1/Conv2d_2_depthwise/weights_quant/FakeQuantWithMinMaxVars u1 [1, 3, 3, 16] scale=0.1499195 zero_point=223
00000000: d5e1 e3e1 dede d6e0 dfe3 ffde cde2 dfe4
00000010: e4e3 e0e0 dee0 cce1 dde1 8de2 c3df ded0
00000020: fce2 dede e1e3 d1da ded9 00de d6de dddd
00000030: eae0 e2d4 e1e1 dbe0 ded9 83e0 f1e4 dfe2
00000040: d5e2 e0cb dedb e5e4 dde4 53d7 fbdc ddde
00000050: c7e1 ddd9 deda efdd dde3 10e5 e8db dde9
00000060: f7df dfe8 e0e3 d5e0 dfdd a9df dfe1 e0e2
00000070: dfdf e0f2 dfde eadf dedc 9fda dfde dedc
00000080: c7df dfe6 dbda f3de dfe9 18e5 dfde dddf
-1.499195 0.299839 0.599678 0.299839 -0.1499195 -0.1499195 -1.3492755 0.1499195
0.0 0.599678 4.797424 -0.1499195 -2.698551 0.44975847 0.0 0.7495975
0.7495975 0.599678 0.1499195 0.1499195 -0.1499195 0.1499195 -2.8484704 0.299839
-0.299839 0.299839 -12.293399 0.44975847 -4.197746 0.0 -0.1499195 -2.2487924
4.3476653 0.44975847 -0.1499195 -0.1499195 0.299839 0.599678 -2.098873 -0.7495975
-0.1499195 -0.89951694 -33.43205 -0.1499195 -1.3492755 -0.1499195 -0.299839 -0.299839
1.6491145 0.1499195 0.44975847 -1.6491145 0.299839 0.299839 -0.599678 0.1499195
-0.1499195 -0.89951694 -13.792594 0.1499195 2.698551 0.7495975 0.0 0.44975847
-1.499195 0.44975847 0.1499195 -2.99839 -0.1499195 -0.599678 0.89951694 0.7495975
-0.299839 0.7495975 -20.98873 -1.199356 4.197746 -0.44975847 -0.299839 -0.1499195
-3.5980678 0.299839 -0.299839 -0.89951694 -0.1499195 -0.7495975 2.398712 -0.299839
-0.299839 0.599678 -31.033335 0.89951694 1.3492755 -0.599678 -0.299839 1.499195
3.5980678 0.0 0.0 1.3492755 0.1499195 0.599678 -1.499195 0.1499195
0.0 -0.299839 -8.095653 0.0 0.0 0.299839 0.1499195 0.44975847
0.0 0.0 0.1499195 2.8484704 0.0 -0.1499195 1.6491145 0.0
-0.1499195 -0.44975847 -9.594848 -0.7495975 0.0 -0.1499195 -0.1499195 -0.44975847
-3.5980678 0.0 0.0 1.0494365 -0.599678 -0.7495975 2.99839 -0.1499195
0.0 1.499195 -29.833979 0.89951694 0.0 -0.1499195 -0.299839 0.0

MobilenetV1/MobilenetV1/Conv2d_2_pointwise/weights_quant/FakeQuantWithMinMaxVars u1 [32, 1, 1, 16] scale=0.0205551 zero_point=135
00000000: 88a3 638a 8d91 8999 6488 8783 8c87 877e
00000010: 887c 8b87 8a87 8650 7a83 87f7 869d 8749
00000020: 828c 8787 8686 89b5 8a87 877f 8954 8786
00000030: 4693 3e89 8348 918a 7c73 877f 9785 878c
00000040: 8585 8549 8a88 8688 8887 8788 8c88 8788
00000050: 858a 9098 7483 8896 7e6e 8791 8693 8782
00000060: 8e88 8786 934d 8688 877f 8788 8888 8787
00000070: 896a 5f89 9d89 8778 b2a4 879f 857b 8775
00000080: 868b 8b8a 8183 8773 8f89 8736 8486 877a
00000090: 898c 8a84 8a88 8799 7e89 8766 92ff 87ca
000000a0: d068 8789 857f 5382 8373 878f 7e87 8788
000000b0: 868c 997a 8386 888b 7f84 8778 868f 877d
000000c0: 7386 8c82 8fa0 008a 8370 8782 9486 8789
000000d0: 3e87 8387 86a4 8386 8291 8788 8988 8788
000000e0: 858a b88a 8485 8686 7286 8785 898b 8799
000000f0: 8dc0 8285 8a93 8881 748c 878d 8a82 878c
0.0205551 0.5755428 -0.73998356 0.061665297 0.12333059 0.205551 0.0411102 0.36999178
-0.7194285 0.0205551 0.0 -0.0822204 0.1027755 0.0 0.0 -0.18499589
0.0205551 -0.22610609 0.0822204 0.0 0.061665297 0.0 -0.0205551 -1.1305305
-0.2672163 -0.0822204 0.0 2.3021712 -0.0205551 0.45221218 0.0 -1.2744162
-0.1027755 0.1027755 0.0 0.0 -0.0205551 -0.0205551 0.0411102 0.9455346
0.061665297 0.0 0.0 -0.1644408 0.0411102 -1.04831 0.0 -0.0205551
-1.3360815 0.24666119 -1.5005223 0.0411102 -0.0822204 -1.2949712 0.205551 0.061665297
-0.22610609 -0.411102 0.0 -0.1644408 0.3288816 -0.0411102 0.0 0.1027755
-0.0411102 -0.0411102 -0.0411102 -1.2744162 0.061665297 0.0205551 -0.0205551 0.0205551
0.0205551 0.0 0.0 0.0205551 0.1027755 0.0205551 0.0 0.0205551
-0.0411102 0.061665297 0.18499589 0.3494367 -0.3905469 -0.0822204 0.0205551 0.30832648
-0.18499589 -0.5138775 0.0 0.205551 -0.0205551 0.24666119 0.0 -0.1027755
0.1438857 0.0205551 0.0 -0.0205551 0.24666119 -1.1921958 -0.0205551 0.0205551
0.0 -0.1644408 0.0 0.0205551 0.0205551 0.0205551 0.0 0.0
0.0411102 -0.5960979 -0.822204 0.0411102 0.45221218 0.0411102 0.0 -0.30832648
0.8838693 0.5960979 0.0 0.49332237 -0.0411102 -0.24666119 0.0 -0.36999178
-0.0205551 0.0822204 0.0822204 0.061665297 -0.12333059 -0.0822204 0.0 -0.411102
0.1644408 0.0411102 0.0 -1.664963 -0.061665297 -0.0205551 0.0 -0.2672163
0.0411102 0.1027755 0.061665297 -0.061665297 0.061665297 0.0205551 0.0 0.36999178
-0.18499589 0.0411102 0.0 -0.67831826 0.22610609 2.4666119 0.0 1.3771917
1.5005223 -0.6372081 0.0 0.0411102 -0.0411102 -0.1644408 -1.0688652 -0.1027755
-0.0822204 -0.411102 0.0 0.1644408 -0.18499589 0.0 0.0 0.0205551
-0.0205551 0.1027755 0.36999178 -0.2672163 -0.0822204 -0.0205551 0.0205551 0.0822204
-0.1644408 -0.061665297 0.0 -0.30832648 -0.0205551 0.1644408 0.0 -0.205551
-0.411102 -0.0205551 0.1027755 -0.1027755 0.1644408 0.5138775 -2.7749383 0.061665297
-0.0822204 -0.4727673 0.0 -0.1027755 0.2672163 -0.0205551 0.0 0.0411102
-1.5005223 0.0 -0.0822204 0.0 -0.0205551 0.5960979 -0.0822204 -0.0205551
-0.1027755 0.205551 0.0 0.0205551 0.0411102 0.0205551 0.0 0.0205551
-0.0411102 0.061665297 1.0071999 0.061665297 -0.061665297 -0.0411102 -0.0205551 -0.0205551
-0.43165708 -0.0205551 0.0 -0.0411102 0.0411102 0.0822204 0.0 0.36999178
0.12333059 1.1716406 -0.1027755 -0.0411102 0.061665297 0.24666119 0.0205551 -0.12333059
-0.3905469 0.1027755 0.0 0.12333059 0.061665297 -0.1027755 0.0 0.1027755

MobilenetV1/MobilenetV1/Conv2d_3_depthwise/weights_quant/FakeQuantWithMinMaxVars u1 [1, 3, 3, 32] scale=0.022374628 zero_point=113
00000000: 7171 6f76 7d88 7b6e 6d6f 5f72 7076 736f
00000010: 8168 6a68 536c 8374 706d 8974 6a72 7270
00000020: 6565 6671 7b35 7a63 466f 6e2d 6a78 6663
00000030: 7f64 7125 a171 7492 7670 9275 6263 7e7b
00000040: 7374 6d66 7c78 6881 686d 69ab 7766 7a70
00000050: 586c 7373 6474 6f79 6f6b 6874 6e7c 6d6e
00000060: 7b72 777d 6959 8472 746e 6f77 6b7f 726e
00000070: 8c62 617a 9890 7994 727f 926b 6e74 6e72
00000080: 8e95 35b8 00af 915b 9b80 6ca8 6799 3fa5
00000090: 9c5a 597d 3565 77b9 9b8e 9302 6d31 a590
000000a0: 5971 6d68 7a73 678d 7c84 6c3f 6864 8370
000000b0: 6968 7479 7e59 6985 6a88 7a74 6eae 7080
000000c0: 6f71 7066 726e 646d 7171 6e66 7564 716d
000000d0: 5488 7572 6770 6b49 706a 7678 4d71 6f6e
000000e0: 696d 6b4f 7476 6268 7572 7681 6762 a562
000000f0: 61ff 7e6e 7e6b 6c10 766a 7278 706a 726d
0.0 0.0 -0.044749256 0.11187314 0.26849553 0.51461643 0.22374628 -0.06712388
-0.08949851 -0.044749256 -0.4027433 0.022374628 -0.022374628 0.11187314 0.044749256 -0.044749256
0.35799405 -0.20137165 -0.1566224 -0.20137165 -0.67123884 -0.11187314 0.4027433 0.06712388
-0.022374628 -0.08949851 0.53699106 0.06712388 -0.1566224 0.022374628 0.022374628 -0.022374628
-0.26849553 -0.26849553 -0.24612091 0.0 0.22374628 -1.3424777 0.20137165 -0.3132448
-0.962109 -0.044749256 -0.06712388 -1.5214747 -0.1566224 0.1566224 -0.24612091 -0.3132448
0.3132448 -0.29087016 0.0 -1.7004718 1.0739821 0.0 0.06712388 0.7383627
0.11187314 -0.022374628 0.7383627 0.08949851 -0.33561942 -0.3132448 0.29087016 0.22374628
0.044749256 0.06712388 -0.08949851 -0.24612091 0.24612091 0.1566224 -0.20137165 0.35799405
-0.20137165 -0.08949851 -0.17899702 1.2977284 0.13424776 -0.24612091 0.20137165 -0.022374628
-0.5593657 -0.11187314 0.044749256 0.044749256 -0.29087016 0.06712388 -0.044749256 0.17899702
-0.044749256 -0.13424776 -0.20137165 0.06712388 -0.06712388 0.24612091 -0.08949851 -0.06712388
0.22374628 0.022374628 0.13424776 0.26849553 -0.17899702 -0.53699106 0.42511794 0.022374628
0.06712388 -0.06712388 -0.044749256 0.13424776 -0.13424776 0.3132448 0.022374628 -0.06712388
0.60411495 -0.33561942 -0.35799405 0.20137165 0.8726105 0.69361347 0.17899702 0.783112
0.022374628 0.3132448 0.7383627 -0.13424776 -0.06712388 0.06712388 -0.06712388 0.022374628
0.6488642 0.8054866 -1.3424777 1.5885986 -2.528333 1.3872269 0.7159881 -0.49224183
0.9397344 0.33561942 -0.11187314 1.2306045 -0.22374628 0.89498514 -1.1187314 1.1634806
0.962109 -0.51461643 -0.53699106 0.26849553 -1.3424777 -0.26849553 0.13424776 1.6109732
0.9397344 0.6488642 0.76073736 -2.4835837 -0.08949851 -1.4319762 1.1634806 0.69361347
-0.53699106 0.0 -0.08949851 -0.20137165 0.20137165 0.044749256 -0.22374628 0.6264896
0.24612091 0.42511794 -0.11187314 -1.1187314 -0.20137165 -0.29087016 0.4027433 -0.022374628
-0.17899702 -0.20137165 0.06712388 0.17899702 0.29087016 -0.53699106 -0.17899702 0.44749257
-0.1566224 0.51461643 0.20137165 0.06712388 -0.06712388 1.3648523 -0.022374628 0.33561942
-0.044749256 0.0 -0.022374628 -0.24612091 0.022374628 -0.06712388 -0.29087016 -0.08949851
0.0 0.0 -0.06712388 -0.24612091 0.08949851 -0.29087016 0.0 -0.08949851
-0.6488642 0.51461643 0.08949851 0.022374628 -0.22374628 -0.022374628 -0.13424776 -0.89498514
-0.022374628 -0.1566224 0.11187314 0.1566224 -0.8054866 0.0 -0.044749256 -0.06712388
-0.17899702 -0.08949851 -0.13424776 -0.76073736 0.06712388 0.11187314 -0.33561942 -0.20137165
0.08949851 0.022374628 0.11187314 0.35799405 -0.22374628 -0.33561942 1.1634806 -0.33561942
-0.35799405 3.1771972 0.29087016 -0.06712388 0.29087016 -0.13424776 -0.11187314 -2.1703389
0.11187314 -0.1566224 0.022374628 0.1566224 -0.022374628 -0.1566224 0.022374628 -0.08949851
