share/tensorflow/mobilenet_v1_0.25_128_quant/model.tflite (tflite, 496912 bytes, 28 tensors)

MobilenetV1/Logits/Conv2d_1c_1x1/weights_quant/FakeQuantWithMinMaxVars u1 [1001, 1, 1, 256] scale=0.0055185664 zero_point=94
000000 5b 5c 5c 5b 5b 5b 5b 5b 5c 5b 5c 5b 5b 5c 5a 5c
       -0.016555699 -0.011037133 -0.011037133 -0.016555699 -0.016555699 -0.016555699 -0.016555699 -0.016555699 -0.011037133 -0.016555699 -0.011037133 -0.016555699 -0.016555699 -0.011037133 -0.022074265 -0.011037133
000010 5c 5c 5c 5a 5c 5c 5c 5b 5c 5b 5c 5c 5c 59 5b 5a
       -0.011037133 -0.011037133 -0.011037133 -0.022074265 -0.011037133 -0.011037133 -0.011037133 -0.016555699 -0.011037133 -0.016555699 -0.011037133 -0.011037133 -0.011037133 -0.027592832 -0.016555699 -0.022074265
000020 5c 5c 5b 5c 5c 59 5c 5b 5c 5b 5b 5c 5b 5c 5c 5b
       -0.011037133 -0.011037133 -0.016555699 -0.011037133 -0.011037133 -0.027592832 -0.011037133 -0.016555699 -0.011037133 -0.016555699 -0.016555699 -0.011037133 -0.016555699 -0.011037133 -0.011037133 -0.016555699
000030 5b 5b 5c 5c 5a 5c 5c 5b 5c 5c 5b 5c 5d 5c 5a 5b
       -0.016555699 -0.016555699 -0.011037133 -0.011037133 -0.022074265 -0.011037133 -0.011037133 -0.016555699 -0.011037133 -0.011037133 -0.016555699 -0.011037133 -0.0055185664 -0.011037133 -0.022074265 -0.016555699
000040 5b 5b 5c 5b 5c 5c 5c 5b 5b 5b 5c 5c 5c 5c 5b 5c
       -0.016555699 -0.016555699 -0.011037133 -0.016555699 -0.011037133 -0.011037133 -0.011037133 -0.016555699 -0.016555699 -0.016555699 -0.011037133 -0.011037133 -0.011037133 -0.011037133 -0.016555699 -0.011037133
000050 5b 5b 5b 5b 5c 5c 5b 5b 5c 5b 5b 5b 5c 5b 5c 5b
       -0.016555699 -0.016555699 -0.016555699 -0.016555699 -0.011037133 -0.011037133 -0.016555699 -0.016555699 -0.011037133 -0.016555699 -0.016555699 -0.016555699 -0.011037133 -0.016555699 -0.011037133 -0.016555699
000060 5c 5c 5a 5c 5a 5a 5b 5b 5c 5b 5b 5b 5b 5a 5c 5c
       -0.011037133 -0.011037133 -0.022074265 -0.011037133 -0.022074265 -0.022074265 -0.016555699 -0.016555699 -0.011037133 -0.016555699 -0.016555699 -0.016555699 -0.016555699 -0.022074265 -0.011037133 -0.011037133
000070 5b 5c 5b 5c 5c 5b 5b 5c 5b 5c 5c 5c 5b 5a 5d 5c
       -0.016555699 -0.011037133 -0.016555699 -0.011037133 -0.011037133 -0.016555699 -0.016555699 -0.011037133 -0.016555699 -0.011037133 -0.011037133 -0.011037133 -0.016555699 -0.022074265 -0.0055185664 -0.011037133
000080 5c 5c 5b 5c 5b 5c 5b 5a 5b 5c 5c 5c 5b 5b 5b 5b
       -0.011037133 -0.011037133 -0.016555699 -0.011037133 -0.016555699 -0.011037133 -0.016555699 -0.022074265 -0.016555699 -0.011037133 -0.011037133 -0.011037133 -0.016555699 -0.016555699 -0.016555699 -0.016555699
000090 5a 5b 5c 5a 5a 5c 59 59 5c 5b 5c 5c 5b 5c 5a 5c
       -0.022074265 -0.016555699 -0.011037133 -0.022074265 -0.022074265 -0.011037133 -0.027592832 -0.027592832 -0.011037133 -0.016555699 -0.011037133 -0.011037133 -0.016555699 -0.011037133 -0.022074265 -0.011037133
0000a0 5c 5c 5b 5c 5b 5c 5b 5c 5c 5b 5b 5b 5a 5c 5c 5c
       -0.011037133 -0.011037133 -0.016555699 -0.011037133 -0.016555699 -0.011037133 -0.016555699 -0.011037133 -0.011037133 -0.016555699 -0.016555699 -0.016555699 -0.022074265 -0.011037133 -0.011037133 -0.011037133
0000b0 5b 5a 5a 5b 5b 5b 5c 5c 5c 5b 5c 5c 5c 5c 5c 5c
       -0.016555699 -0.022074265 -0.022074265 -0.016555699 -0.016555699 -0.016555699 -0.011037133 -0.011037133 -0.011037133 -0.016555699 -0.011037133 -0.011037133 -0.011037133 -0.011037133 -0.011037133 -0.011037133
0000c0 5c 5c 5c 5c 5b 5c 5c 5a 5c 5c 5a 59 5b 5a 5b 5a
       -0.011037133 -0.011037133 -0.011037133 -0.011037133 -0.016555699 -0.011037133 -0.011037133 -0.022074265 -0.011037133 -0.011037133 -0.022074265 -0.027592832 -0.016555699 -0.022074265 -0.016555699 -0.022074265
0000d0 5c 5b 5d 5c 5a 5b 5a 5b 5c 5c 5b 5c 5b 5c 5b 5b
       -0.011037133 -0.016555699 -0.0055185664 -0.011037133 -0.022074265 -0.016555699 -0.022074265 -0.016555699 -0.011037133 -0.011037133 -0.016555699 -0.011037133 -0.016555699 -0.011037133 -0.016555699 -0.016555699
0000e0 5c 5b 5b 5b 5c 59 5b 5b 5c 5c 5c 5b 5c 5b 59 5a
       -0.011037133 -0.016555699 -0.016555699 -0.016555699 -0.011037133 -0.027592832 -0.016555699 -0.016555699 -0.011037133 -0.011037133 -0.011037133 -0.016555699 -0.011037133 -0.016555699 -0.027592832 -0.022074265
0000f0 5c 5c 5c 5a 5c 5c 5c 5c 5c 5c 5c 5c 5c 5c 5b 5c
       -0.011037133 -0.011037133 -0.011037133 -0.022074265 -0.011037133 -0.011037133 -0.011037133 -0.011037133 -0.011037133 -0.011037133 -0.011037133 -0.011037133 -0.011037133 -0.011037133 -0.016555699 -0.011037133

MobilenetV1/MobilenetV1/Conv2d_0/weights_quant/FakeQuantWithMinMaxVars u1 [8, 3, 3, 3] scale=0.0088475775 zero_point=157
000000 a0 9f 9f 9f 9f 9e a0 a0 9f 9f 9d 9d 9f 9e 9e a1
       0.026542732 0.017695155 0.017695155 0.017695155 0.017695155 0.0088475775 0.026542732 0.026542732 0.017695155 0.017695155 0.0 0.0 0.017695155 0.0088475775 0.0088475775 0.03539031
000010 a0 9e 9f 9d 9c 9f 9e 9e a0 9f 9f 86 d2 82 74 ee
       0.026542732 0.0088475775 0.017695155 0.0 -0.0088475775 0.017695155 0.0088475775 0.0088475775 0.026542732 0.017695155 0.017695155 -0.20349428 0.4689216 -0.2388846 -0.36275068 0.71665376
000020 76 85 ce 85 80 db 7c 6a ff 6b 82 d5 80 94 b1 91
       -0.34505552 -0.21234186 0.43353128 -0.21234186 -0.25657976 0.54854983 -0.29197004 -0.45122644 0.86706257 -0.44237888 -0.2388846 0.49546432 -0.25657976 -0.0796282 0.17695156 -0.10617093
000030 89 c5 87 99 ab 93 a5 a4 a3 a5 a2 a1 a2 a0 9f a4
       -0.17695156 0.3539031 -0.1946467 -0.03539031 0.12386608 -0.08847578 0.07078062 0.06193304 0.053085465 0.07078062 0.04423789 0.03539031 0.04423789 0.026542732 0.017695155 0.06193304
000040 a2 a1 a5 a2 a0 a4 a1 9f a5 a2 a1 a6 a3 a0 a8 a3
       0.04423789 0.03539031 0.07078062 0.04423789 0.026542732 0.06193304 0.03539031 0.017695155 0.07078062 0.04423789 0.03539031 0.0796282 0.053085465 0.026542732 0.09732335 0.053085465
000050 a0 7c a5 b6 7b a6 b8 96 9f a3 73 a9 bc 71 a9 be
       0.026542732 -0.29197004 0.07078062 0.22118944 -0.30081764 0.0796282 0.2388846 -0.06193304 0.017695155 0.053085465 -0.37159824 0.10617093 0.27427492 -0.3892934 0.10617093 0.29197004
000060 94 a0 a3 8c a4 a6 8b a3 a9 9f 9b 9c d1 f7 aa c9
       -0.0796282 0.026542732 0.053085465 -0.15040882 0.06193304 0.0796282 -0.1592564 0.053085465 0.10617093 0.017695155 -0.017695155 -0.0088475775 0.46007404 0.796282 0.11501851 0.3892934
000070 ef b2 8d 89 a3 43 00 89 5a 10 80 a5 ad 95 bf e4
       0.72550136 0.18579912 -0.14156124 -0.17695156 0.053085465 -0.796282 -1.3890697 -0.17695156 -0.5927877 -1.2475084 -0.25657976 0.07078062 0.14156124 -0.07078062 0.30081764 0.628178
000080 a3 b8 e2 ac 8f 88 9e 9e 9d 9d a0 a0 a1 9d 9e a2
       0.053085465 0.2388846 0.6104829 0.13271366 -0.12386608 -0.18579912 0.0088475775 0.0088475775 0.0 0.0 0.026542732 0.026542732 0.03539031 0.0 0.0088475775 0.04423789
000090 a1 9f a1 a2 a1 a4 a2 a3 a7 a1 a0 a4 a2 a1 a4 a4
       0.03539031 0.017695155 0.03539031 0.04423789 0.03539031 0.06193304 0.04423789 0.053085465 0.08847578 0.03539031 0.026542732 0.06193304 0.04423789 0.03539031 0.06193304 0.06193304
0000a0 a3 a8 82 74 93 71 5a 8c 87 80 96 97 9a 9a 8e 92
       0.053085465 0.09732335 -0.2388846 -0.36275068 -0.08847578 -0.3892934 -0.5927877 -0.15040882 -0.1946467 -0.25657976 -0.06193304 -0.053085465 -0.026542732 -0.026542732 -0.13271366 -0.09732335
0000b0 99 93 96 9c ac ae a1 b1 b4 a3 a5 a5 a2 93 8a 98
       -0.03539031 -0.08847578 -0.06193304 -0.0088475775 0.13271366 0.15040882 0.03539031 0.17695156 0.20349428 0.053085465 0.07078062 0.07078062 0.04423789 -0.08847578 -0.16810398 -0.04423789
0000c0 93 8c 98 9e 9c 9c 85 78 93 87 79 93 9c 9d 9b 8d
       -0.08847578 -0.15040882 -0.04423789 0.0088475775 -0.0088475775 -0.0088475775 -0.21234186 -0.32736036 -0.08847578 -0.1946467 -0.3185128 -0.08847578 -0.0088475775 0.0 -0.017695155 -0.14156124
0000d0 8b 98 8f 8a 98 9c a1 9d
       -0.1592564 -0.04423789 -0.12386608 -0.16810398 -0.04423789 -0.0088475775 0.03539031 0.0

MobilenetV1/MobilenetV1/Conv2d_10_depthwise/weights_quant/FakeQuantWithMinMaxVars u1 [1, 3, 3, 128] scale=0.02268884 zero_point=134
000000 97 80 85 86 82 83 86 85 88 7b 85 8c 87 85 85 88
       0.38571027 -0.13613304 -0.02268884 0.0 -0.09075536 -0.06806652 0.0 -0.02268884 0.04537768 -0.24957724 -0.02268884 0.13613304 0.02268884 -0.02268884 -0.02268884 0.04537768
000010 89 85 83 82 85 7f 85 87 86 85 8b 78 86 84 83 85
       0.06806652 -0.02268884 -0.06806652 -0.09075536 -0.02268884 -0.15882188 -0.02268884 0.02268884 0.0 -0.02268884 0.113444194 -0.31764376 0.0 -0.04537768 -0.06806652 -0.02268884
000020 74 8f 84 8e 65 82 83 82 91 84 8c 82 80 86 8d 84
       -0.4083991 0.20419955 -0.04537768 0.18151072 -0.74873173 -0.09075536 -0.06806652 -0.09075536 0.24957724 -0.04537768 0.13613304 -0.09075536 -0.13613304 0.0 0.15882188 -0.04537768
000030 82 88 83 84 85 80 88 92 7f 88 84 84 84 7e 80 81
       -0.09075536 0.04537768 -0.06806652 -0.04537768 -0.02268884 -0.13613304 0.04537768 0.2722661 -0.15882188 0.04537768 -0.04537768 -0.04537768 -0.04537768 -0.18151072 -0.13613304 -0.113444194
000040 85 7f 8b 8a 88 85 85 7f 88 85 80 8a 7b 8d 86 82
       -0.02268884 -0.15882188 0.113444194 0.09075536 0.04537768 -0.02268884 -0.02268884 -0.15882188 0.04537768 -0.02268884 -0.13613304 0.09075536 -0.24957724 0.15882188 0.0 -0.09075536
000050 89 92 84 82 7f 88 81 89 85 7f 86 85 8c 8d 8b 87
       0.06806652 0.2722661 -0.04537768 -0.09075536 -0.15882188 0.04537768 -0.113444194 0.06806652 -0.02268884 -0.15882188 0.0 -0.02268884 0.13613304 0.15882188 0.113444194 0.02268884
000060 83 84 85 81 84 80 82 8a 8a 82 81 81 85 85 76 84
       -0.06806652 -0.04537768 -0.02268884 -0.113444194 -0.04537768 -0.13613304 -0.09075536 0.09075536 0.09075536 -0.09075536 -0.113444194 -0.113444194 -0.02268884 -0.02268884 -0.36302143 -0.04537768
000070 87 7d 82 91 84 8c 82 87 8f 85 85 8f 93 8b 88 8f
       0.02268884 -0.20419955 -0.09075536 0.24957724 -0.04537768 0.13613304 -0.09075536 0.02268884 0.20419955 -0.02268884 -0.02268884 0.20419955 0.29495493 0.113444194 0.04537768 0.20419955
000080 7b 66 8c 82 7c 92 80 80 8e 84 84 8b 8b 84 7e 8f
       -0.24957724 -0.72604287 0.13613304 -0.09075536 -0.22688839 0.2722661 -0.13613304 -0.13613304 0.18151072 -0.04537768 -0.04537768 0.113444194 0.113444194 -0.04537768 -0.18151072 0.20419955
000090 8b 7b 8a 80 86 76 7b 8a 85 93 81 7b 8d 7d 7f 81
       0.113444194 -0.24957724 0.09075536 -0.13613304 0.0 -0.36302143 -0.24957724 0.09075536 -0.02268884 0.29495493 -0.113444194 -0.24957724 0.15882188 -0.20419955 -0.15882188 -0.113444194
0000a0 79 8f 88 85 ab 80 78 86 a3 83 63 7f 78 8c 80 77
       -0.29495493 0.20419955 0.04537768 -0.02268884 0.8394871 -0.13613304 -0.31764376 0.0 0.6579763 -0.06806652 -0.7941094 -0.15882188 -0.31764376 0.13613304 -0.13613304 -0.3403326
0000b0 86 8b 7b 79 89 7f 84 80 71 8d 84 90 86 82 82 84
       0.0 0.113444194 -0.24957724 -0.29495493 0.06806652 -0.15882188 -0.04537768 -0.13613304 -0.47646564 0.15882188 -0.04537768 0.22688839 0.0 -0.09075536 -0.09075536 -0.04537768
0000c0 8e 81 69 94 aa 8a 85 89 86 7f 84 92 75 9e 85 a9
       0.18151072 -0.113444194 -0.6579763 0.31764376 0.8167982 0.09075536 -0.02268884 0.06806652 0.0 -0.15882188 -0.04537768 0.2722661 -0.38571027 0.5445322 -0.02268884 0.7941094
0000d0 85 71 8c 5c 7d 89 7d 81 80 7b 7c 80 87 a3 8a 86
       -0.02268884 -0.47646564 0.13613304 -0.9529313 -0.20419955 0.06806652 -0.20419955 -0.113444194 -0.13613304 -0.24957724 -0.22688839 -0.13613304 0.02268884 0.6579763 0.09075536 0.0
0000e0 70 82 80 7c 7e 85 7f 93 8a 80 7b 83 91 92 70 79
       -0.49915448 -0.09075536 -0.13613304 -0.22688839 -0.18151072 -0.02268884 -0.15882188 0.29495493 0.09075536 -0.13613304 -0.24957724 -0.06806652 0.24957724 0.2722661 -0.49915448 -0.29495493
0000f0 7d 78 80 7c 87 8e 86 85 8e 89 7f a0 a6 a0 7e 84
       -0.20419955 -0.31764376 -0.13613304 -0.22688839 0.02268884 0.18151072 0.0 -0.02268884 0.18151072 0.06806652 -0.15882188 0.58990985 0.72604287 0.58990985 -0.18151072 -0.04537768

MobilenetV1/MobilenetV1/Conv2d_10_pointwise/weights_quant/FakeQuantWithMinMaxVars u1 [128, 1, 1, 128] scale=0.007197348 zero_point=130
000000 b1 8d 7e 88 75 7a 83 7e 83 80 93 80 87 94 7a 73
       0.33827534 0.07917083 -0.028789392 0.043184087 -0.09356552 -0.057578783 0.007197348 -0.028789392 0.007197348 -0.014394696 0.12235492 -0.014394696 0.03598674 0.12955226 -0.057578783 -0.10796022
000010 6d 86 8b 82 75 c3 72 84 8e 87 7d b3 90 95 73 93
       -0.15114431 0.028789392 0.06477613 0.0 -0.09356552 0.46782762 -0.11515757 0.014394696 0.08636817 0.03598674 -0.03598674 0.35267004 0.100762874 0.13674961 -0.10796022 0.12235492
000020 8f 89 84 86 76 94 99 7e 96 8c 96 74 7f 83 7a 7c
       0.09356552 0.050381437 0.014394696 0.028789392 -0.08636817 0.12955226 0.165539 -0.028789392 0.14394696 0.07197348 0.14394696 -0.100762874 -0.021592043 0.007197348 -0.057578783 -0.043184087
000030 7b 75 95 86 7e 8d 7e 82 61 86 77 ac 90 93 88 77
       -0.050381437 -0.09356552 0.13674961 0.028789392 -0.028789392 0.07917083 -0.028789392 0.0 -0.23751248 0.028789392 -0.07917083 0.30228862 0.100762874 0.12235492 0.043184087 -0.07917083
000040 86 7b 7f 81 73 87 87 81 8a 8a 8b 6a 87 83 87 7d
       0.028789392 -0.050381437 -0.021592043 -0.007197348 -0.10796022 0.03598674 0.03598674 -0.007197348 0.057578783 0.057578783 0.06477613 -0.17273635 0.03598674 0.007197348 0.03598674 -0.03598674
000050 9a 8b 7a 83 74 8a 7d 7a 88 83 7e 83 aa 71 7c 81
       0.17273635 0.06477613 -0.057578783 0.007197348 -0.100762874 0.057578783 -0.03598674 -0.057578783 0.043184087 0.007197348 -0.028789392 0.007197348 0.28789392 -0.12235492 -0.043184087 -0.007197348
000060 72 8b 7d 7e 83 73 81 84 8b 7f 99 6b 7d 81 5f 93
       -0.11515757 0.06477613 -0.03598674 -0.028789392 0.007197348 -0.10796022 -0.007197348 0.014394696 0.06477613 -0.021592043 0.165539 -0.165539 -0.03598674 -0.007197348 -0.25190717 0.12235492
000070 70 7d 69 98 83 92 82 88 7a 8b 77 79 70 84 77 47
       -0.12955226 -0.03598674 -0.1799337 0.15834166 0.007197348 0.11515757 0.0 0.043184087 -0.057578783 0.06477613 -0.07917083 -0.06477613 -0.12955226 0.014394696 -0.07917083 -0.42464352
000080 7b 70 98 62 77 75 92 68 76 88 88 95 98 4f 95 89
       -0.050381437 -0.12955226 0.15834166 -0.23031513 -0.07917083 -0.09356552 0.11515757 -0.18713105 -0.08636817 0.043184087 0.043184087 0.13674961 0.15834166 -0.36706474 0.13674961 0.050381437
000090 8c 87 8d 9e 77 94 8a 76 79 8e bb 7b 8a 93 7c 82
       0.07197348 0.03598674 0.07917083 0.20152575 -0.07917083 0.12955226 0.057578783 -0.08636817 -0.06477613 0.08636817 0.41024885 -0.050381437 0.057578783 0.12235492 -0.043184087 0.0
0000a0 80 80 53 8a 7d 86 86 78 7a ae 87 7f 72 55 8b 83
       -0.014394696 -0.014394696 -0.33827534 0.057578783 -0.03598674 0.028789392 0.028789392 -0.07197348 -0.057578783 0.31668332 0.03598674 -0.021592043 -0.11515757 -0.32388064 0.06477613 0.007197348
0000b0 7f 63 7f 77 9f 7b 18 89 7c 88 47 68 4e 93 88 70
       -0.021592043 -0.22311778 -0.021592043 -0.07917083 0.20872308 -0.050381437 -0.7629189 0.050381437 -0.043184087 0.043184087 -0.42464352 -0.18713105 -0.3742621 0.12235492 0.043184087 -0.12955226
0000c0 82 7b 76 81 91 89 8f 8a 86 82 67 89 64 84 84 97
       0.0 -0.050381437 -0.08636817 -0.007197348 0.10796022 0.050381437 0.09356552 0.057578783 0.028789392 0.0 -0.1943284 0.050381437 -0.21592043 0.014394696 0.014394696 0.15114431
0000d0 80 7a 88 83 76 88 8b 8e 5b 88 92 97 9e 63 7c a4
       -0.014394696 -0.057578783 0.043184087 0.007197348 -0.08636817 0.043184087 0.06477613 0.08636817 -0.28069657 0.043184087 0.11515757 0.15114431 0.20152575 -0.22311778 -0.043184087 0.24470983
0000e0 98 95 74 5a bc 66 97 5f 91 94 85 8d 99 73 96 a9
       0.15834166 0.13674961 -0.100762874 -0.28789392 0.41744617 -0.20152575 0.15114431 -0.25190717 0.10796022 0.12955226 0.021592043 0.07917083 0.165539 -0.10796022 0.14394696 0.28069657
0000f0 89 7e 93 84 a8 7a 84 61 98 a9 7a 6b 86 8b 67 7e
       0.050381437 -0.028789392 0.12235492 0.014394696 0.27349922 -0.057578783 0.014394696 -0.23751248 0.15834166 0.28069657 -0.057578783 -0.165539 0.028789392 0.06477613 -0.1943284 -0.028789392

MobilenetV1/MobilenetV1/Conv2d_11_depthwise/weights_quant/FakeQuantWithMinMaxVars u1 [1, 3, 3, 128] scale=0.018186426 zero_point=147
000000 89 90 95 95 8f 8c 96 8b 9d 8d 96 95 99 85 89 92
       -0.18186426 -0.054559276 0.03637285 0.03637285 -0.0727457 -0.12730499 0.054559276 -0.1454914 0.18186426 -0.10911855 0.054559276 0.03637285 0.10911855 -0.25460997 -0.18186426 -0.018186426
000010 94 93 8f 86 86 96 9a 8f 94 90 92 97 93 94 95 93
       0.018186426 0.0 -0.0727457 -0.23642354 -0.23642354 0.054559276 0.12730499 -0.0727457 0.018186426 -0.054559276 -0.018186426 0.0727457 0.0 0.018186426 0.03637285 0.0
000020 9d 90 9b 9f 91 94 90 97 89 8f 94 9a 8e 8a 9b 8b
       0.18186426 -0.054559276 0.1454914 0.2182371 -0.03637285 0.018186426 -0.054559276 0.0727457 -0.18186426 -0.0727457 0.018186426 0.12730499 -0.09093213 -0.16367783 0.1454914 -0.1454914
000030 85 96 8f 9a 94 8e ae 98 90 8e 90 8f 90 8c 98 90
       -0.25460997 0.054559276 -0.0727457 0.12730499 0.018186426 -0.09093213 0.4910335 0.09093213 -0.054559276 -0.09093213 -0.054559276 -0.0727457 -0.054559276 -0.12730499 0.09093213 -0.054559276
000040 9d a1 9e 8a 98 94 93 89 9a a1 8d 94 97 8d 94 90
       0.18186426 0.25460997 0.20005068 -0.16367783 0.09093213 0.018186426 0.0 -0.18186426 0.12730499 0.25460997 -0.10911855 0.018186426 0.0727457 -0.10911855 0.018186426 -0.054559276
000050 8a 92 8b 94 91 9b 92 92 a3 94 9d 95 95 94 9f a6
       -0.16367783 -0.018186426 -0.1454914 0.018186426 -0.03637285 0.1454914 -0.018186426 -0.018186426 0.2909828 0.018186426 0.18186426 0.03637285 0.03637285 0.018186426 0.2182371 0.3455421
000060 8b 97 95 95 8e 95 8d 8e ae 95 95 96 a5 94 96 96
       -0.1454914 0.0727457 0.03637285 0.03637285 -0.09093213 0.03637285 -0.10911855 -0.09093213 0.4910335 0.03637285 0.03637285 0.054559276 0.32735565 0.018186426 0.054559276 0.054559276
000070 93 8f 8f 95 92 9c 9a 94 9b 92 95 98 8d 91 93 87
       0.0 -0.0727457 -0.0727457 0.03637285 -0.018186426 0.16367783 0.12730499 0.018186426 0.1454914 -0.018186426 0.03637285 0.09093213 -0.10911855 -0.03637285 0.0 -0.2182371
000080 7b 8d a2 9e a6 8c a3 7a a6 c0 a4 a0 ae 81 96 96
       -0.4364742 -0.10911855 0.2727964 0.20005068 0.3455421 -0.12730499 0.2909828 -0.45466065 0.3455421 0.8183892 0.30916923 0.23642354 0.4910335 -0.32735565 0.054559276 0.054559276
000090 8c a2 9d 83 74 a3 9a 89 9e 8b 9b 8e 93 9e bf 9d
       -0.12730499 0.2727964 0.18186426 -0.2909828 -0.5637792 0.2909828 0.12730499 -0.18186426 0.20005068 -0.1454914 0.1454914 -0.09093213 0.0 0.20005068 0.8002027 0.18186426
0000a0 a7 8c 71 c1 a2 a2 88 a6 88 91 a3 7f 88 88 89 8a
       0.36372852 -0.12730499 -0.61833847 0.83657557 0.2727964 0.2727964 -0.20005068 0.3455421 -0.20005068 -0.03637285 0.2909828 -0.36372852 -0.20005068 -0.20005068 -0.18186426 -0.16367783
0000b0 75 a2 b3 a6 87 94 cc a1 88 89 83 81 76 89 a4 8a
       -0.5455928 0.2727964 0.5819656 0.3455421 -0.2182371 0.018186426 1.0366262 0.25460997 -0.20005068 -0.18186426 -0.2909828 -0.32735565 -0.52740633 -0.18186426 0.30916923 -0.16367783
0000c0 97 b2 9c 8a 8e 96 b0 88 a4 ac 8d 9c 83 81 a9 9f
       0.0727457 0.5637792 0.16367783 -0.16367783 -0.09093213 0.054559276 0.52740633 -0.20005068 0.30916923 0.45466065 -0.10911855 0.16367783 -0.2909828 -0.32735565 0.40010136 0.2182371
0000d0 8c 8f 8b 9e 74 a4 9e 9b db a1 76 96 a5 a8 be bd
       -0.12730499 -0.0727457 -0.1454914 0.20005068 -0.5637792 0.30916923 0.20005068 0.1454914 1.3094226 0.25460997 -0.52740633 0.054559276 0.32735565 0.38191494 0.78201634 0.7638299
0000e0 89 a3 bb 8c 88 a3 8a 8a b5 89 a3 a3 bc 8c a7 9e
       -0.18186426 0.2909828 0.72745705 -0.12730499 -0.20005068 0.2909828 -0.16367783 -0.16367783 0.61833847 -0.18186426 0.2909828 0.2909828 0.74564344 -0.12730499 0.36372852 0.20005068
0000f0 9f 85 88 8b 82 b0 a5 a0 ae 9e 8e b9 89 8a 9f 86
       0.2182371 -0.25460997 -0.20005068 -0.1454914 -0.30916923 0.52740633 0.32735565 0.23642354 0.4910335 0.20005068 -0.09093213 0.6910842 -0.18186426 -0.16367783 0.2182371 -0.23642354

MobilenetV1/MobilenetV1/Conv2d_11_pointwise/weights_quant/FakeQuantWithMinMaxVars u1 [128, 1, 1, 128] scale=0.0077590686 zero_point=109
000000 88 63 6f 64 5c 92 8b 53 77 5c 59 76 6b 55 59 7b
       0.20949486 -0.07759069 0.015518137 -0.06983162 -0.13190417 0.28708553 0.23277205 -0.20173578 0.07759069 -0.13190417 -0.15518138 0.06983162 -0.015518137 -0.18621765 -0.15518138 0.10862696
000010 82 6c 6f 69 7c 5e 82 50 96 7a 46 85 7b 7f 5f 75
       0.16294044 -0.0077590686 0.015518137 -0.031036275 0.116386026 -0.116386026 0.16294044 -0.22501299 0.31812182 0.10086789 -0.30260366 0.18621765 0.10862696 0.13966323 -0.10862696 0.06207255
000020 70 72 6a 78 7f 63 7c 75 6b 84 6f 4b 64 60 6f 57
       0.023277206 0.038795345 -0.023277206 0.08534975 0.13966323 -0.07759069 0.116386026 0.06207255 -0.015518137 0.17845857 0.015518137 -0.26380834 -0.06983162 -0.10086789 0.015518137 -0.1706995
000030 86 7a 3b 71 6c 5b 63 4d 62 84 76 76 83 86 62 58
       0.19397672 0.10086789 -0.38795343 0.031036275 -0.0077590686 -0.13966323 -0.07759069 -0.2482902 -0.08534975 0.17845857 0.06983162 0.06983162 0.1706995 0.19397672 -0.08534975 -0.16294044
000040 7e 84 73 58 79 70 50 6c 87 5b 73 74 8a 80 68 60
       0.13190417 0.17845857 0.046554413 -0.16294044 0.093108825 0.023277206 -0.22501299 -0.0077590686 0.20173578 -0.13966323 0.046554413 0.05431348 0.22501299 0.1474223 -0.038795345 -0.10086789
000050 71 7e 72 6f 73 85 5e 86 7b 68 53 71 71 6a 76 89
       0.031036275 0.13190417 0.038795345 0.015518137 0.046554413 0.18621765 -0.116386026 0.19397672 0.10862696 -0.038795345 -0.20173578 0.031036275 0.031036275 -0.023277206 0.06983162 0.21725392
000060 74 50 87 63 6a 71 7a 6d 5f 70 6a a4 8a 5b 5e 8d
       0.05431348 -0.22501299 0.20173578 -0.07759069 -0.023277206 0.031036275 0.10086789 0.0 -0.10862696 0.023277206 -0.023277206 0.42674878 0.22501299 -0.13966323 -0.116386026 0.2482902
000070 86 71 87 76 77 48 69 72 73 91 7f 7c 4d 77 6d 73
       0.19397672 0.031036275 0.20173578 0.06983162 0.07759069 -0.28708553 -0.031036275 0.038795345 0.046554413 0.27932647 0.13966323 0.116386026 -0.2482902 0.07759069 0.0 0.046554413
000080 4a 73 49 81 78 57 5d 77 80 61 5d 84 50 7f 91 74
       -0.2715674 0.046554413 -0.27932647 0.15518138 0.08534975 -0.1706995 -0.1241451 0.07759069 0.1474223 -0.093108825 -0.1241451 0.17845857 -0.22501299 0.13966323 0.27932647 0.05431348
000090 56 5a 6c 50 71 78 65 59 70 94 4c 9e 5e 8b 57 84
       -0.17845857 -0.1474223 -0.0077590686 -0.22501299 0.031036275 0.08534975 -0.06207255 -0.15518138 0.023277206 0.30260366 -0.25604928 0.38019437 -0.116386026 0.23277205 -0.1706995 0.17845857
0000a0 68 62 64 73 70 4d 7e 5e 6b 69 7f 5c 7e 5d 64 7c
       -0.038795345 -0.08534975 -0.06983162 0.046554413 0.023277206 -0.2482902 0.13190417 -0.116386026 -0.015518137 -0.031036275 0.13966323 -0.13190417 0.13190417 -0.1241451 -0.06983162 0.116386026
0000b0 8a 5f 6a 6c 7b 86 5f 6a 8f 7c 58 76 79 87 7a 83
       0.22501299 -0.10862696 -0.023277206 -0.0077590686 0.10862696 0.19397672 -0.10862696 -0.023277206 0.26380834 0.116386026 -0.16294044 0.06983162 0.093108825 0.20173578 0.10086789 0.1706995
0000c0 54 5a 68 72 75 5d 68 69 75 72 67 68 8a 99 7b 90
       -0.19397672 -0.1474223 -0.038795345 0.038795345 0.06207255 -0.1241451 -0.038795345 -0.031036275 0.06207255 0.038795345 -0.046554413 -0.038795345 0.22501299 0.341399 0.10862696 0.2715674
0000d0 76 7e 6d 57 6b 82 74 6b 5c 7a 6e 90 5d 7b 60 65
       0.06983162 0.13190417 0.0 -0.1706995 -0.015518137 0.16294044 0.05431348 -0.015518137 -0.13190417 0.10086789 0.0077590686 0.2715674 -0.1241451 0.10862696 -0.10086789 -0.06207255
0000e0 6e 7a 6e 63 61 7a 8f 78 72 5f 68 6e 5d 91 74 6b
       0.0077590686 0.10086789 0.0077590686 -0.07759069 -0.093108825 0.10086789 0.26380834 0.08534975 0.038795345 -0.10862696 -0.038795345 0.0077590686 -0.1241451 0.27932647 0.05431348 -0.015518137
0000f0 59 74 87 7e 6e 73 64 86 38 6b 70 5c 7e 6c 55 66
       -0.15518138 0.05431348 0.20173578 0.13190417 0.0077590686 0.046554413 -0.06983162 0.19397672 -0.41123062 -0.015518137 0.023277206 -0.13190417 0.13190417 -0.0077590686 -0.18621765 -0.05431348

MobilenetV1/MobilenetV1/Conv2d_12_depthwise/weights_quant/FakeQuantWithMinMaxVars u1 [1, 3, 3, 128] scale=0.005746721 zero_point=124
000000 61 b0 63 aa b9 a8 61 47 61 c8 62 61 5d 53 ac b0
       -0.15516146 0.2988295 -0.14366803 0.26434916 0.35054997 0.25285572 -0.15516146 -0.30457622 -0.15516146 0.43675077 -0.14941475 -0.15516146 -0.17814834 -0.23561555 0.2758426 0.2988295
000010 53 a7 45 ba 3a af 98 c6 61 a6 b4 43 b8 34 c2 a1
       -0.23561555 0.247109 -0.31606963 0.3562967 -0.37928358 0.29308277 0.16090818 0.42525735 -0.15516146 0.24136227 0.32181635 -0.32756308 0.34480324 -0.4137639 0.40227047 0.21262868
000020 5c a4 b9 62 b4 a5 ad 5d ad a8 56 b7 47 be b5 b8
       -0.18389507 0.22986883 0.35054997 -0.14941475 0.32181635 0.23561555 0.28158933 -0.17814834 0.28158933 0.25285572 -0.21837538 0.33905652 -0.30457622 0.37928358 0.32756308 0.34480324
000030 af 47 63 34 56 49 4f a3 ab 5e 58 b4 28 a3 a0 da
       0.29308277 -0.30457622 -0.14366803 -0.4137639 -0.21837538 -0.29308277 -0.25860244 0.2241221 0.27009588 -0.17240162 -0.20688196 0.32181635 -0.48272455 0.2241221 0.20688196 0.54019177
000040 a8 a3 bb b4 c1 4c c2 4e 61 ba 49 a8 5d 53 b4 ac
       0.25285572 0.2241221 0.3620434 0.32181635 0.39652374 -0.2758426 0.40227047 -0.26434916 -0.15516146 0.3562967 -0.29308277 0.25285572 -0.17814834 -0.23561555 0.32181635 0.2758426
000050 a9 66 5e 60 aa 7e 61 54 3e af 5d 19 af 5a 9b 50
       0.25860244 -0.12642786 -0.17240162 -0.16090818 0.26434916 0.011493442 -0.15516146 -0.22986883 -0.3562967 0.29308277 -0.17814834 -0.5689254 0.29308277 -0.19538851 0.17814834 -0.25285572
000060 9d b8 62 55 a7 be 86 2b b3 24 b8 64 68 1a 59 b3
       0.18964179 0.34480324 -0.14941475 -0.2241221 0.247109 0.37928358 0.057467207 -0.46548438 0.31606963 -0.50571144 0.34480324 -0.1379213 -0.114934415 -0.56317866 -0.20113523 0.31606963
000070 a4 4c b8 bb ac 9f 1f 6c 5f a8 5c ba d8 3c b0 b0
       0.22986883 -0.2758426 0.34480324 0.3620434 0.2758426 0.20113523 -0.53444505 -0.09194753 -0.1666549 0.25285572 -0.18389507 0.3562967 0.5286983 -0.36779013 0.2988295 0.2988295
000080 5c bb 5d b8 c0 b1 5c 3e 5c db 5b 5a 56 49 b9 bc
       -0.18389507 0.3620434 -0.17814834 0.34480324 0.39077702 0.30457622 -0.18389507 -0.3562967 -0.18389507 0.5459385 -0.18964179 -0.19538851 -0.21837538 -0.29308277 0.35054997 0.36779013
000090 49 b0 3f c2 33 bc 9e d6 5b b0 bd 37 c5 28 cf a8
       -0.29308277 0.2988295 -0.35054997 0.40227047 -0.41951063 0.36779013 0.19538851 0.5172049 -0.18964179 0.2988295 0.37353685 -0.39652374 0.41951063 -0.48272455 0.47697783 0.25285572
0000a0 55 af c7 5c bf ae b6 56 b8 b2 4b c4 3d c7 bd be
       -0.2241221 0.29308277 0.43100405 -0.18389507 0.3850303 0.28733605 0.3333098 -0.21837538 0.34480324 0.3103229 -0.28158933 0.4137639 -0.3620434 0.43100405 0.37353685 0.37928358
0000b0 bc 3a 5d 25 4c 3f 46 ac b4 57 4e c1 18 a9 a7 e6
       0.36779013 -0.37928358 -0.17814834 -0.4999647 -0.2758426 -0.35054997 -0.3103229 0.2758426 0.32181635 -0.21262868 -0.26434916 0.39652374 -0.5746721 0.25860244 0.247109 0.60915244
0000c0 b4 ab c5 be ce 44 d0 44 5a c6 40 b1 58 4d c0 b7
       0.32181635 0.27009588 0.41951063 0.37928358 0.4712311 -0.32181635 0.48272455 -0.32181635 -0.19538851 0.42525735 -0.34480324 0.30457622 -0.20688196 -0.27009588 0.39077702 0.33905652
0000d0 b3 63 59 5a b3 7f 5c 4a 30 bb 56 0b b0 51 a2 45
       0.31606963 -0.14366803 -0.20113523 -0.19538851 0.31606963 0.017240163 -0.18389507 -0.28733605 -0.43675077 0.3620434 -0.21837538 -0.64937943 0.2988295 -0.247109 0.21837538 -0.31606963
0000e0 a5 c2 5d 4e b0 c9 88 1f bc 0d c4 5e 64 12 50 bf
       0.23561555 0.40227047 -0.17814834 -0.26434916 0.2988295 0.4424975 0.06896065 -0.53444505 0.36779013 -0.637886 0.4137639 -0.17240162 -0.1379213 -0.60915244 -0.25285572 0.3850303
0000f0 af 3f c0 c5 b6 a9 08 68 58 b0 55 c6 e4 33 bb b8
       0.29308277 -0.35054997 0.39077702 0.41951063 0.3333098 0.25860244 -0.6666196 -0.114934415 -0.20688196 0.2988295 -0.2241221 0.42525735 0.597659 -0.41951063 0.3620434 0.34480324

MobilenetV1/MobilenetV1/Conv2d_12_pointwise/weights_quant/FakeQuantWithMinMaxVars u1 [256, 1, 1, 128] scale=0.009923243 zero_point=112
000000 6e 4b 6d 65 73 7e 64 64 64 72 5f 6a 72 70 7a 8b
       -0.019846486 -0.36716 -0.02976973 -0.10915567 0.02976973 0.1389254 -0.11907892 -0.11907892 -0.11907892 0.019846486 -0.16869514 -0.05953946 0.019846486 0.0 0.09923243 0.26792756
000010 67 6e 66 65 7d 6d 6c 76 77 6f 36 68 7d 6c 70 6e
       -0.089309186 -0.019846486 -0.09923243 -0.10915567 0.12900215 -0.02976973 -0.03969297 0.05953946 0.0694627 -0.009923243 -0.5755481 -0.07938594 0.12900215 -0.03969297 0.0 -0.019846486
000020 78 6e 6f 77 6e 67 83 69 74 65 74 c3 69 5d 61 73
       0.07938594 -0.019846486 -0.009923243 0.0694627 -0.019846486 -0.089309186 0.18854162 -0.0694627 0.03969297 -0.10915567 0.03969297 0.82362914 -0.0694627 -0.18854162 -0.14884864 0.02976973
000030 69 83 8c 67 73 72 67 60 75 74 6d 5c 64 75 68 5e
       -0.0694627 0.18854162 0.2778508 -0.089309186 0.02976973 0.019846486 -0.089309186 -0.15877189 0.049616214 0.03969297 -0.02976973 -0.19846486 -0.11907892 0.049616214 -0.07938594 -0.17861837
000040 74 78 62 7c 83 6d 5d 6d 69 60 71 76 79 77 69 86
       0.03969297 0.07938594 -0.1389254 0.11907892 0.18854162 -0.02976973 -0.18854162 -0.02976973 -0.0694627 -0.15877189 0.009923243 0.05953946 0.089309186 0.0694627 -0.0694627 0.21831134
000050 6b 75 68 65 81 7a 74 71 6a 68 72 74 5c 6a 7c 64
       -0.049616214 0.049616214 -0.07938594 -0.10915567 0.16869514 0.09923243 0.03969297 0.009923243 -0.05953946 -0.07938594 0.019846486 0.03969297 -0.19846486 -0.05953946 0.11907892 -0.11907892
000060 68 6a 60 80 66 83 79 6f 85 6e 70 66 68 63 58 61
       -0.07938594 -0.05953946 -0.15877189 0.15877189 -0.09923243 0.18854162 0.089309186 -0.009923243 0.2083881 -0.019846486 0.0 -0.09923243 -0.07938594 -0.12900215 -0.23815784 -0.14884864
000070 7c 69 79 63 76 73 65 6b 6c 7b 6c 74 79 7b 56 72
       0.11907892 -0.0694627 0.089309186 -0.12900215 0.05953946 0.02976973 -0.10915567 -0.049616214 -0.03969297 0.10915567 -0.03969297 0.03969297 0.089309186 0.10915567 -0.2580043 0.019846486
000080 68 66 61 70 5e 66 7e 6d 79 6c 5b 8a 5d 5b 70 55
       -0.07938594 -0.09923243 -0.14884864 0.0 -0.17861837 -0.09923243 0.1389254 -0.02976973 0.089309186 -0.03969297 -0.2083881 0.2580043 -0.18854162 -0.2083881 0.0 -0.26792756
000090 6c 7b 59 72 61 67 78 72 6e 6e 6a 81 65 7b 6d 77
       -0.03969297 0.10915567 -0.22823459 0.019846486 -0.14884864 -0.089309186 0.07938594 0.019846486 -0.019846486 -0.019846486 -0.05953946 0.16869514 -0.10915567 0.10915567 -0.02976973 0.0694627
0000a0 73 7e 75 6e 6e 75 65 86 82 63 88 6e 85 7b 5b 89
       0.02976973 0.1389254 0.049616214 -0.019846486 -0.019846486 0.049616214 -0.10915567 0.21831134 0.17861837 -0.12900215 0.23815784 -0.019846486 0.2083881 0.10915567 -0.2083881 0.24808107
0000b0 64 88 69 6d 65 5a 71 85 83 6d 72 7f 5d 7c 66 77
       -0.11907892 0.23815784 -0.0694627 -0.02976973 -0.10915567 -0.21831134 0.009923243 0.2083881 0.18854162 -0.02976973 0.019846486 0.14884864 -0.18854162 0.11907892 -0.09923243 0.0694627
0000c0 7a 73 66 6b 64 7a 6b 5a 79 82 5b 6e 5f b1 61 83
       0.09923243 0.02976973 -0.09923243 -0.049616214 -0.11907892 0.09923243 -0.049616214 -0.21831134 0.089309186 0.17861837 -0.2083881 -0.019846486 -0.16869514 0.64501077 -0.14884864 0.18854162
0000d0 60 75 84 59 5f 5e 7e 6f 78 71 6d 67 81 84 79 6a
       -0.15877189 0.049616214 0.19846486 -0.22823459 -0.16869514 -0.17861837 0.1389254 -0.009923243 0.07938594 0.009923243 -0.02976973 -0.089309186 0.16869514 0.19846486 0.089309186 -0.05953946
0000e0 72 7e 78 85 7f 6a 63 78 7c 68 75 69 52 5d 60 71
       0.019846486 0.1389254 0.07938594 0.2083881 0.14884864 -0.05953946 -0.12900215 0.07938594 0.11907892 -0.07938594 0.049616214 -0.0694627 -0.29769728 -0.18854162 -0.15877189 0.009923243
0000f0 5e 80 67 67 75 5b 5a 53 6c 62 62 7c 71 76 6e 5f
       -0.17861837 0.15877189 -0.089309186 -0.089309186 0.049616214 -0.2083881 -0.21831134 -0.28777406 -0.03969297 -0.1389254 -0.1389254 0.11907892 0.009923243 0.05953946 -0.019846486 -0.16869514

MobilenetV1/MobilenetV1/Conv2d_13_depthwise/weights_quant/FakeQuantWithMinMaxVars u1 [1, 3, 3, 256] scale=0.025688928 zero_point=164
000000 96 bb 95 ac 95 bc 8b a0 b8 b4 ad a6 93 a2 93 97
       -0.35964498 0.59084535 -0.38533393 0.20551142 -0.38533393 0.61653423 -0.6422232 -0.10275571 0.51377857 0.41102284 0.23120035 0.051377855 -0.43671176 -0.051377855 -0.43671176 -0.33395606
000010 99 af b0 96 9a a4 97 9d 9f 95 91 b5 a6 bd 99 94
       -0.2825782 0.2825782 0.30826712 -0.35964498 -0.25688928 0.0 -0.33395606 -0.17982249 -0.12844464 -0.38533393 -0.48808962 0.43671176 0.051377855 0.6422232 -0.2825782 -0.41102284
000020 94 9b 99 b2 9b aa 9c b3 9a a1 92 b0 c4 ad a0 99
       -0.41102284 -0.23120035 -0.2825782 0.35964498 -0.23120035 0.15413356 -0.20551142 0.38533393 -0.25688928 -0.07706678 -0.4624007 0.30826712 0.8220457 0.23120035 -0.10275571 -0.2825782
000030 aa 46 b4 9f cd be ac a3 b3 97 b0 9a b2 b3 ac 9b
       0.15413356 -2.4147592 0.41102284 -0.12844464 1.053246 0.6679121 0.20551142 -0.025688928 0.38533393 -0.33395606 0.30826712 -0.25688928 0.35964498 0.38533393 0.20551142 -0.23120035
000040 ad 9c ae b3 b2 9f 90 ab a2 9c 9d aa ac 97 b0 8f
       0.23120035 -0.20551142 0.25688928 0.38533393 0.35964498 -0.12844464 -0.51377857 0.17982249 -0.051377855 -0.20551142 -0.17982249 0.15413356 0.20551142 -0.33395606 0.30826712 -0.53946745
000050 90 a4 96 a5 a3 a2 aa a4 a8 4f cb b1 9e b6 75 98
       -0.51377857 0.0 -0.35964498 0.025688928 -0.025688928 -0.051377855 0.15413356 0.0 0.10275571 -2.183559 1.0018681 0.33395606 -0.15413356 0.4624007 -1.2073796 -0.30826712
000060 91 9d ba c2 bd 9d ba a2 9f b5 9d b0 84 a8 a1 98
       -0.48808962 -0.17982249 0.5651564 0.77066785 0.6422232 -0.17982249 0.5651564 -0.051377855 -0.12844464 0.43671176 -0.17982249 0.30826712 -0.8220457 0.10275571 -0.07706678 -0.30826712
000070 74 99 b8 b6 9c ad b2 cf 97 9e ac a8 d6 a3 59 92
       -1.2330685 -0.2825782 0.51377857 0.4624007 -0.20551142 0.23120035 0.35964498 1.1046239 -0.33395606 -0.15413356 0.20551142 0.10275571 1.2844464 -0.025688928 -1.9266696 -0.4624007
000080 9b 9c 9d 95 ab 91 ae a2 bc 96 aa 9b a0 9c 9d a5
       -0.23120035 -0.20551142 -0.17982249 -0.38533393 0.17982249 -0.48808962 0.25688928 -0.051377855 0.61653423 -0.35964498 0.15413356 -0.23120035 -0.10275571 -0.20551142 -0.17982249 0.025688928
000090 aa 99 91 9c 9c aa 91 e0 3d ab b5 93 ca 97 a7 95
       0.15413356 -0.2825782 -0.48808962 -0.20551142 -0.20551142 0.15413356 -0.48808962 1.5413357 -2.6459596 0.17982249 0.43671176 -0.43671176 0.97617924 -0.33395606 0.07706678 -0.38533393
0000a0 a1 8a bd a6 b5 a3 b0 ac 9c 98 ae 99 a3 62 97 b2
       -0.07706678 -0.6679121 0.6422232 0.051377855 0.43671176 -0.025688928 0.30826712 0.20551142 -0.20551142 -0.30826712 0.25688928 -0.2825782 -0.025688928 -1.6954693 -0.33395606 0.35964498
0000b0 af 88 9f a9 a1 a6 b7 9b 4f b7 9e b4 a7 9b 9a b2
       0.2825782 -0.71928996 -0.12844464 0.12844464 -0.07706678 0.051377855 0.48808962 -0.23120035 -2.183559 0.48808962 -0.15413356 0.41102284 0.07706678 -0.23120035 -0.25688928 0.35964498
0000c0 83 9a b9 a5 c6 b0 b1 b0 b2 ae 8f 4d bf 9f d2 8f
       -0.84773463 -0.25688928 0.53946745 0.025688928 0.8734235 0.30826712 0.33395606 0.30826712 0.35964498 0.25688928 -0.53946745 -2.2349367 0.6936011 -0.12844464 1.1816907 -0.53946745
0000d0 af aa b3 af c4 a9 9e 8f c6 9d b4 a1 9e 91 91 aa
       0.2825782 0.15413356 0.38533393 0.2825782 0.8220457 0.12844464 -0.15413356 -0.53946745 0.8734235 -0.17982249 0.41102284 -0.07706678 -0.15413356 -0.48808962 -0.48808962 0.15413356
0000e0 9e 97 94 b4 ac a2 df 99 96 c2 a9 98 8e a1 9d b6
       -0.15413356 -0.33395606 -0.41102284 0.41102284 0.20551142 -0.051377855 1.5156467 -0.2825782 -0.35964498 0.77066785 0.12844464 -0.30826712 -0.5651564 -0.07706678 -0.17982249 0.4624007
0000f0 7c 8a a8 b0 ac a9 92 a8 aa 9d 9f 7b 9c 90 94 ad
       -1.0275571 -0.6679121 0.10275571 0.30826712 0.20551142 0.12844464 -0.4624007 0.10275571 0.15413356 -0.17982249 -0.12844464 -1.053246 -0.20551142 -0.51377857 -0.41102284 0.23120035

MobilenetV1/MobilenetV1/Conv2d_13_pointwise/weights_quant/FakeQuantWithMinMaxVars u1 [256, 1, 1, 256] scale=0.02329183 zero_point=143
000000 7a 8d 93 a4 86 9c 96 8b 8c 8c 78 a2 73 80 8e 81
       -0.48912844 -0.04658366 0.09316732 0.48912844 -0.20962647 0.3027938 0.16304281 -0.09316732 -0.06987549 -0.06987549 -0.53571206 0.44254476 -0.65217125 -0.34937745 -0.02329183 -0.32608563
000010 7b 90 86 9a a1 86 a3 90 8e 86 8f 77 50 9c 7e 7a
       -0.46583658 0.02329183 -0.20962647 0.25621012 0.41925293 -0.20962647 0.46583658 0.02329183 -0.02329183 -0.20962647 0.0 -0.55900395 -1.4673853 0.3027938 -0.3959611 -0.48912844
000020 6d a9 93 a4 90 97 8d 92 9b 78 7d 8c 8e 6a 9b 7b
       -0.7919222 0.6055876 0.09316732 0.48912844 0.02329183 0.18633464 -0.04658366 0.06987549 0.27950197 -0.53571206 -0.41925293 -0.06987549 -0.02329183 -0.8617977 0.27950197 -0.46583658
000030 7c 85 90 98 98 8f 8e 6f 9d 87 7d a0 7e b3 82 66
       -0.44254476 -0.23291829 0.02329183 0.20962647 0.20962647 0.0 -0.02329183 -0.74533856 0.32608563 -0.18633464 -0.41925293 0.3959611 -0.3959611 0.83850586 -0.3027938 -0.95496505
000040 84 83 97 a9 80 a9 89 87 8f 92 9e 9f 7f a6 7b 8e
       -0.25621012 -0.27950197 0.18633464 0.6055876 -0.34937745 0.6055876 -0.13975099 -0.18633464 0.0 0.06987549 0.34937745 0.37266928 -0.37266928 0.53571206 -0.46583658 -0.02329183
000050 8b 9c 94 71 8a 8e a2 97 83 94 83 97 9d 85 93 7d
       -0.09316732 0.3027938 0.116459146 -0.6987549 -0.116459146 -0.02329183 0.44254476 0.18633464 -0.27950197 0.116459146 -0.27950197 0.18633464 0.32608563 -0.23291829 0.09316732 -0.41925293
000060 84 a0 93 88 83 9d 9b 9d 8b 97 9a 7c 98 91 a5 82
       -0.25621012 0.3959611 0.09316732 -0.16304281 -0.27950197 0.32608563 0.27950197 0.32608563 -0.09316732 0.18633464 0.25621012 -0.44254476 0.20962647 0.04658366 0.51242024 -0.3027938
000070 83 84 94 a4 a1 a5 ac 95 8b 91 81 88 86 72 ae 7d
       -0.27950197 -0.25621012 0.116459146 0.48912844 0.41925293 0.51242024 0.6754631 0.13975099 -0.09316732 0.04658366 -0.32608563 -0.16304281 -0.20962647 -0.6754631 0.72204673 -0.41925293
000080 77 95 73 a2 a8 97 b1 8c 99 9d 8a 81 8a 8d 98 7f
       -0.55900395 0.13975099 -0.65217125 0.44254476 0.5822958 0.18633464 0.7919222 -0.06987549 0.23291829 0.32608563 -0.116459146 -0.32608563 -0.116459146 -0.04658366 0.20962647 -0.37266928
000090 96 8d a5 68 8a 83 84 90 99 86 8c 9b a2 95 8a 83
       0.16304281 -0.04658366 0.51242024 -0.90838134 -0.116459146 -0.27950197 -0.25621012 0.02329183 0.23291829 -0.20962647 -0.06987549 0.27950197 0.44254476 0.13975099 -0.116459146 -0.27950197
0000a0 78 8e 97 79 a8 a1 80 7d 7f 98 85 64 95 97 8b 85
       -0.53571206 -0.02329183 0.18633464 -0.51242024 0.5822958 0.41925293 -0.34937745 -0.41925293 -0.37266928 0.20962647 -0.23291829 -1.0015486 0.13975099 0.18633464 -0.09316732 -0.23291829
0000b0 7b 9e 91 9d 8d b3 9b 90 94 97 7d a3 9d 77 a2 76
       -0.46583658 0.34937745 0.04658366 0.32608563 -0.04658366 0.83850586 0.27950197 0.02329183 0.116459146 0.18633464 -0.41925293 0.46583658 0.32608563 -0.55900395 0.44254476 -0.5822958
0000c0 90 7e 7a 88 7a 8d 9c 76 85 91 91 88 8d 6e b5 8e
       0.02329183 -0.3959611 -0.48912844 -0.16304281 -0.48912844 -0.04658366 0.3027938 -0.5822958 -0.23291829 0.04658366 0.04658366 -0.16304281 -0.04658366 -0.7686304 0.8850895 -0.02329183
0000d0 68 79 84 90 88 84 9c 91 8f 7b 9d 8d 92 8f 80 98
       -0.90838134 -0.51242024 -0.25621012 0.02329183 -0.16304281 -0.25621012 0.3027938 0.04658366 0.0 -0.46583658 0.32608563 -0.04658366 0.06987549 0.0 -0.34937745 0.20962647
0000e0 a1 ad 88 83 86 8d 8f 8b 8f 9e 90 86 96 75 86 86
       0.41925293 0.6987549 -0.16304281 -0.27950197 -0.20962647 -0.04658366 0.0 -0.09316732 0.0 0.34937745 0.02329183 -0.20962647 0.16304281 -0.6055876 -0.20962647 -0.20962647
0000f0 91 8e 92 85 87 98 84 97 9c 85 96 8a 8d 8b 94 98
       0.04658366 -0.02329183 0.06987549 -0.23291829 -0.18633464 0.20962647 -0.25621012 0.18633464 0.3027938 -0.23291829 0.16304281 -0.116459146 -0.04658366 -0.09316732 0.116459146 0.20962647

MobilenetV1/MobilenetV1/Conv2d_1_depthwise/weights_quant/FakeQuantWithMinMaxVars u1 [1, 3, 3, 8] scale=0.08904975 zero_point=204
000000 80 cb cb cd cb ca cd cc 53 cb cc cb d0 cb d0 d0
       -6.767781 -0.08904975 -0.08904975 0.08904975 -0.08904975 -0.1780995 0.08904975 0.0 -10.77502 -0.08904975 0.0 -0.08904975 0.356199 -0.08904975 0.356199 0.356199
000010 a3 ce cb cc ca ca ca c8 d6 d3 cb ca cb ca c8 cc
       -3.6510396 0.1780995 -0.08904975 0.0 -0.1780995 -0.1780995 -0.1780995 -0.356199 0.8904975 0.62334824 -0.08904975 -0.1780995 -0.08904975 -0.1780995 -0.356199 0.0
000020 00 cf ca d5 df ca c4 d8 ff c7 cb d5 c9 ca ce be
       -18.16615 0.26714924 -0.1780995 0.80144775 1.6919452 -0.1780995 -0.712398 1.068597 4.5415373 -0.44524875 -0.08904975 0.80144775 -0.26714924 -0.1780995 0.1780995 -1.2466965
000030 b0 d3 ca cd ce cb cc cc 75 cf ca ca b5 ca ca cf
       -2.493393 0.62334824 -0.1780995 0.08904975 0.1780995 -0.08904975 0.0 0.0 -7.7473283 0.26714924 -0.1780995 -0.1780995 -2.0481443 -0.1780995 -0.1780995 0.26714924
000040 76 c9 cb cc d1 ca cd ca
       -7.6582785 -0.26714924 -0.08904975 0.0 0.44524875 -0.1780995 0.08904975 -0.1780995

MobilenetV1/MobilenetV1/Conv2d_1_pointwise/weights_quant/FakeQuantWithMinMaxVars u1 [16, 1, 1, 8] scale=0.016027806 zero_point=120
000000 78 c3 78 75 77 78 77 79 78 de 78 82 78 78 78 7a
       0.0 1.2020855 0.0 -0.048083417 -0.016027806 0.0 -0.016027806 0.016027806 0.0 1.6348362 0.0 0.16027807 0.0 0.0 0.0 0.032055613
000010 78 78 78 75 00 78 77 76 78 73 78 7d 7b 78 e7 7f
       0.0 0.0 0.0 -0.048083417 -1.9233367 0.0 -0.016027806 -0.032055613 0.0 -0.08013903 0.0 0.08013903 0.048083417 0.0 1.7790865 0.11219464
000020 78 24 78 68 75 78 5b 72 78 73 78 77 78 78 64 ff
       0.0 -1.3463358 0.0 -0.2564449 -0.048083417 0.0 -0.46480638 -0.096166834 0.0 -0.08013903 0.0 -0.016027806 0.0 0.0 -0.32055613 2.1637537
000030 78 7b 78 c1 78 78 79 79 78 73 78 6e 79 78 82 48
       0.0 0.048083417 0.0 1.1700299 0.0 0.0 0.016027806 0.016027806 0.0 -0.08013903 0.0 -0.16027807 0.016027806 0.0 0.16027807 -0.7693347
000040 78 cd 78 71 77 78 79 77 78 78 78 6a 7c 78 00 97
       0.0 1.3623636 0.0 -0.11219464 -0.016027806 0.0 0.016027806 -0.016027806 0.0 0.0 0.0 -0.22438928 0.064111225 0.0 -1.9233367 0.496862
000050 78 78 78 78 e9 78 79 76 78 79 78 77 73 78 e6 81
       0.0 0.0 0.0 0.0 1.8111421 0.0 0.016027806 -0.032055613 0.0 0.016027806 0.0 -0.016027806 -0.08013903 0.0 1.7630587 0.14425026
000060 78 78 78 76 ea 78 74 72 78 7b 78 75 79 78 7b 35
       0.0 0.0 0.0 -0.032055613 1.8271699 0.0 -0.064111225 -0.096166834 0.0 0.048083417 0.0 -0.048083417 0.016027806 0.0 0.048083417 -1.073863
000070 78 77 78 78 73 78 cc 7a 78 78 7a 77 78 78 78 79
       0.0 -0.016027806 0.0 0.0 -0.08013903 0.0 1.3463358 0.032055613 0.0 0.0 0.032055613 -0.016027806 0.0 0.0 0.0 0.016027806

MobilenetV1/MobilenetV1/Conv2d_2_depthwise/weights_quant/FakeQuantWithMinMaxVars u1 [1, 3, 3, 16] scale=0.047806233 zero_point=204
000000 c6 cc c5 d7 d7 bc d6 ce cf ca c6 c9 c5 bf ca b4
       -0.2868374 0.0 -0.33464363 0.52586854 0.52586854 -0.76489973 0.47806233 0.09561247 0.1434187 -0.09561247 -0.2868374 -0.1434187 -0.33464363 -0.62148106 -0.09561247 -1.1473496
000010 a0 d5 c0 dd c7 d3 d7 a9 b9 ca c3 ca c0 ea c8 00
       -2.1034741 0.4302561 -0.5736748 0.812706 -0.23903117 0.33464363 0.52586854 -1.6732181 -0.9083184 -0.09561247 -0.4302561 -0.09561247 -0.5736748 1.4341869 -0.19122493 -9.752472
000020 ff dc c6 d4 cd d5 bf ec bc ca c8 cc c6 be cc 04
       2.438118 0.76489973 -0.2868374 0.38244987 0.047806233 0.4302561 -0.62148106 1.5297995 -0.76489973 -0.09561247 -0.19122493 0.0 -0.2868374 -0.66928726 0.0 -9.561247
000030 b9 d0 c8 c5 d2 c1 d7 cd cd c9 c9 d9 d3 c4 c8 3c
       -0.9083184 0.19122493 -0.19122493 -0.33464363 0.2868374 -0.52586854 0.52586854 0.047806233 0.047806233 -0.1434187 -0.1434187 0.62148106 0.33464363 -0.38244987 -0.19122493 -6.8840976
000040 b8 cf c6 c0 c6 d0 d7 b5 c8 c7 c7 e2 d8 e0 c7 5b
       -0.95612466 0.1434187 -0.2868374 -0.5736748 -0.2868374 0.19122493 0.52586854 -1.0995433 -0.19122493 -0.23903117 -0.23903117 1.0517371 0.5736748 0.95612466 -0.23903117 -5.4021044
000050 f8 cb c9 c5 d1 d2 c2 e4 ce c7 ca d7 d2 c4 cc 1f
       2.1034741 -0.047806233 -0.1434187 -0.33464363 0.23903117 0.2868374 -0.47806233 1.1473496 0.09561247 -0.23903117 -0.09561247 0.52586854 0.2868374 -0.38244987 0.0 -8.270478
000060 e2 cc cc c9 d2 cd cd cd ca c9 cc c0 cc cf ca ec
       1.0517371 0.0 0.0 -0.1434187 0.2868374 0.047806233 0.047806233 0.047806233 -0.09561247 -0.1434187 0.0 -0.5736748 0.0 0.1434187 -0.09561247 1.5297995
000070 b8 c6 cb c8 cd cc cb ce d0 c9 cc b5 cb c9 ca a5
       -0.95612466 -0.2868374 -0.047806233 -0.19122493 0.047806233 0.0 -0.047806233 0.09561247 0.19122493 -0.1434187 0.0 -1.0995433 -0.047806233 -0.1434187 -0.09561247 -1.8644431
000080 c3 c8 cc ca ca cb cd c9 cc c9 cc c1 cc cd cd aa
       -0.4302561 -0.19122493 0.0 -0.09561247 -0.09561247 -0.047806233 0.047806233 -0.1434187 0.0 -0.1434187 0.0 -0.52586854 0.0 0.047806233 0.047806233 -1.625412

MobilenetV1/MobilenetV1/Conv2d_2_pointwise/weights_quant/FakeQuantWithMinMaxVars u1 [32, 1, 1, 16] scale=0.047491286 zero_point=119
000000 75 78 72 8f 79 76 76 76 75 75 8e 8a 79 75 73 77
       -0.09498257 0.047491286 -0.23745643 1.1397909 0.09498257 -0.047491286 -0.047491286 -0.047491286 -0.09498257 -0.09498257 1.0922996 0.90233445 0.09498257 -0.09498257 -0.18996514 0.0
000010 76 6e 75 77 7e 78 aa 78 72 6c 78 76 76 78 78 77
       -0.047491286 -0.42742157 -0.09498257 0.0 0.332439 0.047491286 2.4220555 0.047491286 -0.23745643 -0.52240413 0.047491286 -0.047491286 -0.047491286 0.047491286 0.047491286 0.0
000020 78 77 79 77 76 d6 77 62 78 77 7c 78 75 49 76 77
       0.047491286 0.0 0.09498257 0.0 -0.047491286 4.511672 0.0 -0.997317 0.047491286 0.0 0.23745643 0.047491286 -0.09498257 -2.1845992 -0.047491286 0.0
000030 7b 76 7a 77 75 96 76 8c 76 75 7c 78 7a 54 77 77
       0.18996514 -0.047491286 0.14247386 0.0 -0.09498257 1.4722298 -0.047491286 0.997317 -0.047491286 -0.09498257 0.23745643 0.047491286 0.14247386 -1.662195 0.0 0.0
000040 c3 68 78 76 6e 7a 7d 74 6e 72 79 76 78 76 74 77
       3.6093378 -0.71236926 0.047491286 -0.047491286 -0.42742157 0.14247386 0.28494772 -0.14247386 -0.42742157 -0.23745643 0.09498257 -0.047491286 0.047491286 -0.047491286 -0.14247386 0.0
000050 75 75 7b 76 78 97 78 01 77 7b 80 79 78 ae 78 77
       -0.09498257 -0.09498257 0.18996514 -0.047491286 0.047491286 1.5197212 0.047491286 -5.603972 0.0 0.18996514 0.42742157 0.09498257 0.047491286 2.6120207 0.047491286 0.0
000060 78 76 96 45 79 7c 76 77 77 76 67 00 85 76 a2 77
       0.047491286 -0.047491286 1.4722298 -2.3745644 0.09498257 0.23745643 -0.047491286 0.0 0.0 -0.047491286 -0.7598606 -5.651463 0.664878 -0.047491286 2.0421252 0.0
000070 7c 76 79 79 77 79 78 93 76 73 7b 77 76 93 77 77
       0.23745643 -0.047491286 0.09498257 0.09498257 0.0 0.09498257 0.047491286 1.329756 -0.047491286 -0.18996514 0.18996514 0.0 -0.047491286 1.329756 0.0 0.0
000080 79 7d 72 7a 79 77 77 78 7a 64 72 79 75 77 4c 77
       0.09498257 0.28494772 -0.23745643 0.14247386 0.09498257 0.0 0.0 0.047491286 0.14247386 -0.90233445 -0.23745643 0.09498257 -0.09498257 0.0 -2.0421252 0.0
000090 7c 83 76 78 79 78 80 77 98 7a 78 76 77 78 77 77
       0.23745643 0.56989545 -0.047491286 0.047491286 0.09498257 0.047491286 0.42742157 0.0 1.5672125 0.14247386 0.047491286 -0.047491286 0.0 0.047491286 0.0 0.0
0000a0 7d 77 7f 74 72 47 78 74 7a 6d 7f 72 7f e2 6f 77
       0.28494772 0.0 0.3799303 -0.14247386 -0.23745643 -2.2795818 0.047491286 -0.14247386 0.14247386 -0.47491285 0.3799303 -0.23745643 0.3799303 5.081568 -0.3799303 0.0
0000b0 79 77 79 76 74 81 79 55 76 73 7a 76 79 8c 75 77
       0.09498257 0.0 0.09498257 -0.047491286 -0.14247386 0.47491285 0.09498257 -1.6147038 -0.047491286 -0.18996514 0.14247386 -0.047491286 0.09498257 0.997317 -0.09498257 0.0
0000c0 77 77 6f ff 77 7b 78 7a 77 7a a0 7f 81 79 82 77
       0.0 0.0 -0.3799303 6.458815 0.0 0.18996514 0.047491286 0.14247386 0.0 0.14247386 1.9471427 0.3799303 0.47491285 0.09498257 0.52240413 0.0
0000d0 78 7a 78 79 78 78 75 76 75 6c 79 79 77 77 94 77
       0.047491286 0.14247386 0.047491286 0.09498257 0.047491286 0.047491286 -0.09498257 -0.047491286 -0.09498257 -0.52240413 0.09498257 0.09498257 0.0 0.0 1.3772473 0.0
0000e0 78 75 77 97 71 77 77 78 76 7b 76 66 7e 78 7f 77
       0.047491286 -0.09498257 0.0 1.5197212 -0.28494772 0.0 0.0 0.047491286 -0.047491286 0.18996514 -0.047491286 -0.8073519 0.332439 0.047491286 0.3799303 0.0
0000f0 77 77 77 75 76 76 78 76 78 7a 70 78 1f 76 79 77
       0.0 0.0 0.0 -0.09498257 -0.047491286 -0.047491286 0.047491286 -0.047491286 0.047491286 0.14247386 -0.332439 0.047491286 -4.179233 -0.047491286 0.09498257 0.0
